app/vegetation/attention/andy/model_ep1.pth (torch, 62334 bytes, 31 tensors)

encoder.lnXc.0.weight f4 [32, 15]
0.24153022 -0.019687314 -0.15451667 -0.31264964 0.09603412 -0.29389226 -0.08732878 -0.08105783
0.15462758 -0.024622634 -0.21776745 -0.2004423 0.21274047 -0.354773 -0.052577436 -0.10090706
-0.31096524 -0.29396567 0.062476933 0.31759545 -0.15892558 -0.09801984 0.22140671 0.06282954
0.06897556 0.32975212 -0.23632227 0.18423554 -0.27593172 0.2222891 0.14150633 0.21519184
-0.17446575 -0.2699195 -0.009108014 -0.2715587 0.15565501 -0.24057746 0.005381224 -0.32922867
-0.10743086 0.083468586 0.08305429 -0.35401562 -0.069662705 -0.27612576 -0.25360078 -0.038969927
0.32409072 0.2602656 -0.20421042 -0.22494741 0.07765734 -0.25290367 -0.22359794 0.05695266
0.04397849 0.26631284 0.32481888 0.29303607 0.19467445 0.3353024 0.3145468 -0.22089806
-0.34015837 0.0347625 0.12913379 -0.33680984 0.06830796 -0.14278689 -0.11431212 -0.023459977
0.1388253 0.01013774 -0.29942244 0.07235216 0.040759563 -0.26945752 -0.23535888 0.26688853
0.20181589 -0.12998532 0.27386186 0.110639 -0.15523772 -0.3386637 -0.24013726 0.31994334
0.2502862 -0.16513541 -0.3213272 0.15536402 0.33783102 -0.32090288 -0.21151961 0.1525988
-0.14016216 -0.16649391 -0.015348592 -0.0028171344 0.3344148 0.08412592 -0.14812613 0.236935
0.32441172 -0.28951412 -0.12425533 0.31629238 0.21607418 -0.29570392 0.23159157 -0.19771013
-0.010172155 0.0065442226 -0.12419801 0.22724189 -0.26320252 -0.06846619 0.05623812 -0.19318102
0.13202052 0.22827184 -0.16183023 0.22758402 0.27545172 0.25106984 0.04023956 0.22380874
-0.34638003 0.09134959 -0.12935895 0.0068335985 0.1703918 0.0075207064 -0.1405213 0.18974109
-0.13444617 0.20045939 0.266262 -0.0005254699 -0.07259925 -0.20179836 0.21684404 -0.22193286
-0.3106098 0.0122717265 -0.20624264 0.12636872 -0.2106892 -0.34618783 0.32309657 -0.19562805
0.05383072 0.19244055 0.023338838 -0.34210935 0.17827582 0.061408382 -0.31435633 -0.27407578
-0.0023820056 -0.2804575 -0.00777571 -0.08622813 -0.22190215 0.019855432 -0.03436062 0.29099292
-0.07345209 0.18951838 -0.18299665 0.32836586 0.13137196 -0.11380054 -0.081002675 0.31251037
0.20022626 0.060290616 0.08697006 0.25113332 -0.11707307 -0.10400408 0.33762532 -0.14496145
0.19089206 -0.25417295 0.32614288 0.12131647 0.21128099 -0.14940476 0.113075264 0.21480589
0.05788676 0.17942864 -0.09818582 -0.10616943 -0.24717544 -0.15412337 -0.28148386 -0.031644832
0.1907824 0.012616857 0.17959352 0.0142614525 -0.13915777 0.024931645 -0.011696638 -0.2576317
0.08137144 -0.060443655 -0.15865107 -0.33533806 -0.2019813 0.14992495 -0.29822364 0.16639586
0.23027544 0.013014802 -0.2829505 -0.14941558 0.024786232 0.15752351 -0.26049775 0.023056027
-0.26343015 0.16689205 -0.28306738 0.08686626 0.036906894 0.053367317 -0.08059082 0.01972816
0.16507676 0.14267275 -0.27374533 -0.33245772 0.008036846 -0.31733042 0.0567319 0.086165525
-0.18568465 0.21850511 -0.25254843 0.17044464 0.20256019 -0.07591778 0.03931632 0.0310815
-0.13209303 0.19314839 0.073353976 -0.22308142 0.21566238 -0.34785616 -0.24494152 0.18113428
00000000: b353 773e 4a47 a1bc 9e39 1ebe 9d13 a0be
00000010: 89ad c43d 0c79 96be 6ed9 b2bd a601 a6bd
00000020: b156 1e3e 68b5 c9bc 6efe 5ebe bf40 4dbe
00000030: a3d8 593e cfa4 b5be 705b 57bd 5ca8 cebd
00000040: d636 9fbe ab82 96be d0e7 7f3d df9b a23e
00000050: 63bd 22be a0be c8bd 71b8 623e c6ac 803d
00000060: 0f43 8d3d 45d5 a83e 77fe 71be 3ea8 3c3e
00000070: ec46 8dbe c19f 633e 09e7 103e 405b 5c3e
00000080: 26a7 32be e432 8abe c839 15bc be09 8bbe
00000090: 0764 1f3e f059 76be fb54 b03b a990 a8be
000000a0: b604 dcbd 94f1 aa3d 5e18 aa3d 8941 b5be
000000b0: 52ab 8ebd 5b60 8dbe f6d7 81be ee9e 1fbd
000000c0: 38ef a53e 8841 853e 891c 51be 9d58 66be
000000d0: d00a 9f3d 977c 81be dcf6 64be 3147 693d
000000e0: ca22 343d 285a 883e a94e a63e d308 963e
000000f0: bd58 473e c2ac ab3e 470c a13e 1a33 62be
00000100: 3d29 aebe 2063 0e3d a63b 043e 5772 acbe
00000110: 0be5 8b3d ba36 12be 791c eabd 232f c0bc
00000120: 3828 0e3e c318 263c e64d 99be 5f2d 943d
00000130: 80f3 263d 56f6 89be eb01 71be 9da5 883e
00000140: d3a8 4e3e df1a 05be 9f37 8c3e b396 e23d
00000150: a3f6 1ebe 5465 adbe 8be6 75be 9dcf a33e
00000160: 8325 803e 4219 29be 0085 a4be bf17 1f3e
00000170: 30f8 ac3e 624d a4be 9998 58be dc42 1c3e
00000180: ab86 0fbe 617d 2abe a978 7bbc ac9f 38bb
00000190: 6b38 ab3e 364a ac3d 60ae 17be 179f 723e
000001a0: 4b19 a63e 323b 94be 9479 febd 13f1 a13e
000001b0: 8d42 5d3e 8166 97be 5726 6d3e 8674 4abe
000001c0: 1ca9 26bc eb70 d63b 875b febd 19b2 683e
000001d0: 7bc2 86be 0038 8cbd f159 663d 3fd1 45be
000001e0: 6330 073e 18c0 693e d3b6 25be c90b 693e
000001f0: 0208 8d3e 3a8c 803e 3dd2 243d 1e2e 653e
00000200: b958 b1be 7e15 bb3d ac76 04be 61ec df3b
00000210: 307b 2e3e 4270 f63b d1e4 0fbe 7d4b 423e
00000220: 42ac 09be 3a45 4d3e 7e53 883e b0bf 09ba
00000230: eaae 94bd 3ba4 4ebe 5d0c 5e3e 5e42 63be
00000240: 3f08 9fbe 5a0f 493c 4531 53be cd66 013e
00000250: e9be 57be 883f b1be ea6c a53e b852 48be
00000260: 9a7d 5c3d 230f 453e 1731 bf3c f528 afbe
00000270: f08d 363e 5b87 7b3d 50f3 a0be a953 8cbe
00000280: 6c1b 1cbb 2098 8fbe 62cb febb 6098 b0bd
00000290: 513a 63be dca7 a23c b9bd 0cbd 06fd 943e
000002a0: 0d6e 96bd 1b11 423e 7963 3bbe 921f a83e
000002b0: 5f86 063e 4210 e9bd bbe4 a5bd 5c01 a03e
000002c0: 1d08 4d3e 4bf3 763d 5c1d b23d 8c94 803e
000002d0: 01c4 efbd 1700 d5bd 3add ac3e c670 14be
000002e0: 3579 433e f522 82be 33fc a63e c574 f83d
000002f0: 0b5a 583e 90fd 18be 0194 e73d 13f6 5b3e
00000300: ab1a 6d3d 24bc 373e a615 c9bd 5c6f d9bd
00000310: 8f1b 7dbe 84d2 1dbe a71e 90be 039e 01bd
00000320: 765c 433e efb6 4e3c 5de7 373e dea8 693c
00000330: 607f 0ebe 733d cc3c 41a3 3fbc 4de8 83be
00000340: 12a6 a63d c493 77bd 6d75 22be 6eb1 abbe
00000350: 30d4 4ebe ed85 193e c5b0 98be ad63 2a3e
00000360: 53cd 6b3e 093c 553c e3de 90be 6600 19be
00000370: 7f0c cb3c d84d 213e f65f 85be fedf bc3c
00000380: 51e0 86be c0e5 2a3e 35ee 90be f0e6 b13d
00000390: af2b 173d b097 5a3d cd0c a5bd f39c a13c
000003a0: e209 293e ce18 123e 5928 8cbe e637 aabe
000003b0: faac 033c 2279 a2be b55f 683d 8d77 b03d
000003c0: 1e24 3ebe cebf 5f3e 074e 81be 0a89 2e3e
000003d0: f06b 4f3e c87a 9bbd 260a 213d a19e fe3c
000003e0: 6543 07be b1c8 453e 9c3a 963d 756f 64be
000003f0: 99d6 5c3e 341a b2be f3d1 7abe 447b 393e

encoder.lnXc.0.bias f4 [32]
-0.19903943 0.09376404 0.15325472 0.16618791 -0.21569121 0.05572706 0.15786509 0.21807529
-0.02528929 0.042076655 0.020140499 0.10778724 -0.12684003 -0.16696288 -0.25245416 0.08991233
-0.12849711 0.07330187 -0.18840218 0.07657401 -0.15971445 -0.25449586 -0.15867086 0.2532236
-0.182137 0.048121274 0.19658463 0.06484504 0.25817326 -0.24114136 0.14828448 -0.057361897
00000000: fed0 4bbe 5c07 c03d ceee 1c3e 2a2d 2a3e
00000010: 28de 5cbe 0f42 643d 63a7 213e 214f 5f3e
00000020: 7c2b cfbc 9258 2c3d b0fd a43c 8ebf dc3d
00000030: 5ae2 01be 51f8 2abe ac41 81be f523 b83d
00000040: bf94 03be 4a1f 963d 80ec 40be d6d2 9c3d
00000050: 2f8c 23be 484d 82be 9d7a 22be 86a6 813e
00000060: 1f82 3abe d01a 453d 7b4d 493e 7acd 843d
00000070: 492f 843e c3ed 76be e3d7 173e 4ff4 6abd

encoder.lnXc.2.weight f4 [32, 32]
0.29982796 -0.09538596 -0.17852038 -0.20581102 0.15442903 0.16695131 0.23193687 0.10264579
-0.30807063 -0.097251885 0.08078066 0.025456231 -0.27612686 -0.057852484 0.15846653 -0.16105662
0.13093059 0.16736321 0.2360515 0.107944444 -0.17410345 -0.24794684 0.054572698 0.07047412
0.23267087 -0.1466913 -0.18880811 -0.24829082 -0.09121573 0.19150159 0.17776603 0.053623166
0.09399707 -0.025138743 0.14124376 -0.20272237 -0.07403215 -0.017410036 0.04620397 -0.18452482
-0.2476111 0.10359072 -0.05491543 -0.00025495794 0.1939173 -0.27982485 -0.056323085 -0.10436319
0.25907603 -0.24999568 0.093699604 0.26230344 -0.06692672 -0.093591005 0.0014268123 -0.08920851
-0.019542448 -0.1849654 0.29360336 0.048677575 -0.23022702 -0.09210895 0.060911752 0.11117053
0.2592186 -0.24456275 0.13293031 0.25117952 -0.003999726 -0.1512035 -0.043125063 -0.0061592264
0.28521803 0.28995773 0.2943203 -0.24673997 0.22358868 -0.19526188 -0.21671881 -0.12544525
-0.10122671 0.04284264 0.1896382 -0.2435804 -0.22637773 0.1853083 -0.29394078 -0.21294667
0.15849695 -0.29341745 0.19304992 0.1264018 -0.061418526 0.2946564 0.06024408 -0.31228116
-0.24250138 -0.056442183 0.23856707 -0.27323058 -0.12841873 0.039976865 0.2646544 -0.018941477
0.27530292 0.003455177 0.2486399 0.039931267 0.2658137 0.09887788 0.19121759 0.11022234
-0.020346805 0.16769749 0.019503593 -0.2756937 -0.20467404 0.13908009 0.20576435 0.10332824
0.080116205 -0.037984975 0.21331233 0.21018338 0.2781893 0.15488634 -0.229896 -0.11373027
-0.25636196 -0.052668855 -0.08993822 0.03947256 -0.04114994 0.31743503 0.012555373 0.048149344
-0.22692838 0.2716535 0.049446963 0.29993212 0.07011549 0.061842654 0.16201268 -0.1848425
-0.1398561 -0.013546124 -0.054767977 -0.27705365 0.30923158 -0.22160086 0.13914381 0.31670645
0.078568704 -0.14256936 0.27533463 0.13234632 -0.26258585 0.045790832 0.22732674 0.3052504
-0.091856144 0.078640655 -0.031550344 0.27983302 0.19958137 -0.0891711 -0.16103487 0.13312504
0.08490096 0.20693138 0.10011048 0.017162273 -0.14592071 0.09848069 0.21599406 -0.06793071
0.013902841 0.00126416 0.044108484 -0.26815337 -0.14947116 -0.16187328 0.16425836 -0.07965557
0.21977387 0.31375256 0.24503234 -0.20442076 0.25347617 0.048630588 -0.22834866 -0.27064177
-0.10516078 0.10011864 -0.0010782212 0.2920753 0.09733359 -0.11587264 -0.22675766 0.20576757
-0.21881388 -0.26353994 0.042669926 -0.26504046 0.14572766 -0.06141374 0.004982794 0.089068025
-0.1601772 0.17123221 0.13967654 -0.30043244 -0.257435 -0.16741496 -0.074245736 0.13261276
-0.22290199 0.053991824 0.18634012 0.26311833 -0.0914417 0.30013806 0.0481111 -0.114335135
0.06586308 -0.020714588 0.06757622 0.18888547 0.09389068 0.12838908 0.13492565 0.149328
0.20416655 -0.31401548 0.15680306 -0.16218461 -0.13241039 -0.12256902 -0.24626291 -0.15131162
0.14652812 -0.19556183 0.20112714 0.18417393 -0.21738511 0.2621652 -0.20082243 0.0854462
0.07940259 -0.055359192 -0.16662121 -0.27446932 -0.26350343 0.012183124 -0.208998 -0.20726322
00000000: 0d83 993e b759 c3bd 0cce 36be 20c0 52be
00000010: a522 1e3e 49f5 2a3e dc80 6d3e f537 d23d
00000020: 6fbb 9dbe ff2b c7bd 5570 a53d 9689 d03c
00000030: 8060 8dbe baf6 6cbd 0d45 223e 07ec 24be
00000040: ab12 063e 4361 2b3e 7cb7 713e fa11 dd3d
00000050: 2d48 32be c7e5 7dbe 9f87 5f3d bc54 903d
00000060: 4641 6e3e 3f36 16be ea56 41be f33f 7ebe
00000070: 50cf babd fe18 443e 4c08 363e f7a3 5b3d
00000080: 8981 c03d c4ef cdbc 34a2 103e 7496 4fbe
00000090: 2b9e 97bd 7e9f 8ebc 6040 3d3d 13f4 3cbe
000000a0: c48d 7dbe 5f27 d43d 00ef 60bd e0ab 85b9
000000b0: 4292 463e 3445 8fbe 09b3 66bd 5ebc d5bd
000000c0: 9da5 843e defe 7fbe 94e5 bf3d a34c 863e
000000d0: e010 89bd a4ac bfbd e003 bb3a f4b2 b6bd
000000e0: 7c17 a0bc 9267 3dbe 2e53 963e 2362 473d
000000f0: a2c0 6bbe 9ea3 bcbd 9a7e 793d 60ad e33d
00000100: 4db8 843e a86e 7abe e21e 083e 9a9a 803e
00000110: 2210 83bb 17d5 1abe e8a3 30bd 56d3 c9bb
00000120: 1908 923e 5775 943e 26b1 963e 67a9 7cbe
00000130: 6ef4 643e bbf2 47be 89eb 5dbe b874 00be
00000140: f34f cfbd c47b 2f3d 8430 423e 246d 79be
00000150: 90cf 67be 76c1 3d3e 687f 96be b10e 5abe
00000160: 064d 223e d03a 96be e1ae 453e 796f 013e
00000170: fe91 7bbd 34dd 963e 7fc2 763d 51e3 9fbe
00000180: 4852 78be eb2f 67bd ed4a 743e e1e4 8bbe
00000190: 3380 03be c8be 233d c880 873e 282b 9bbc
000001a0: 81f4 8c3e 4070 623b 759b 7e3e f88e 233d
000001b0: bc18 883e 7c80 ca3d 8bce 433e 40bc e13d
000001c0: 58ae a6bc e4b8 2b3e 00c6 9f3c ba27 8dbe
000001d0: 1296 51be 036b 0e3e e4b3 523e c29d d33d
000001e0: f713 a43d 2296 1bbd 8c6e 5a3e 503a 573e
000001f0: d46e 8e3e 869a 1e3e db69 6bbe 6aeb e8bd
00000200: e041 83be 4cbb 57bd 8831 b8bd fbad 213d
00000210: d78c 28bd d886 a23e 0db5 4d3c 3f38 453d
00000220: ea5f 68be 2b16 8b3e e688 4a3d b490 993e
00000230: b698 8f3d b94e 7d3d a7e6 253e 5a47 3dbe
00000240: 7036 0fbe 90f0 5dbc 6354 60bd fad9 8dbe
00000250: 9a53 9e3e 56eb 62be b77b 0e3e 5927 a23e
00000260: a1e8 a03d b4fd 11be a9f8 8c3e cb85 073e
00000270: a771 86be 2b8f 3b3d 57c8 683e c849 9c3e
00000280: 131f bcbd 5a0e a13d ef3a 01bd 4646 8f3e
00000290: 0f5f 4c3e 569f b6bd 53e6 24be ee51 083e
000002a0: 8ee0 ad3d d2e5 533e b906 cd3d e597 8c3c
000002b0: 3d6c 15be 3eb0 c93d 8c2d 5d3e 421f 8bbd
000002c0: bec8 633c 2cb2 a53a 19ab 343d 664b 89be
000002d0: f80e 19be 1cc2 25be 5833 283e 7622 a3bd
000002e0: 670c 613e 2da4 a03e c2e9 7a3e ad53 51be
000002f0: a1c7 813e de30 473d 3bd4 69be 8f91 8abe
00000300: 895e d7bd 000b cd3d 1a53 8dba e58a 953e
00000310: d556 c73d a24e edbd 2933 68be bcb4 523e
00000320: bf10 60be b5ee 86be a9c6 2e3d 62b3 87be
00000330: a239 153e f98c 7bbd b546 a33b 4c69 b63d
00000340: 7e05 24be 7f57 2f3e 5e07 0f3e 48d2 99be
00000350: 85ce 83be d46e 2bbe 260e 98bd a4cb 073e
00000360: 6b40 64be 8826 5d3d f2cf 3e3e 72b7 863e
00000370: c945 bbbd b2ab 993e 2510 453d 8a28 eabd
00000380: 39e3 863d a4b1 a9bc 6765 8a3d 316b 413e
00000390: c249 c03d 6d78 033e f329 0a3e 70e9 183e
000003a0: 0911 513e a3c6 a0be fb90 203e b913 26be
000003b0: 9796 07be 7705 fbbd 582c 7cbe 6ff1 1abe
000003c0: 780b 163e 5c41 48be 46f4 4d3e 1798 3c3e
000003d0: 349a 5ebe 843a 863e 65a4 4dbe 6bfe ae3d
000003e0: d39d a23d 52c0 62bd c09e 2abe 3e87 8cbe
000003f0: ece9 86be ba9b 473c 9203 56be cf3c 54be

encoder.lnXc.2.bias f4 [32]
0.15669736 0.15326093 -0.07642339 0.09504457 0.15114926 0.03577751 -0.14463481 0.017489405
-0.13836738 0.17118797 0.0685453 0.18728705 0.114895746 -0.11878511 0.006327606 -0.001948379
-0.0074625774 -0.16739655 0.067417145 0.0332471 -0.030842796 -0.15117231 0.14693066 0.09277521
0.08999892 0.18829508 -0.01312014 -0.10548539 0.0026780944 0.16826734 -0.068930976 -0.090502806
00000000: 4675 203e 6ff0 1c3e de83 9cbd baa6 c23d
00000010: dfc6 1a3e 708b 123d 261b 14be f145 8f3c
00000020: 2eb0 0dbe e64b 2f3e 7a61 8c3d 2dc8 3f3e
00000030: 764e eb3d 9c45 f3bd ce57 cf3b c060 ffba
00000040: a388 f4bb 006a 2bbe 0012 8a3d 1c2e 083d
00000050: 08aa fcbc eacc 1abe fe74 163e ee00 be3d
00000060: 5b51 b83d 6dd0 403e dbf5 56bc b908 d8bd
00000070: f882 2f3b 464e 2c3e af2b 8dbd 8959 b9bd

encoder.lnLst.0.0.weight f4 [32, 3]
-0.28356472 -0.42216262 -0.09832754 0.08946901 0.045806322 0.40391532 0.23486339 -0.17870559
-0.14387663 0.05332838 -0.3838463 -0.3274034 -0.31851774 0.2537815 -0.016253766 0.37328428
-0.3934659 0.3762805 0.30823174 -0.39630523 0.07451539 0.17461461 -0.3536743 0.18686865
-0.22929834 -0.11359023 -0.30751303 -0.37007222 0.27718365 -0.3354182 0.28205577 0.30260605
0.011000071 0.042133298 0.17871657 0.11592013 0.39653915 0.282217 -0.25820735 0.001793318
-0.19433375 0.33029842 0.093453236 0.3338954 -0.36699414 -0.13298984 -0.077920325 0.12673633
0.4045383 0.36052254 0.21393469 0.22219972 -0.32065088 -0.15167747 0.31212896 0.2315823
-0.14746399 -0.060918257 -0.23452607 0.17499584 0.3227284 0.009743644 0.17056118 -0.15648678
-0.06558611 0.36377478 -0.07198748 -0.15341094 0.3686751 -0.05049257 -0.40623337 0.11190359
0.25077078 0.31083152 -0.36367753 -0.22270244 -0.10486451 0.18555176 0.36506453 -0.16733505
0.2078358 -0.16630329 0.3740749 -0.08222333 -0.3241962 -0.325178 0.3514154 0.23302577
-0.29662803 0.013853475 0.27792653 -0.023631811 -0.339126 -0.16167204 0.08549398 -0.37057537
00000000: 652f 91be b325 d8be f35f c9bd 873b b73d
00000010: 699f 3b3d fdcd ce3e 0780 703e 99fe 36be
00000020: 6554 13be dc6e 5a3d 8187 c4be 6ba1 a7be
00000030: c214 a3be a6ef 813e 9e26 85bc 1e1f bf3e
00000040: 5d74 c9be d6a7 c03e 8dd0 9d3e 85e8 cabe
00000050: 869b 983d 2cce 323e cc14 b5be 7f5a 3f3e
00000060: 2fcd 6abe ffa1 e8bd 5972 9dbe 1b7a bdbe
00000070: 04eb 8d3e efbb abbe 9d69 903e 2eef 9a3e
00000080: a439 343c f793 2c3d 7a01 373e 8867 ed3d
00000090: 2e07 cb3e bf7e 903e c133 84be c40d eb3a
000000a0: 6dff 46be e01c a93e 6964 bf3d 56f4 aa3e
000000b0: a8e6 bbbe 7d2e 08be b194 9fbd 2bc7 013e
000000c0: a51f cf3e 6996 b83e b211 5b3e 5388 633e
000000d0: 5a2c a4be 5751 1bbe 5ecf 9f3e e923 6d3e
000000e0: cd00 17be 6c85 79bd 9a27 70be 1c32 333e
000000f0: a83c a53e cea3 1f3c 97a7 2e3e 123e 20be
00000100: 0352 86bd b040 ba3e 2c6e 93bd c217 1dbe
00000110: fcc2 bc3e 4cd1 4ebd d2fd cfbe b62d e53d
00000120: 0765 803e 4f25 9f3e f133 babe 1c0c 64be
00000130: 34c3 d6bd 4801 3e3e bde9 ba3e e159 2bbe
00000140: e8d2 543e 694b 2abe bf86 bf3e b564 a8bd
00000150: 0bfd a5be bb7d a6be b8ec b33e 4f9e 6e3e
00000160: a1df 97be b0f9 623c 634c 8e3e 8097 c1bc
00000170: eca1 adbe 5b8d 25be 7817 af3d 0ebc bdbe

encoder.lnLst.0.0.bias f4 [32]
0.25208363 -0.48860183 -0.38784266 -0.16789922 -0.5475867 -0.126098 0.22891212 -0.30939704
-0.14743602 0.16228665 -0.2772734 -0.13258483 -0.32850236 0.5714722 0.49559978 0.052912608
-0.36659196 0.07145051 0.16319682 -0.21224804 0.08460614 -0.020178024 -0.328987 0.27027354
-0.14216815 0.08528531 -0.4480572 0.23182543 0.1409915 0.2790797 0.005843144 0.09576902
00000000: 1b11 813e 052a fabe 5093 c6be c6ed 2bbe
00000010: a42e 0cbf d61f 01be f067 6a3e 4a69 9ebe
00000020: 78f9 16be 792e 263e c7f6 8dbe 51c4 07be
00000030: 7631 a8be 014c 123f 41bf fd3e e4ba 583d
00000040: f1b1 bbbe a554 923d 111d 273e 8d57 59be
00000050: fc45 ad3d 624c a5bc fc70 a8be 4b61 8a3e
00000060: 8794 11be 11aa ae3d c167 e5be a563 6d3e
00000070: 1360 103e 89e3 8e3e d877 bf3b 8c22 c43d

encoder.lnLst.0.2.weight f4 [32, 32]
-0.16349088 0.047883134 -0.08864668 0.13058805 0.08500337 -0.29075503 -0.22888081 -0.003972358
-0.26431662 -0.20698826 0.1965153 -0.19012547 0.07494303 -0.13506742 0.24734111 -0.2037783
0.07350079 0.071175896 -0.15161021 -0.08336981 0.16116524 -0.11472454 0.20428595 -0.15998031
-0.22307217 -0.055796217 -0.19417436 -0.19970423 0.1459376 0.12404426 -0.03778121 -0.2535134
0.12422308 -0.27962705 -0.20374487 0.18719289 -0.2324794 0.02037737 0.262667 0.005224426
0.28862566 0.10962722 0.09990312 0.2913789 -0.10407829 -0.2946893 0.281178 -0.24285398
-0.009354563 -0.030540254 0.17405806 -0.23438329 -0.12521459 -0.29717052 -0.29589775 0.12147906
-0.012396348 -0.10491174 0.024114141 0.09620251 -0.22770888 -0.17536354 0.23068295 0.18692738
-0.05418391 0.24207173 0.003385507 0.01078272 -0.15362646 0.25505978 -0.05268151 -0.1336824
0.17819816 -0.13227439 -0.28595448 0.10261124 0.093524866 0.044756595 -0.16395186 0.2254026
0.1471685 -0.16008161 -0.26611918 -0.15971193 -0.03551159 -0.027094252 -0.23098032 0.12033133
-0.035459172 -0.24797955 0.1816705 0.13847235 -0.06990135 0.25884616 0.1766473 -0.080337435
-0.068518676 -0.03612513 0.103958935 -0.097511314 -0.044520587 -0.065516435 -0.063991986 -0.2427292
0.28910092 0.18176773 -0.23766434 -0.016568348 -0.1232666 -0.30984 0.25035644 -0.14741464
0.13468148 -0.059833575 0.0018461999 0.027188411 0.09706903 0.13229176 -0.14969951 0.08627644
0.28169855 0.17913559 -0.0040929182 -0.14390314 0.11849885 -0.15271921 -0.046208963 0.21557155
0.075116456 0.29136378 -0.102589004 0.03665066 -0.27400434 -0.24421337 -0.263357 0.17710085
-0.28003582 0.15561774 -0.1509587 0.30254817 0.14319742 0.0015537397 0.2596884 -0.28443795
0.007264186 -0.2829263 -0.08506963 -0.3059982 0.10312718 0.20009296 0.28105104 0.13636054
-0.2820503 0.30217868 0.3056991 -0.25539178 -0.17368546 0.041977335 0.2901313 0.042025503
-0.011650324 -0.16536023 0.24423422 -0.016206108 0.14807725 -0.023934081 0.2299217 -0.0043854313
0.07576567 -0.13318181 -0.17032178 0.23295444 -0.027662404 -0.07919911 -0.112366825 0.21466894
-0.041218266 0.16958784 0.13645859 -0.08876049 0.019690601 0.11644204 0.15791728 0.2837006
-0.24856612 -0.11197069 0.21751192 -0.2175273 0.1927664 -0.17197224 0.21127822 -0.13369152
0.029644707 -0.01778664 -0.010483819 0.19951493 -0.11003042 0.023770161 0.053290565 -0.20274797
-0.29068407 -0.19345959 -0.18671484 -0.0757966 0.0861256 -0.23385605 0.27440494 -0.048033617
0.13156676 0.12876706 0.092038 0.25227502 0.16034693 0.20079653 0.17782955 0.04149092
0.030223545 0.21077667 -0.16566125 0.31669676 0.19491267 -0.26568335 0.050428443 0.012891691
0.123670615 -0.14009042 -0.08354566 -0.05801962 0.007784224 0.054774374 -0.19582199 0.29670322
-0.04255428 -0.028184965 0.07058106 0.19418217 0.13474512 -0.03928064 -0.16717109 -0.14108174
0.1596422 -0.051704634 -0.048589222 0.112317085 0.21630564 0.020531293 0.18971717 -0.12415335
-0.23660207 0.27804896 0.23175384 0.15544891 0.16075061 0.07395377 -0.015029324 -0.19829543
00000000: 276a 27be 1b21 443d 648c b5bd e0b8 053e
00000010: 3f16 ae3d d8dd 94be bb5f 6abe 8e2a 82bb
00000020: 8254 87be bbf4 53be 4f3b 493e 40b0 42be
00000030: bb7b 993d 1d4f 0abe fd46 7d3e 42ab 50be
00000040: 9587 963d abc4 913d b53f 1bbe cabd aabd
00000050: 8008 253e b3f4 eabd 5630 513e e1d1 23be
00000060: 086d 64be 938a 64bd a5d5 46be 447f 4cbe
00000070: ab70 153e eb0a fe3d 78c0 1abd 82cc 81be
00000080: ac68 fe3d 472b 8fbe 7fa2 50be 7eaf 3f3e
00000090: 140f 6ebe 71ee a63c 4a7c 863e a931 ab3b
000000a0: bec6 933e 3c84 e03d 029a cc3d 9d2f 953e
000000b0: 0027 d5bd 84e1 96be 90f6 8f3e b7ae 78be
000000c0: e243 19bc 8e2f fabc 473c 323e 2c02 70be
000000d0: 4138 00be bc26 98be e97f 97be 03ca f83d
000000e0: 0d1a 4bbc f7db d6bd 058b c53c d205 c53d
000000f0: 842c 69be 8092 33be 2738 6c3e e469 3f3e
00000100: f3ef 5dbd a7e1 773e 62df 5d3b 01aa 303c
00000110: 4150 1dbe 3297 823e 91c8 57bd 0ae4 08be
00000120: 9479 363e f072 07be a068 92be d825 d23d
00000130: f789 bf3d b152 373d ffe2 27be f0cf 663e
00000140: 57b3 163e 6fec 23be c640 88be 868b 23be
00000150: 9a74 11bd c4f4 ddbc 1b86 6cbe 4670 f63d
00000160: a33d 11bd 5aee 7dbe d507 3a3e b2cb 0d3e
00000170: 7028 8fbd 7c87 843e 08e3 343e f487 a4bd
00000180: 8553 8cbd f2f7 13bd 6ce8 d43d 03b4 c7bd
00000190: 385b 36bd 7b2d 86bd 3b0e 83bd 018e 78be
000001a0: 0905 943e 5221 3a3e 485e 73be 58ba 87bc
000001b0: 3373 fcbd 59a3 9ebe b82e 803e ddf3 16be
000001c0: f1e9 093e 0d14 75bd 30fc f13a 3bba de3c
000001d0: 21cc c63d 7e77 073e d44a 19be b4b1 b03d
000001e0: cb3a 903e 526f 373e e31d 86bb 585b 13be
000001f0: 86af f23d 6d62 1cbe 9c45 3dbd cabe 5c3e
00000200: a8d6 993d a22d 953e 2f1a d2bd 011f 163d
00000210: 4c4a 8cbe 1213 7abe bbd6 86be ed59 353e
00000220: db60 8fbe 425a 1f3e eb94 1abe 98e7 9a3e
00000230: 58a2 123e daa6 cb3a e1f5 843e daa1 91be
00000240: 6908 ee3b b7db 90be fc38 aebd ccab 9cbe
00000250: 5834 d33d 2be5 4c3e ece5 8f3e 19a2 0b3e
00000260: e668 90be 2ab7 9a3e 9884 9c3e b6c2 82be
00000270: 9ada 31be 6df0 2b3d 178c 943e ef22 2c3d
00000280: 00e1 3ebc 3154 29be 8918 7a3e acc2 84bc
00000290: 90a1 173e 6811 c4bc 9870 6b3e aab3 8fbb
000002a0: 082b 9b3d d060 08be d568 2ebe 9c8b 6e3e
000002b0: 449c e2bc 2533 a2bd 9420 e6bd 2dd2 5b3e
000002c0: 7cd4 28bd 6fa8 2d3e cdbb 0b3e 0fc8 b5bd
000002d0: 2f4e a13c 2a79 ee3d 11b5 213e 3441 913e
000002e0: 1e88 7ebe e450 e5bd 72bb 5e3e 7abf 5ebe
000002f0: 8e64 453e 7e19 30be 5159 583e 6ee6 08be
00000300: 75d9 f23c 4ab5 91bc 53c4 2bbc a44d 4c3e
00000310: a157 e1bd a4b9 c23c 3547 5a3d 2a9d 4fbe
00000320: 8bd4 94be 451a 46be 2d32 3fbe 3f3b 9bbd
00000330: 9e62 b03d f677 6fbe ce7e 8c3e e6be 44bd
00000340: 70b9 063e 83db 033e 6b7e bc3d 312a 813e
00000350: fc31 243e 9b9d 4d3e f318 363e 62f2 293d
00000360: 5e97 f73c d7d5 573e 1aa3 29be 1426 a23e
00000370: 3097 473e a607 88be 0e8e 4e3d ac37 533c
00000380: 0547 fd3d dd73 0fbe fd19 abbd fba5 6dbd
00000390: ce12 ff3b 185b 603d 8f85 48be 7ce9 973e
000003a0: 664d 2ebd 28e4 e6bc ce8c 903d b1d7 463e
000003b0: a0fa 093e bde4 20bd e62e 2bbe bb77 10be
000003c0: 3f79 233e 3dc8 53bd 7e05 47bd 8006 e63d
000003d0: 3a7f 5d3e 3e31 a83c 3845 423e 1d44 febd
000003e0: d047 72be 6f5c 8e3e e150 6d3e 002e 1f3e
000003f0: cf9b 243e 1375 973d 8e3d 76bc f50d 4bbe

encoder.lnLst.0.2.bias f4 [32]
0.089512505 0.06338181 0.09255671 -0.06693562 0.033679303 0.0018986295 -0.0010858611 0.08499227
-0.028730987 0.0068046493 -0.1085409 0.026429024 -0.17055267 0.06901998 -0.17075066 0.079569176
0.027176447 0.0021802932 -0.04872948 0.10243704 0.026524696 -0.043493573 -0.015211991 0.04505906
0.07668799 0.13167265 0.096621655 0.054808088 0.009461388 -0.007802682 -0.041811574 -0.08005657
00000000: 5552 b73d 53ce 813d 5f8e bd3d 8b15 89bd
00000010: 4ff3 093d 6fdb f83a 7453 8eba 6d10 ae3d
00000020: 3f5d ebbc 89f9 de3b b14a debd ae81 d83c
00000030: 5ca5 2ebe 595a 8d3d 43d9 2ebe 2af5 a23d
00000040: 24a1 de3c 40e3 0e3b 9098 47bd 83ca d13d
00000050: 524a d93c 5126 32bd b73b 79bc d98f 383d
00000060: 980e 9d3d 32d5 063e 93e1 c53d 727e 603d
00000070: f003 1b3c a4ad ffbb 9d42 2bbd b3f4 a3bd

encoder.lnLst.1.0.weight f4 [32, 8]
-0.27175373 0.053898502 0.31947982 -0.053829484 0.27647465 -0.31471127 0.06810762 -0.12701377
-0.2970791 -0.3290616 0.18431309 0.08397976 0.10159412 0.15175788 0.023922723 0.33505222
0.16224542 0.09534069 0.27739614 0.12098385 -0.25324917 -0.3716108 -0.09727946 0.20520702
-0.40037954 0.03893505 -0.2517105 -0.035113458 0.3126489 -0.30080643 0.23170151 0.36504507
-0.2258589 -0.0030552596 -0.37488627 -0.17331305 -0.34775648 0.3136881 -0.28717288 0.36996895
-0.26117814 0.2400549 0.1578122 -0.39845815 0.18675952 0.30468866 0.18351114 -0.12943421
-0.099254355 -0.24785653 0.01382132 -0.21242407 0.38463542 0.3455983 -0.08255948 -0.33711392
0.38162073 -0.19339465 0.15313654 -0.28984022 -0.3361045 0.2100456 -0.007756994 -0.014400886
0.23237586 0.17613684 -0.026746247 -0.20237236 0.07287213 -0.21239692 -0.33160758 0.34085146
-0.03615115 0.009699146 -0.35983533 -0.13025329 -0.22607344 0.09411151 0.19593038 0.25307965
-0.11000133 0.11222712 0.029441683 -0.3238301 0.07154403 -0.10207974 0.022404287 0.1390093
0.15458316 0.17218259 -0.25510234 -0.31767753 0.0391919 -0.12329375 0.16096129 -0.16547307
-0.08218377 -0.15387204 -0.2109058 0.004142489 0.28607818 -0.27155527 0.34632492 -0.2424867
-0.1749768 -0.16828518 -0.35956085 -0.02413019 0.058446877 -0.21564402 0.28819674 0.15752406
0.08294041 0.022646245 0.30506453 0.116548896 0.33126497 -0.23316053 0.32813817 0.32327703
0.16893546 0.34485337 0.323348 0.30598292 -0.3329554 0.20167308 -0.23914465 0.07809351
0.20457268 0.123137474 -0.048719615 0.2120549 0.3131288 -0.1740744 0.2827652 0.09740493
0.37037534 0.37486988 0.23752321 -0.2640148 -0.2093209 -0.34495622 0.15481803 0.29373074
0.2743784 -0.03831007 -0.15104622 -0.2450086 -0.30128777 -0.30349892 -0.12098701 -0.26710883
-0.32615227 -0.32021758 -0.34982136 0.24056225 -0.09851074 -0.13507916 0.37920773 -0.21192004
0.31789947 0.25268745 -0.048114486 -0.2829933 0.19664596 -0.31204888 0.35005614 -0.28096464
0.09573988 -0.11633829 -0.21916805 0.17104872 -0.3805502 -0.07295954 -0.2860009 -0.22221415
-0.30375707 0.21081749 -0.1099175 0.1338385 0.20679486 -0.30662543 0.0055908114 0.36668643
0.27009594 0.19374463 -0.044082038 -0.06360889 -0.2540972 0.2922248 0.04572482 -0.24997286
-0.14501268 0.2361917 0.11341667 -0.28518692 0.2088178 -0.0737939 0.36817202 0.008430956
-0.27509353 -0.167836 -0.36566025 0.2675303 -0.21729241 -0.34438333 -0.28705356 -0.20536475
-0.32296076 0.044963285 -0.08845308 0.18022773 0.1827003 -0.14338067 -0.04597386 -0.39030612
-0.29602462 0.06199284 0.042597882 0.013501827 -0.118956104 0.055511788 -0.16755687 -0.20057331
-0.31293076 -0.32809687 -0.21650699 0.22986883 0.37860548 0.023859367 0.00066165597 -0.07814101
-0.23330185 -0.04597018 0.09717091 -0.2979737 -0.24641332 0.23099367 -0.303936 -0.37547708
0.25827357 -0.3811493 0.015391501 0.32772905 -0.2808698 0.09800122 0.024091 -0.23935704
0.107593425 -0.07371723 0.017679635 0.21296954 -0.12042206 0.13464616 0.0016555763 -0.12214573
00000000: 4e23 8bbe adc4 5c3d dc92 a33e 4e7c 5cbd
00000010: 168e 8d3e d621 a1be 027c 8b3d e60f 02be
00000020: c01a 98be c37a a8be 92bc 3c3e 95fd ab3d
00000030: 9410 d03d 6b66 1b3e 96f9 c33c f78b ab3e
00000040: aa23 263e fb41 c33d de06 8e3e 61c6 f73d
00000050: e0a9 81be c543 bebe 743a c7bd ca21 523e
00000060: 8cfe ccbe 5c7a 1f3d 33e0 80be 21d3 0fbd
00000070: 8413 a03e 4d03 9abe 2943 6d3e 30e7 ba3e
00000080: 8e47 67be c03a 48bb 18f1 bfbe fa78 31be
00000090: 230d b2be ba9b a03e 5308 93be 926c bd3e
000000a0: 24b9 85be f4d0 753e 8599 213e b502 ccbe
000000b0: e33d 3f3e 2700 9c3e 58ea 3b3e 678a 04be
000000c0: de45 cbbd 1ace 7dbe d172 623c b285 59be
000000d0: efee c43e 43f2 b03e f214 a9bd 329a acbe
000000e0: cb63 c33e 3f09 46be d3cf 1c3e f065 94be
000000f0: e415 acbe 3216 573e 622e febb b2f1 6bbc
00000100: f0f3 6d3e 375d 343e f21a dbbc b33a 4fbe
00000110: fc3d 953d 947e 59be 78c8 a9be 1584 ae3e
00000120: 3a13 14bd 2be9 1e3c 563c b8be 1e61 05be
00000130: cc7f 67be 89bd c03d f9a1 483e a893 813e
00000140: 6148 e1bd 55d7 e53d af2f f13c 0fcd a5be
00000150: ad85 923d 2f0f d1bd 3289 b73c 7458 0e3e
00000160: 0c4b 1e3e a250 303e c69c 82be a1a6 a2be
00000170: b087 203d 6f81 fcbd 09d3 243e c671 29be
00000180: f74f a8bd a290 1dbe b1f7 57be b7bd 873b
00000190: d778 923e 4b09 8bbe 8051 b13e 6f4e 78be
000001a0: 1e2d 33be f352 2cbe 5c18 b8be adac c5bc
000001b0: fe65 6f3d c9d1 5cbe 868e 933e fd4d 213e
000001c0: a9dc a93d 9e84 b93c 6b31 9c3e 30b1 ee3d
000001d0: 909b a93e a2c1 6ebe ba01 a83e 9184 a53e
000001e0: 6bfd 2c3e 9f90 b03e de8d a53e cba9 9c3e
000001f0: 2179 aabe 6383 4e3e 56e2 74be 7def 9f3d
00000200: 807b 513e 802f fc3d 388e 47bd eb24 593e
00000210: 6b52 a03e 8f40 32be 9ac6 903e 3c7c c73d
00000220: d6a1 bd3e f2ee bf3e 4939 733e f32c 87be
00000230: 3858 56be 1a9e b0be 9e88 1e3e e063 963e
00000240: 537b 8c3e 05eb 1cbd dcab 1abe 89e3 7abe
00000250: 6442 9abe 3664 9bbe 0ac8 f7bd 7dc2 88be
00000260: 6efd a6be 8ff3 a3be c91b b3be f355 763e
00000270: 00c0 c9bd 3152 0abe 8427 c23e 9101 59be
00000280: b8c3 a23e 4060 813e b213 45bd 7fe4 90be
00000290: 8f5d 493e dfc4 9fbe 8f3a b33e 99da 8fbe
000002a0: 4513 c43d c542 eebd 976d 60be 6527 2f3e
000002b0: 7ad7 c2be d06b 95bd b66e 92be 1b8c 63be
000002c0: 0c86 9bbe 8ae0 573e 6d1c e1bd f60c 093e
000002d0: 08c2 533e 02fe 9cbe 2033 b73b 53be bb3e
000002e0: 044a 8a3e fe64 463e 5e8f 34bd 6145 82bd
000002f0: 0719 82be 7d9e 953e f349 3b3d e3f8 7fbe
00000300: 347e 14be 3ddc 713e 0047 e83d 0504 92be
00000310: 55d4 553e 4221 97bd 0b81 bc3e fe21 0a3c
00000320: 0fd9 8cbe 33dd 2bbe d237 bbbe bbf9 883e
00000330: e781 5ebe 0353 b0be aff8 92be 234b 52be
00000340: 1d5b a5be 6c2b 383d e326 b5bd 9e8d 383e
00000350: ca15 3b3e 62d2 12be 164f 3cbd 34d6 c7be
00000360: 8a90 97be 34ec 7d3d 1e7b 2e3d c436 5d3c
00000370: 429f f3bd 5460 633d 0794 2bbe 1763 4dbe
00000380: 7638 a0be 50fc a7be 02b4 5dbe bc62 6b3e
00000390: 94d8 c13e b874 c33c fb72 2d3a 6508 a0bd
000003a0: aee6 6ebe 3a4b 3cbd 8b01 c73d 0290 98be
000003b0: c653 7cbe 9b89 6c3e 809d 9bbe 883e c0be
000003c0: 6f3c 843e 0026 c3be a22c 7c3c 1acc a73e
000003d0: 2bce 8fbe ddb4 c83d 7d5a c53c 031a 75be
000003e0: f159 dc3d 0ff9 96bd e2d4 903c b014 5a3e
000003f0: d79f f6bd afe0 093e ecff d83a 8a27 fabd

encoder.lnLst.1.0.bias f4 [32]
0.11321201 0.21414705 -0.15556385 -0.12984188 -0.03333121 0.25318497 -0.25296307 -0.3363239
-0.116138466 0.21203107 -0.1660241 -0.036384918 0.13901877 0.29623842 0.25218713 0.047924083
0.23871925 0.08325733 -0.2835749 -0.33755592 -0.087447986 0.12967715 0.056098904 0.13555431
-0.18237275 -0.21617818 0.1746921 -0.19224514 -0.18440734 0.04016971 -0.18217742 -0.28217432
00000000: b3db e73d 5d49 5b3e 214c 1fbe 45f5 04be
00000010: 4f86 08bd 76a1 813e 6084 81be a532 acbe
00000020: 01da edbd ac1e 593e 3902 2abe 5a08 15bd
00000030: f05a 0e3e 90ac 973e ac1e 813e 0b4c 443d
00000040: d272 743e d282 aa3d bb30 91be 21d4 acbe
00000050: ee17 b3bd 16ca 043e f7c7 653d c0ce 0a3e
00000060: ecbf 3abe d05d 5dbe 7ce2 323e e9db 44be
00000070: 47d5 3cbe fe88 243d b88c 3abe 2779 90be

encoder.lnLst.1.2.weight f4 [32, 32]
0.2778477 0.22937213 -0.21876116 -0.17699122 0.21190831 -0.043126144 -0.30579582 -0.16852148
-0.016670112 0.13649143 0.065918125 -0.12888475 -0.24865869 -0.19890955 0.004585975 -0.24840513
-0.09977775 0.17971027 0.038452968 -0.11545954 -0.09976822 0.021781942 0.14342493 0.09542092
0.1421203 0.08825379 0.18688773 0.30148873 -0.27312702 -0.29231268 -0.034288403 -0.08182081
-0.31623888 -0.25758234 -0.078945644 0.07958222 -0.26876584 0.24828687 0.09006073 -0.24505599
0.2470809 -0.21866421 0.30563727 -0.17487632 0.14978978 0.2255445 0.27075136 0.023754459
0.20309976 0.042871796 -0.21948636 0.10148852 0.2179383 0.024815531 0.19592889 0.09629082
0.081825025 -0.23137839 -0.19254342 0.14984141 0.05081038 0.22014189 -0.19827874 0.21630986
-0.002733972 -0.01620409 -0.27799112 -0.14205132 -0.25154993 0.18382064 0.13432491 0.13811809
0.13045971 0.024339827 -0.2457653 0.24362633 -0.060879137 0.12995075 -0.13568272 0.11580267
-0.22180627 0.21694785 -0.17607947 -0.1578932 -0.18966143 -0.09700957 -0.13914457 0.055713955
-0.23947556 -0.09948251 -0.15503383 -0.02327332 -0.16369501 0.07654596 0.12590262 -0.14408846
0.18031082 -0.24030632 0.044160422 0.15564908 -0.22092886 -0.02443928 0.2701896 0.20582902
-0.086841814 0.2212222 -0.20788082 -0.27194625 0.07785942 0.2446848 -0.019851862 -0.016039375
0.0030367598 0.063312955 -0.065316014 0.0393458 0.034223072 0.2206357 -0.055485684 -0.0075052734
-0.26047033 0.21311127 0.10692568 0.2570686 0.24525069 0.13980299 -0.2436726 0.0005995007
0.014227774 0.2330766 0.3021701 -0.17480966 0.019756887 -0.16035767 0.11044984 -0.22075693
-0.09665621 -0.114488855 -0.21022369 0.009298296 -0.1714171 0.18414705 0.013875754 0.053294767
0.16910774 0.22533283 0.2577214 -0.024854876 -0.2723508 -0.059136815 0.047098618 -0.055640694
-0.27706423 0.057162922 -0.17784293 0.20709106 0.2363843 0.0881074 0.0820455 -0.051499613
0.27625218 -0.25671282 -0.015693363 -0.23031338 9.664334e-05 -0.2926273 -0.27305377 -0.004008347
-0.043815956 -0.27693143 0.034513168 -0.259644 -0.13251439 -0.090583496 0.10754208 -0.2193305
-0.24346848 -0.06703184 -0.2691914 -0.023977265 0.21018264 0.09335472 -0.25759298 -0.17174754
0.15715705 0.073685594 0.10490413 0.23737772 -0.05295543 -0.21003596 -0.0069564353 0.26908207
0.24360275 0.07240357 -0.012143003 -0.13165751 0.039807416 -0.1945899 0.150981 0.19242464
-0.06015183 -0.09866296 -0.18972972 0.047957562 0.0069701592 -0.11855764 0.018266212 -0.015948042
-0.114973396 -0.09929598 -0.23569816 -0.18559742 0.13875952 0.2291838 -0.18639533 0.075617604
-0.07590515 0.054692622 -0.15710938 0.24466671 0.07062782 -0.11309494 0.23692513 -0.19341044
0.067273505 0.016697291 -0.076458015 -0.053592283 -0.008117306 -0.009819574 0.2680106 0.24779145
-0.07663504 0.14399517 -0.25113726 -0.08113465 0.002665712 0.29490036 0.13973612 0.18954168
0.014106045 -0.031852625 0.05681336 -0.29801634 -0.27475518 -0.072071746 -0.086569 0.2937854
0.08917019 -0.0753753 -0.28610632 -0.028971264 0.18508042 -0.29139307 0.14235854 -0.23731472
00000000: 0e42 8e3e 87e0 6a3e ed02 60be 303d 35be
00000010: 7efe 583e 0aa5 30bd 4591 9cbe e590 2cbe
00000020: c28f 88bc 69c4 0b3e 1500 873d 5dfa 03be
00000030: 62a0 7ebe f2ae 4bbe f245 963b ea5d 7ebe
00000040: 4758 ccbd f805 383e dc80 1d3d 0d76 ecbd
00000050: 4853 ccbd 0b70 b23c fcdd 123e 0b6c c33d
00000060: fc87 113e 67be b43d 7f5f 3f3e bb5c 9a3e
00000070: 4ed7 8bbe 02aa 95be ff71 0cbd ab91 a7bd
00000080: 10ea a1be d5e1 83be 41ae a1bd 01fc a23d
00000090: ad9b 89be ea3e 7e3e c371 b83d f5ef 7abe
000000a0: c702 7d3e 83e9 5fbe 7d7c 9c3e c712 33be
000000b0: 7e62 193e 23f5 663e ec9f 8a3e b698 c23c
000000c0: 62f9 4f3e 569a 2f3d 08c1 60be 37d9 cf3d
000000d0: 382b 5f3e f149 cb3c 95a1 483e 1f34 c53d
000000e0: e193 a73d 75ee 6cbe 1a2a 45be 0770 193e
000000f0: 8c1e 503d e06c 613e 9509 4bbe 5580 5d3e
00000100: 702c 33bb 71be 84bc da54 8ebe e775 11be
00000110: 27cb 80be 7a3b 3c3e 788c 093e d46e 0d3e
00000120: 3b97 053e 5164 c73c e6a9 7bbe 2e79 793e
00000130: 675c 79bd cf11 053e 69f0 0abe f329 ed3d
00000140: 2f21 63be 9427 5e3e 2d4e 34be c1ae 21be
00000150: 9b36 42be f4ac c6bd ea7b 0ebe 5134 643d
00000160: 1539 75be 7cbd cbbd 30c1 1ebe b1a7 bebc
00000170: aa9f 27be 21c4 9c3d 9eec 003e ed8b 13be
00000180: 66a3 383e dc12 76be 8fe1 343d 7962 1f3e
00000190: 2d3b 62be e334 c8bc 4b56 8a3e d8c4 523e
000001a0: 1fda b1bd 1388 623e b6de 54be 8a3c 8bbe
000001b0: c274 9f3d a78e 7a3e 5fa0 a2bc 0265 83bc
000001c0: 6004 473b 39aa 813d 67c4 85bd 1029 213d
000001d0: 7e2d 0c3d 53ee 613e f544 63bd ccee f5bb
000001e0: 5e5c 85be d739 5a3e dafb da3d 7f9e 833e
000001f0: ff22 7b3e 8428 0f3e 4f85 79be d027 1d3a
00000200: 9c1b 693c a2ab 6e3e 0ab6 9a3e 4e01 33be
00000210: 32d9 a13c cd34 24be 8733 e23d 1b0e 62be
00000220: b1f3 c5bd 2279 eabd e144 57be e157 183c
00000230: f787 2fbe 0b91 3c3e 2157 633c 9d4b 5a3d
00000240: 942a 2d3e a6bd 663e 0ff4 833e 749c cbbc
00000250: 9071 8bbe 7239 72bd 7bea 403d 7fe7 63bd
00000260: 5ddb 8dbe ab23 6a3d 751c 36be ae0f 543e
00000270: ba0e 723e a771 b43d 7907 a83d 42f1 52bd
00000280: ed70 8d3e dd6f 83be 5e8f 80bc 45d7 6bbe
00000290: 00ad ca38 3fd3 95be b4cd 8bbe 7458 83bb
000002a0: 5c78 33bd f5c9 8dbe ae5d 0d3d 0ff0 84be
000002b0: dab1 07be d783 b9bd 063f dc3d 2d98 60be
000002c0: cd4f 79be fd47 89bd 75d3 89be f86b c4bc
000002d0: 1e3a 573e c230 bf3d 3ae3 83be 96de 2fbe
000002e0: c7ed 203e 79e8 963d fad7 d63d 2513 733e
000002f0: cbe7 58bd ab13 57be cff2 e3bb 20c5 893e
00000300: 0073 793e 5348 943d 72f3 46bc 3ad1 06be
00000310: 1a0d 233d 9342 47be c39a 1a3e f70a 453e
00000320: c461 76bd ce0f cabd 8248 42be 266f 443d
00000330: ef65 e43b 59ce f2bd 06a3 953c 78a5 82bc
00000340: 2c77 ebbd b15b cbbd dc5a 71be 400d 3ebe
00000350: fa16 0e3e 28af 6a3e 6bde 3ebe 67dd 9a3d
00000360: 2974 9bbd 5f05 603d 48e1 20be e989 7a3e
00000370: 52a5 903d 529e e7bd 809c 723e 630d 46be
00000380: b1c6 893d c2c8 883c 0596 9cbd 9583 5bbd
00000390: 73fe 04bc 47e2 20bc af38 893e 0bbd 7d3e
000003a0: d5f2 9cbd 7873 133e 1095 80be ec29 a6bd
000003b0: 3ab3 2e3b 2efd 963e fc16 0f3e 3717 423e
000003c0: 0a1d 673c e677 02bd 20b5 683d 9995 98be
000003d0: b6ac 8cbe 5a9a 93bd 164b b1bd 0a6b 963e
000003e0: dc9e b63d 5e5e 9abd 877c 92be 2555 edbc
000003f0: b985 3d3e 7931 95be 70c6 113e a102 73be

encoder.lnLst.1.2.bias f4 [32]
-0.14802092 -0.0065519484 -0.016387565 0.12001898 -0.064942926 0.0033523971 -0.017358433 0.054831617
0.15563475 -0.082705304 -0.045694344 0.17848775 0.029597582 -0.13960254 -0.10558471 0.11101593
-0.061200924 -0.1278826 -0.038762245 -0.0025913694 -0.02745168 -0.17570671 -0.038286485 0.024775207
0.09005013 0.03440606 0.09775858 0.06466375 -0.07929199 -0.05338148 -0.1493954 -0.004692163
00000000: cc92 17be bab1 d6bb 373f 86bc 83cc f53d
00000010: cc00 85bd e4b3 5b3b 4633 8ebc 1e97 603d
00000020: b75e 1f3e 6661 a9bd fe29 3bbd 7ec5 363e
00000030: a176 f23c f8f3 0ebe cc3c d8bd 525c e33d
00000040: d2ad 7abd a8f3 02be 29c5 1ebd f7d3 29bb
00000050: 58e2 e0bc 76ec 33be 4ad2 1cbd 60f5 ca3c
00000060: 346c b83d 5eed 0c3d a735 c83d 6e6e 843d
00000070: d763 a2bd 8aa6 5abd 1cfb 18be b7c0 99bb

encoder.lnLst.2.0.weight f4 [32, 7]
-0.12798125 -0.3164823 -0.032926936 -0.3820247 -0.34955928 -0.09374179 0.028636623 -0.31504002
0.19881031 0.3566914 0.27289727 -0.15985309 -0.2799944 -0.039687306 0.2003334 -0.04708148
-0.04780861 0.15137628 -0.32000667 -0.32886344 -0.058874387 -0.3166693 -0.14219214 -0.06916292
0.1711347 -0.2633392 0.2398935 0.30384856 -0.09327298 0.3356814 -0.2552794 0.26616928
-0.09650959 -0.3910253 -0.14252612 -0.30520085 0.13570052 0.27851638 -0.089383855 -0.31549415
0.04433652 -0.15851454 -0.14363442 -0.088886395 -0.28456685 0.2864125 0.06821817 -0.13753113
-0.24306637 0.27942133 -0.034933448 0.2132406 -0.37415007 0.21447635 -0.021978237 -0.37166607
-0.0019642455 -0.11826475 -0.09792883 -0.33829427 -0.29232928 0.20567505 -0.29055178 0.09788432
-0.20737338 0.2960267 0.25844532 -0.091962084 -0.058731552 -0.062960304 -0.2619176 0.34539235
0.11674327 0.12602802 0.0022318033 -0.06783276 -0.099550605 -0.23226683 0.12490631 0.14573897
0.22924566 0.1122072 0.29583105 0.33083612 0.30650055 0.049150117 -0.13958327 0.14516827
-0.22991076 -0.2328245 -0.29460862 -0.11862943 -0.29632518 0.20260738 -0.20182748 0.14483224
-0.08222823 0.21991125 0.09881526 -0.20941548 -0.29645032 -0.26556316 -0.3170741 0.035088826
-0.1962328 -0.0099812485 -0.067712985 0.15160854 0.034319572 0.14918381 0.39849973 -0.06472759
-0.05550816 0.005790618 -0.09078378 -0.30945346 0.24202456 0.03966056 0.0085252905 0.33541784
-0.07119834 -0.14563932 -0.31246108 0.3128125 -0.1408104 0.1003296 -0.3199262 0.37879238
0.1471752 0.2556309 -0.16758126 -0.21743134 -0.34158206 -0.08771069 -0.34097168 -0.09849667
0.2806793 -0.11192252 0.105966814 0.02386834 0.18763441 -0.14723952 0.19619262 0.19319259
-0.34787878 -0.19910592 -0.06892246 0.061372526 -0.16873354 0.058845565 -0.29216886 -0.048805054
-0.08458477 -0.17059466 -0.11615219 -0.05245046 -0.23381425 -0.34530815 0.3285103 0.3821848
0.37098867 -0.033770584 0.29065347 -0.10341307 0.1292989 0.1398825 -0.019112369 0.26125976
0.34059578 -0.18868282 -0.18695396 0.08297458 -0.13812739 0.17035244 0.188443 -0.0933292
0.29451925 -0.07744867 -0.00507568 -0.0024926318 0.07234325 -0.15299743 0.21210022 0.30021408
0.25510722 -0.15440074 0.33948857 -0.22779174 -0.2675954 0.20404378 -0.009647533 0.032932833
0.32918173 -0.06315084 0.3373774 -0.2697652 -0.08711451 0.32461938 0.09348025 -0.38335297
-0.32702792 -0.30320662 -0.08634497 0.19737728 -0.24120367 0.26084518 0.05157096 0.13133532
-0.38091618 -0.22572406 -0.03270396 0.020319134 0.19720513 -0.09822243 -0.049022026 0.09646199
0.025589895 0.16558325 0.078009196 -0.2591027 -0.26040143 0.35284144 -0.3550067 0.18433708
00000000: 840d 03be f809 a2be 65de 06bd be98 c3be
00000010: 6ff9 b2be b2fb bfbd 5a97 ea3c ed4c a1be
00000020: ee94 4b3e 41a0 b63e 31b9 8b3e 87b0 23be
00000030: 6d5b 8fbe 288f 22bd 3324 4d3e 83d8 40bd
00000040: f6d2 43bd 6202 1b3e ead7 a3be ca60 a8be
00000050: 4526 71bd 7a22 a2be d19a 11be 4aa5 8dbd
00000060: ef3d 2f3e 65d4 86be a4a6 753e 0a92 9b3e
00000070: e705 bfbd 6fde ab3e fbb3 82be 5747 883e
00000080: d2a6 c5bd 7834 c8be 5ef2 11be 4943 9cbe
00000090: 14f5 0a3e b399 8e3e e20e b7bd 7388 a1be
000000a0: 369a 353d a351 22be e714 13be 120a b6bd
000000b0: bfb2 91be a9a4 923e f8b5 8b3d f6d4 0cbe
000000c0: 64e6 78be 5010 8f3e 6016 0fbd be5b 5a3e
000000d0: 9990 bfbe b09f 5b3e b40b b4bc 044b bebe
000000e0: 92ba 00bb ca34 f2bd e98e c8bd e834 adbe
000000f0: 2fac 95be 7b9c 523e 34c3 94be 9377 c83d
00000100: b059 54be d090 973e f252 843e 9e56 bcbd
00000110: 7f90 70bd 55f1 80bd 101a 86be 44d7 b03e
00000120: 1817 ef3d 7d0d 013e 7243 123b e7eb 8abd
00000130: 30e1 cbbd 5bd7 6dbe e1ce ff3d 993c 153e
00000140: 60bf 6a3e e3cc e53d 2b77 973e 5a63 a93e
00000150: a4ed 9c3e a251 493d ebee 0ebe fea6 143e
00000160: ba6d 6bbe 8c69 6ebe f1d6 96be fdf3 f2bd
00000170: efb7 97be 4f78 4f3e ddab 4ebe e74e 143e
00000180: 4667 a8bd 6a30 613e a85f ca3d 0371 56be
00000190: 56c8 97be e5f7 87be 8957 a2be 4db9 0f3d
000001a0: 40f1 48be 6488 23bc 1bad 8abd 453f 1b3e
000001b0: ae92 0c3d a4c3 183e 2808 cc3e e68f 84bd
000001c0: 865c 63bd 39bf bd3b d9ec b9bd af70 9ebe
000001d0: 49d5 773e 1d73 223d a9ad 0b3c e3bb ab3e
000001e0: 6fd0 91bd 7922 15be e6fa 9fbe f628 a03e
000001f0: 9a30 10be 9b79 cd3d 5ecd a3be 13f1 c13e
00000200: 18b5 163e 0ee2 823e 6c9a 2bbe 52a6 5ebe
00000210: d8e3 aebe aaa1 b3bd d793 aebe 9fb8 c9bd
00000220: 32b5 8f3e a237 e5bd 2105 d93d 8987 c33c
00000230: 3c23 403e f5c5 16be b8e6 483e 47d4 453e
00000240: 2b1d b2be 6ce2 4bbe 3827 8dbd c261 7b3d
00000250: 7cc8 2cbe 0c08 713d 2897 95be cfe7 47bd
00000260: c83a adbd 5eb0 2ebe 33e1 edbd 4bd6 56bd
00000270: 016d 6fbe 3bcc b0be 8132 a83e baad c33e
00000280: 3af2 bd3e 0653 0abd 88d0 943e 3bca d3bd
00000290: ee66 043e 5c3d 0f3e 8b91 9cbc d7c3 853e
000002a0: 9262 ae3e 1236 41be dc70 3fbe 94ee a93d
000002b0: 4471 0dbe df70 2e3e 34f7 403e 6123 bfbd
000002c0: 3acb 963e 699d 9ebd e451 a6bb 6c5b 23bb
000002d0: b328 943d 5cab 1cbe cd30 593e a9b5 993e
000002e0: 6a9d 823e 3a1b 1ebe 72d1 ad3e 3d42 69be
000002f0: 4402 89be daf0 503e b010 1ebc 94e4 063d
00000300: 828a a83e 3a55 81bd bbbc ac3e aa1e 8abe
00000310: 1869 b2bd 8334 a63e 9372 bf3d d746 c4be
00000320: 3470 a7be e63d 9bbe a2d5 b0bd 451d 4a3e
00000330: 18fe 76be 808d 853e 123c 533d c47c 063e
00000340: 7207 c3be 3524 67be 96f4 05bd 5074 a63c
00000350: 24f0 493e d728 c9bd 52cb 48bd dd8d c53d
00000360: e6a1 d13c a88e 293e 49c3 9f3d 1ca9 84be
00000370: 5653 85be a2a7 b43e 70c3 b5be dcc2 3c3e

encoder.lnLst.2.0.bias f4 [32]
0.04660315 -0.3391381 -0.18953292 0.12394794 -0.21840857 -0.36195138 -0.032395307 -0.33070976
-0.34020576 -0.111789726 -0.25764638 -0.19987305 0.028181931 0.22780533 -0.23797727 0.10503021
-0.2634617 -0.16934915 0.3597522 0.32650614 0.14588809 0.24397697 -0.14289388 0.08049904
-0.2896976 -0.012468117 0.032674924 0.01852853 -0.115333885 0.103487335 -0.106137104 -0.030543998
00000000: f2e2 3e3d 82a3 adbe eb14 42be 6bd8 fd3d
00000010: 7fa6 5fbe b151 b9be f1b0 04bd ca52 a9be
00000020: 732f aebe 03f2 e4bd 3aea 83be 85ab 4cbe
00000030: cbdd e63c cd45 693e 50b0 73be 141a d73d
00000040: 74e4 86be dd69 2dbe 7131 b83e d02b a73e
00000050: b063 153e 19d5 793e c652 12be aedc a43d
00000060: 3e53 94be 1347 4cbc 24d6 053d 25c9 973c
00000070: 2c34 ecbd 2bf1 d33d 695e d9bd 6837 fabc
