app/vegetation/attention/andy/model_ep2.pth (torch, 62334 bytes, 31 tensors)

encoder.lnXc.0.weight f4 [32, 15]
-0.3884447 0.06362766 0.22455291 -0.17793669 -0.19736709 -0.16288519 0.099224284 0.19273384
-0.23783614 -0.033401277 -0.2261984 0.06188785 -0.13173503 0.07495457 0.28951228 -0.23090942
-0.21510905 0.36103573 0.21890421 0.071219414 0.11271608 0.26176777 0.25916004 0.31390437
-0.1211582 -0.10912815 0.32342422 0.06919738 -0.087781586 0.33351436 0.118610546 0.2445533
0.410195 -0.18020882 0.022158347 -0.075430505 0.33798686 0.15071398 0.21373726 0.32285246
-0.26513815 -0.07211397 0.18952447 0.15106396 -0.34273568 0.32416195 -0.20774339 0.048434556
-0.21763055 0.052239437 0.01323408 -0.17015281 0.2396833 0.21422918 0.24097358 -0.33504042
-0.0809893 -0.009166196 0.22863957 -0.28136277 -0.13475022 0.11911059 -0.18709747 0.015245986
-0.23128906 -0.19413693 -0.15545094 0.20644695 0.10740488 -0.20646386 0.2521527 -0.2296026
-0.1627328 -0.21823163 0.039539035 0.18729597 -0.22470939 -0.32540578 0.1310889 0.32488376
-0.2614294 -0.30120227 9.711172e-05 -0.010951178 -0.10468439 -0.00030513524 0.34479874 -0.022628734
0.25891235 -0.08723188 0.2808168 0.0007392112 0.11990796 0.26211715 -0.3309265 -0.31410176
-0.11047787 -0.2774204 0.26263312 0.30706483 0.008941731 -0.0049939277 -0.31805864 0.27692306
0.295594 0.30384412 0.010303166 0.31675008 0.3059785 -0.2839455 -0.14414684 0.22231317
-0.26816267 0.24914894 0.1598325 0.09379957 0.116523325 0.00096830603 -0.2975421 0.1987083
-0.03355139 0.14420803 0.021361666 0.0013922487 0.11555305 -0.4031394 0.036765132 -0.17572941
0.26572722 -0.036310837 0.25504476 -0.1103095 -0.22602782 0.26053613 0.072791494 -0.25734505
0.3602803 -0.3303774 -0.056476977 -0.10405733 0.10928064 0.33540943 0.17223305 -0.152704
-0.20645802 0.12708998 -0.029903764 -0.16711679 -0.19985618 0.20821783 0.12640862 -0.12414804
-0.077027954 0.26199287 -0.12754741 0.3143533 -0.06713554 0.16269718 0.045513112 0.25100458
0.11138258 -0.27467293 -0.12214248 -0.15294223 -0.09279655 0.008409029 0.12747462 0.36405918
0.20495297 0.21986012 0.015465296 0.24667875 0.19176102 0.31277058 0.27311486 -0.32712334
-0.043964393 -0.32024577 -0.13224341 -0.3208141 -0.32414213 -0.36463523 -0.12291505 0.28883636
0.22684592 -0.1107505 -0.2061459 0.3411375 0.1942426 0.31443024 0.24192637 -0.158713
0.08654852 0.25769192 -0.24032922 -0.10729427 -0.22891869 -0.32024646 -0.097490154 0.018979548
-0.2313293 0.1093351 -0.14491007 -0.27229112 -0.3284688 -0.29118502 0.019517964 -0.32197663
0.18154171 0.300293 -0.006185591 -0.27604863 0.21267621 0.31494924 -0.11717479 -0.31993234
0.03697601 -0.24461088 0.35147956 0.0021322411 0.015335048 0.14583194 -0.2782283 0.2662302
-0.058720008 -0.31544104 -0.08772617 0.055893503 -0.23228012 -0.08645588 0.06571469 -0.26241758
-0.35247114 0.123514816 -0.2266755 -0.10312651 -0.020289363 -0.21143746 -0.2434337 0.07684263
-0.024107015 0.068939075 -0.048128456 0.11703917 -0.26835907 -0.05761826 -0.16052417 0.09755153
-0.04959274 -0.3349732 0.10090389 -0.32494432 -0.27267173 -0.13200349 0.2816364 0.13835314
00000000: 39e2 c6be 384f 823d 33f1 653e 0935 36be
00000010: 991a 4abe 60cb 26be 1a36 cb3d 055c 453e
00000020: 518b 73be c7cf 08bd 8ea0 67be 1d7e 7d3d
00000030: 8ce5 06be c881 993d f43a 943e 8573 6cbe
00000040: 8c45 5cbe add9 b83e 6d28 603e 7cdb 913d
00000050: b0d7 e63d 6d06 863e a0b0 843e 13b8 a03e
00000060: ca21 f8bd 947e dfbd dc97 a53e 5bb7 8d3d
00000070: d5c6 b3bd 65c2 aa3e 16ea f23d 2e6c 7a3e
00000080: 1405 d23e a988 38be 6c85 b53c 4f7b 9abd
00000090: 9d0c ad3e c454 1a3e f1dd 5a3e eb4c a53e
000000a0: 30c0 87be 7db0 93bd b412 423e 83b0 1a3e
000000b0: 0d7b afbe 8ef8 a53e afba 54be 5063 463d
000000c0: 8bda 5ebe 05f9 553d c1d3 583c 8a3c 2ebe
000000d0: 8a6f 753e e55e 5b3e c7c1 763e 6b8a abbe
000000e0: b8dd a5bd d02d 16bc 7e20 6a3e c80e 90be
000000f0: f6fb 09be 41f0 f33d 7b96 3fbe 4dca 793c
00000100: 0ad7 6cbe d5cb 46be 882e 1fbe d466 533e
00000110: 17f7 db3d 436b 53be 291a 813e f21c 6bbe
00000120: 6da3 26be 1d78 5fbe aff3 213d 84ca 3f3e
00000130: 381a 66be 969b a6be 2b3c 063e 2a57 a63e
00000140: 13da 85be 2f37 9abe 75a8 cb38 926c 33bc
00000150: c564 d6bd 8ffa 9fb9 7689 b03e e55f b9bc
00000160: 2990 843e a1a6 b2bd 38c7 8f3e a0c7 413a
00000170: 4e92 f53d 3834 863e 336f a9be f2d1 a0be
00000180: 3942 e2bd 0c0a 8ebe d977 863e 9a37 9d3e
00000190: 5780 123c 1aa4 a3bb 95d8 a2be dcc8 8d3e
000001a0: 1958 973e 7591 9b3e 9cce 283c 112d a23e
000001b0: 37a9 9c3e 4e61 91be 3b9b 13be 10a6 633e
000001c0: 9e4c 89be e620 7f3e 22ab 233e fd19 c03d
000001d0: c8a3 ee3d ebd5 7d3a 7057 98be 307a 4b3e
000001e0: 2f6d 09bd 45ab 133e a9fe ae3c 1d7c b63a
000001f0: 14a7 ec3d 4a68 cebe 0997 163d 69f2 33be
00000200: 660d 883e acba 14bd 3a95 823e f2e9 e1bd
00000210: d673 67be fe64 853e b513 953d bbc2 83be
00000220: a976 b83e 3a27 a9be 6754 67bd 021c d5bd
00000230: 87ce df3d c9ba ab3e dc5d 303e 705e 1cbe
00000240: bb69 53be e023 023e bdf8 f4bc aa20 2bbe
00000250: 19a7 4cbe 0e37 553e 4371 013e 5441 febd
00000260: d5c0 9dbd ee23 863e ca9b 02be eaf2 a03e
00000270: 5c7e 89bd 179a 263e f56b 3a3d ac83 803e
00000280: 8d1c e43d eea1 8cbe d625 fabd e39c 1cbe
00000290: 1e0c bebd 06c6 093c b588 023e f765 ba3e
000002a0: 31df 513e 0323 613e 2762 7d3c 5b99 7c3e
000002b0: 005d 443e 7723 a03e b6d5 8b3e b67c a7be
000002c0: 0214 34bd 41f7 a3be d16a 07be bf41 a4be
000002d0: f5f5 a5be 78b1 babe e3ba fbbd 5ce2 933e
000002e0: 4c4a 683e 28d1 e2bd e917 53be 93a9 ae3e
000002f0: 88e7 463e 00fd a03e 8cbb 773e a985 22be
00000300: 5a40 b13d 32f0 833e dd18 76be 19bd dbbd
00000310: a969 6abe 58f7 a3be eba8 c7bd ff7a 9b3c
00000320: 97e1 6cbe 15eb df3d 4e63 14be be69 8bbe
00000330: 102d a8be 3416 95be 23e4 9f3c 1fda a4be
00000340: 12e6 393e 01c0 993e 80b0 cabb 3f56 8dbe
00000350: cbc7 593e 0741 a13e 56f9 efbd 2cce a3be
00000360: 2874 173d 467b 7abe 21f5 b33e 12bd 0b3b
00000370: da3f 7b3c f854 153e f173 8ebe 534f 883e
00000380: 6484 70bd 7d81 a1be c7a9 b3bd 96f0 643d
00000390: d7da 6dbe c80f b1bd 6c95 863d 995b 86be
000003a0: 1977 b4be 56f5 fc3d 9f1d 68be fe33 d3bd
000003b0: e135 a6bc 1083 58be af46 79be ab5f 9d3d
000003c0: 137c c5bc ee2f 8d3d 5822 45bd 3bb2 ef3d
000003d0: 5c66 89be 2001 6cbd 7360 24be 19c9 c73d
000003e0: c221 4bbd 9b81 abbe b3a6 ce3d 1a5f a6be
000003f0: a19b 8bbe ec2b 07be a532 903e 72ac 0d3e

encoder.lnXc.0.bias f4 [32]
0.07587053 -0.19170928 0.0635904 0.001194327 -0.17281832 -0.19542773 -0.28269026 0.08630054
-0.14116114 -0.1116497 0.27161837 0.23580028 0.11557018 0.24188311 -0.13351323 -0.141793
-0.032486774 0.19174787 -0.0044522933 0.2928939 -0.107511565 -0.05113163 0.005807515 0.1976128
-0.18025148 0.09109958 -0.290471 0.2753677 0.047091648 0.021539453 -0.173976 -0.16425113
00000000: 0262 9b3d 704f 44be af3b 823d f78a 9c3a
00000010: 49f7 30be 351e 48be c7bc 90be 56be b03d
00000020: 8c8c 10be 99a8 e4bd 9011 8b3e a175 713e
00000030: 0fb0 ec3d 35b0 773e b1b7 08be 2f32 11be
00000040: da10 05bd 8e59 443e 8be4 91bb 30f6 953e
00000050: 062f dcbd 666f 51bd f74c be3b 035b 4a3e
00000060: d893 38be 6b92 ba3d 9db8 94be fffc 8c3e
00000070: 2ce3 403d 8273 b03c c426 32be 7331 28be

encoder.lnXc.2.weight f4 [32, 32]
-0.114115484 0.34319913 -0.2445312 0.23583606 -0.2578559 0.23083393 -0.07540545 -0.03966386
-0.04048349 0.1492581 0.007374741 0.16374852 0.28634053 -0.07118475 -0.083344005 -0.20671873
-0.05408329 -0.050053306 -0.046822675 0.06675392 0.29608923 -0.17059825 -0.049499474 -0.18300995
-0.20270096 0.08324463 0.35927883 0.24134976 0.199059 0.23626961 -0.1812736 -0.12637906
-0.005848042 -0.09875608 -0.25646767 0.11071205 0.18271434 0.10617309 0.094754204 -0.047087956
0.087874375 -0.26337928 0.004806235 -0.046396382 0.3491595 -0.13415559 0.07411759 0.15012445
0.011996663 -0.032329574 -0.12827472 -0.092718296 0.09923374 -0.066827826 -0.028209906 -0.058759306
0.12962528 -0.27809334 0.14995612 -0.27543226 -0.2669626 -0.2854307 -0.20330158 0.034951463
0.24419561 0.05205905 0.0039850324 -0.1661152 0.2234447 0.06111121 0.15442605 -0.08867518
0.023743214 -0.18739404 0.22700812 0.18399096 0.286827 -0.24274436 0.11983159 0.031197816
-0.13451365 0.24515899 0.2947206 0.007747518 -0.12589137 -0.01731341 0.14464824 0.2607364
0.091303244 -0.19159238 -0.12638728 -0.060676567 0.2424799 -0.15480462 -0.169955 0.2645968
-0.25514457 -0.038413703 -0.3146712 -0.24187033 -0.1295497 -0.22776683 -0.0752503 -0.028972073
0.119093955 -0.19724847 0.18026541 -0.021048607 -0.20025389 -0.013958167 0.22955954 -0.29715487
0.0064793616 -0.3473093 -0.22446415 0.097344145 -0.018170709 0.07999846 -0.1336148 -0.20269547
-0.07430468 -0.28256714 -0.32057124 -0.33191192 -0.09252133 0.013241193 -0.18101998 -0.22546919
0.20458032 -0.08859655 0.21116704 0.049294993 0.04544532 -0.060222574 0.10619491 -0.20950422
-0.20921436 -0.21372937 0.24786523 0.27524757 -0.06139297 0.22901589 -0.03765514 0.13309518
0.15238611 0.27682477 -0.17483236 -0.25664717 0.12664302 -0.07251988 -0.19793761 0.25034338
-0.32356435 -0.039525278 -0.2547457 -0.17864564 0.052126538 -0.18572225 0.24574542 -0.02909887
-0.030359058 0.102234535 0.23054801 0.21781692 -0.25123957 0.124525204 0.06895728 0.004800236
-0.04732838 -0.22154048 -0.1484948 0.15847589 0.22659183 0.2573056 0.027812166 -0.1793212
0.07736241 0.064453825 0.13568833 -0.34607342 0.13680156 0.0061940406 -0.13438152 0.19415562
-0.26683903 -0.0552876 0.104290426 -0.23043466 0.04885371 -0.04562775 -0.23810074 -0.1138321
-0.15850937 0.23836258 0.075124905 0.34094417 0.22016191 0.2700636 0.04107004 0.28437597
-0.13330561 0.32331035 -0.17264196 0.17680131 0.030553896 0.21794689 0.2258918 0.0833129
-0.23658308 -0.09072922 0.34587193 0.36919662 0.08043786 0.17184322 -0.21631558 0.19586779
-0.033714633 -0.09149757 0.12482458 -0.031805616 -0.0015852388 -0.015994407 -0.0148195475 0.12449364
0.22935668 0.21794331 -0.17880741 -0.3038423 0.06447319 -0.25063825 -0.13145763 0.112701155
0.19496246 0.063875854 -0.01419738 -0.31475994 0.17252494 -0.04278566 -0.10156006 -0.16468811
-0.35780397 0.0760973 0.07798184 0.22505578 -0.26306686 0.21731561 -0.15521787 -0.28627363
0.17947587 -0.21217841 0.15715782 -0.31749403 -0.36714467 -0.21838927 -0.030356904 -0.25120023
00000000: 61b5 e9bd ccb7 af3e 6366 7abe 027f 713e
00000010: b005 84be bb5f 6c3e 2c6e 9abd 9276 22bd
00000020: 04d2 25bd 1ed7 183e d0a7 f13b b1ad 273e
00000030: 3a9b 923e 4fc9 91bd 43b0 aabd 13ae 53be
00000040: 7186 5dbd b204 4dbd 22c9 3fbd 47b6 883d
00000050: 0299 973e 4fb1 2ebe f6bf 4abd f666 3bbe
00000060: d790 4fbe 297c aa3d 65f3 b73e 6424 773e
00000070: 1fd6 4b3e a9f0 713e c99f 39be 8369 01be
00000080: efa0 bfbb a140 cabd bb4f 83be 00bd e23d
00000090: 7819 3b3e 4771 d93d 7e0e c23d 4ddf 40bd
000000a0: 7bf7 b33d a6d9 86be 9f7d 9d3b 220a 3ebd
000000b0: 09c5 b23e 1560 09be f7ca 973d 39ba 193e
000000c0: a78d 443c 046c 04bd 735a 03be 17e3 bdbd
000000d0: 0f3b cb3d 07dd 88bd 7618 e7bc 99ad 70bd
000000e0: 7dbc 043e 4062 8ebe 198e 193e 7505 8dbe
000000f0: 52af 88be f923 92be 4a2e 50be 4429 0f3d
00000100: 6a0e 7a3e df3b 553d e094 823b 1a1a 2abe
00000110: b0ce 643e c04f 7a3d dd21 1e3e 559b b5bd
00000120: 2181 c23c 39e4 3fbe d174 683e 2068 3c3e
00000130: fdda 923e fa91 78be 446a f53d 9092 ff3c
00000140: f2bd 09be f50a 7b3e 9ee5 963e e4de fd3b
00000150: abe9 00be dad4 8dbc ab1e 143e 3e7f 853e
00000160: 32fd ba3d cb30 44be ab6b 01be fe87 78bd
00000170: a74c 783e 1a85 1ebe af08 2ebe 3b79 873e
00000180: 4fa2 82be b057 1dbd 951c a1be dbac 77be
00000190: ada8 04be b53b 69be d41c 9abd d756 edbc
000001a0: 88e7 f33d 81fb 49be 7f97 383e 216e acbc
000001b0: 5b0f 4dbe ccb0 64bc a811 6b3e af24 98be
000001c0: d350 d43b 86d2 b1be eed9 65be 5e5c c73d
000001d0: bdda 94bc 3cd6 a33d 51d2 08be 678f 4fbe
000001e0: 0d2d 98bd a4ac 90be ea21 a4be 5cf0 a9be
000001f0: d37b bdbd 97f1 583c 4d5d 39be 65e1 66be
00000200: 817d 513e 1c72 b5bd 2c3c 583e 8ce9 493d
00000210: df24 3a3d f2ab 76bd b87c d93d 4688 56be
00000220: 4a3c 56be dfdb 5abe 62d0 7d3e 40ed 8c3e
00000230: 3277 7bbd 2483 6a3e 473c 1abd 1a4a 083e
00000240: 1b0b 1c3e fabb 8d3e 4107 33be 4267 83be
00000250: b5ae 013e 4e85 94bd 28b0 4abe 022d 803e
00000260: 3aaa a5be 42e5 21bd 076e 82be e2ee 36be
00000270: a382 553d f92d 3ebe b0a4 7b3e c160 eebc
00000280: 8fb3 f8bc 5760 d13d c714 6c3e 660b 5f3e
00000290: 79a2 80be 1207 ff3d 7939 8d3d 4c4b 9d3b
000002a0: 67db 41bd 82db 62be 050f 18be 8147 223e
000002b0: b007 683e 8fbd 833e 57d6 e33c fa9f 37be
000002c0: 2f70 9e3d 5e00 843d e2f1 0a3e 8930 b1be
000002d0: b515 0c3e 61f7 ca3b 4f9b 09be bbd0 463e
000002e0: 209f 88be 4075 62bd 3896 d53d 10f7 6bbe
000002f0: d41a 483d 2ae4 3abd aed0 73be ce20 e9bd
00000300: 4850 22be 5215 743e 16db 993d 3c90 ae3e
00000310: 2072 613e c745 8a3e 0f39 283d ba99 913e
00000320: 4481 08be ef88 a53e 0ec9 30be 670b 353e
00000330: 2a4c fa3c 782d 5f3e 2e50 673e f49f aa3d
00000340: d642 72be 3ed0 b9bd 2016 b13e 5707 bd3e
00000350: 9bbc a43d abf7 2f3e d581 5dbe 9191 483e
00000360: 5b18 0abd 1463 bbbd 08a4 ff3d 9b46 02bd
00000370: cac7 cfba b406 83bc b0cd 72bc 86f6 fe3d
00000380: 7adc 6a3e 882c 5f3e 4a19 37be 3891 9bbe
00000390: 850a 843d a853 80be d49c 06be ddcf e63d
000003a0: 3da4 473e 58d1 823d 219c 68bc 3728 a1be
000003b0: 61aa 303e 0440 2fbd b9fe cfbd 00a4 28be
000003c0: 1532 b7be e7d8 9b3d f1b4 9f3d 0675 663e
000003d0: b3b0 86be fc87 5e3e 6ff1 1ebe 7592 92be
000003e0: 86c8 373e 4c45 59be fbed 203e 948e a2be
000003f0: 63fa bbbe 70a1 5fbe 0baf f8bc 519d 80be

encoder.lnXc.2.bias f4 [32]
0.100227214 -0.015370711 0.063894086 -0.1450195 0.058560997 0.091869324 0.23013309 -0.10540878
-0.014907401 -0.051522423 -0.026288623 0.11680287 0.07650859 0.117609374 -0.053362407 0.059291944
-0.027413877 0.001815341 0.0472477 -0.11910558 -0.033747017 0.08558483 -0.0124320295 -0.016350053
-0.14180079 0.03864027 0.22890407 0.06385934 0.0016457542 -0.057270736 0.21571586 -0.10019701
00000000: ed43 cd3d 6fd5 7bbc e7da 823d fe7f 14be
00000010: a8dd 6f3d fc25 bc3d 02a8 6b3e 8fe0 d7bd
00000020: 2c3e 74bc 2d09 53bd 3d5b d7bc 5836 ef3d
00000030: 89b0 9c3d 2fdd f03d 8a92 5abd 1cdc 723d
00000040: 1193 e0bc bcf0 ed3a ce86 413d a0ed f3bd
00000050: 503a 0abd 1947 af3d b6af 4bbc 8cf0 85bc
00000060: 3a34 11be 4245 1e3d d465 6a3e b0c8 823d
00000070: 59b6 d73a b894 6abd 9ee4 5c3e 1734 cdbd

encoder.lnLst.0.0.weight f4 [32, 3]
-0.07456161 -0.333118 0.024036923 0.033214223 -0.054629352 -0.33775955 0.13959444 0.31097668
-0.18911071 0.26559594 -0.101756565 -0.42764494 0.011371067 0.14504218 -0.3182221 -0.14843592
-0.07417305 -0.047718886 -0.14720282 -0.40440404 0.36519295 -0.32070354 0.35397783 -0.34239224
-0.29988477 -0.13893749 0.3269422 -0.2934118 -0.14254072 0.3303302 -0.383095 -0.16629252
-0.09788424 -0.40729332 -0.074185856 0.3340105 0.124661945 0.35496244 0.31043935 0.16648243
-0.015781472 0.26689407 0.2928313 -0.008024416 -0.26692528 -0.337703 0.10936574 -0.16823295
-0.005978107 -0.41525283 -0.046276454 -0.27566653 -0.25871608 0.29487982 0.12353173 0.289467
-0.35094526 0.30201924 -0.17359796 0.15177993 -0.18136446 0.3189058 0.065357156 0.09544104
-0.23628019 -0.031398077 -0.23100936 -0.18333447 -0.25530005 0.14777753 -0.20602237 0.06973107
0.15723081 0.03636836 -0.3057435 0.30714217 0.22245419 0.37501836 -0.2589715 0.3367922
0.23239726 0.35403416 0.19905132 0.0858155 0.06042111 0.091680095 0.34629965 0.15767696
-0.31403482 0.09193355 0.14488004 -0.4592019 -0.052513372 0.13556136 -0.3058755 0.26070282
00000000: c2b3 98bd 718e aabe 15e9 c43c a30b 083d
00000010: 07c3 5fbd d2ee acbe d8f1 0e3e 5638 9f3e
00000020: 3da6 41be 31fc 873e bf65 d0bd 47f4 dabe
00000030: b64d 3a3c f085 143e 02ee a2be 96ff 17be
00000040: 0ae8 97bd e174 43bd 56bc 16be 0c0e cfbe
00000050: 92fa ba3e 4133 a4be 953c b53e 094e afbe
00000060: 7f8a 99be a145 0ebe f864 a73e 123a 96be
00000070: 32f6 11be 0a21 a93e 0725 c4be 9648 2abe
00000080: 8877 c8bd c088 d0be c1ee 97bd 6d03 ab3e
00000090: c34e ff3d a3bd b53e e8f1 9e3e 5f7a 2a3e
000000a0: 2548 81bc 57a6 883e fced 953e d778 03bc
000000b0: 6eaa 88be 68e7 acbe 25fb df3d 4245 2cbe
000000c0: ffe3 c3bb 059c d4be 618c 3dbd 2a24 8dbe
000000d0: 6f76 84be 7dfa 963e 34fe fc3d 0535 943e
000000e0: 19af b3be 44a2 9a3e aac3 31be 336c 1b3e
000000f0: 9bb7 39be 9f47 a33e f9d9 853d 9876 c33d
00000100: 6ff3 71be 459b 00bd b88d 6cbe 08bc 3bbe
00000110: b0b6 82be fe52 173e 87f7 52be 2acf 8e3d
00000120: 1d01 213e fdf6 143d 698a 9cbe bd41 9d3e
00000130: 08cb 633e 6802 c03e ea97 84be 0770 ac3e
00000140: 8cf9 6d3e f743 b53e 1cd4 4b3e 09c0 af3d
00000150: 207c 773d c6c2 bb3d 304e b13e 1276 213e
00000160: 2cc9 a0be a847 bc3d 6f5b 143e 831c ebbe
00000170: 4318 57bd 99d0 0a3e b79b 9cbe d77a 853e

encoder.lnLst.0.0.bias f4 [32]
-0.2761683 0.49163485 -0.52584046 0.22407676 0.3455007 0.4890189 0.109822325 -0.48849872
0.19860893 -0.34118357 -0.55547744 -0.35352445 -0.058329433 0.16820313 0.075286284 -0.097468145
0.2301583 -0.0399971 0.12700073 -0.36167517 -0.33670232 -0.09372122 -0.5203835 -0.040168297
-0.12964669 -0.11086914 0.09745691 0.045658313 0.32075998 0.23214126 0.22713436 -0.26756558
00000000: ee65 8dbe 90b7 fb3e 7b9d 06bf 6174 653e
00000010: 78e5 b03e af60 fa3e 87ea e03d 811c fabe
00000020: 2460 4b3e 9daf aebe c533 0ebf 2801 b5be
00000030: d8ea 6ebd 713d 2c3e b22f 9a3d 619d c7bd
00000040: 9eae 6b3e 00d4 23bd 7b0c 023e 7d2d b9be
00000050: 3f64 acbe e9f0 bfbd da37 05bf 8387 24bd
00000060: 1ac2 04be 5c0f e3bd 7d97 c73d 3604 3b3d
00000070: a73a a43e 70b6 6d3e e995 683e 5bfe 88be

encoder.lnLst.0.2.weight f4 [32, 32]
0.034091152 0.18111402 0.28313676 0.048497993 0.049560312 0.22949377 0.025022347 0.05405073
-0.18082447 0.07978698 -0.26051715 -0.15203781 -0.12208122 -0.051251654 -0.2970051 -0.28325006
0.11201698 -0.0059044124 -0.3260001 -0.26642072 -0.21309079 0.22833665 -0.29944465 0.0007930653
0.18139587 0.09398261 0.21326736 -0.25623825 -0.32588682 -0.21824653 0.21961516 -0.27815783
0.23060477 0.073948555 0.07211532 0.34222472 0.17816913 -0.20529367 0.31431335 -0.14704244
0.09221386 -0.086134225 0.102025695 -0.052409276 0.14202283 0.27502793 -0.25685275 0.28526485
0.13955897 -0.08220081 0.11683086 -0.055521414 0.21848388 -0.2663386 -0.20472562 -0.060752425
-0.23641638 0.2556947 0.04713875 0.27002853 0.083131835 -0.001884703 0.07656582 0.096453495
0.21711995 -0.17545801 0.26161882 -0.059554387 0.21933421 0.22817722 -0.27275473 0.14948715
0.118454 -0.19216268 -0.26084435 0.06533872 0.04765898 -0.36484775 -0.13923432 -0.019663775
0.18972726 -0.1136336 -0.36609834 -0.0006003531 -0.13438834 -0.13816097 -0.2025271 0.17524506
-0.04446478 -0.1364893 -0.0076510017 -0.17674634 0.081560634 -0.15686885 -0.34401265 -0.050120965
-0.19072337 0.09486665 0.29745263 -0.08771548 0.07058019 -0.06771615 -0.104456306 0.13686751
-0.20625691 -0.13710864 0.14643489 0.18617722 0.0085034715 -0.194573 0.18005824 0.0829007
-0.29516515 -0.31075612 0.050657872 -0.18259455 -0.23170088 -0.038615286 0.2842788 0.2553522
-0.0978181 -0.2932775 0.04881646 -0.19566059 -0.320167 -0.09928139 -0.03384832 -0.049887326
0.08957134 -0.2873308 -0.28150967 -0.27673376 -0.36884126 -0.14021164 -0.065295346 -0.3030198
-0.06389069 -0.28506973 -0.15054022 0.30504796 0.03700196 0.1870897 -0.20665689 -0.011838051
0.12519233 0.17751539 -0.35878453 0.088121295 -0.10892662 0.2501937 -0.13372849 -0.13065037
0.065383576 -0.32487926 -0.09415573 -0.1924665 0.10267566 -0.3743837 0.04852751 0.009375161
-0.13369758 -0.120224744 0.29378548 -0.09464038 -0.046944715 -0.24858618 -0.068841614 0.019191755
-0.18102925 0.19170876 -0.18004446 -0.22956832 0.23059018 -0.25481904 0.0050542494 -0.2353322
-0.01768498 0.021290753 0.16466314 0.08292717 0.19410585 -0.04000558 0.01786446 0.03514199
0.28231987 -0.13128613 0.22057748 0.22842363 -0.12771542 -0.2945884 -0.25266597 -0.19894399
-0.199762 -0.18729202 0.20438588 -0.19301282 0.16775887 0.04440297 0.17034215 -0.17887244
0.19376624 0.039823044 0.2996679 -6.201391e-05 0.17670032 0.07798901 0.059299294 0.14802185
0.22784355 0.12828392 -0.2438313 -0.21055983 0.050978977 -0.18295576 -0.18789704 0.13487217
0.16471286 -0.19792953 0.32395935 -0.20967205 0.026527826 0.07592022 -0.023404801 0.10475303
0.16896155 0.14633805 -0.023321282 0.19882107 -0.07157249 -0.31543523 -0.2766502 -0.12125453
0.033511247 -0.05979835 0.06423714 0.15158314 0.17398342 0.1383717 0.12710479 0.05146841
-0.29929745 0.107212216 0.20483157 -0.009063149 0.19322644 0.24547836 -0.12922199 -0.31388408
-0.18541533 0.19839555 -0.29340038 -0.15543419 -0.10277741 0.03005253 -0.09825264 -0.07307867
00000000: 2aa3 0b3d f475 393e 4df7 903e d5a5 463d
00000010: c1ff 4a3d 6a00 6b3e aafb cc3c 4c64 5d3d
00000020: 0d2a 39be 5b67 a33d 8162 85be cdaf 1bbe
00000030: b805 fabd 41ed 51bd 0d11 98be 2706 91be
00000040: 2969 e53d cd79 c1bb 7ce9 a6be 4c68 88be
00000050: 7934 5abe 15d1 693e cf50 99be b6e5 4f3a
00000060: d7bf 393e f479 c03d c262 5a3e a931 83be
00000070: a3da a6be 057c 5fbe cce2 603e b46a 8ebe
00000080: a823 6c3e 5772 973d 32b1 933d 1438 af3e
00000090: f871 363e 8138 52be aeed a03e 4b92 16be
000000a0: 9fda bc3d 2467 b0bd d9f2 d03d 1cab 56bd
000000b0: 6f6e 113e 76d0 8c3e 3482 83be 3c0e 923e
000000c0: 8ce8 0e3e e658 a8bd 0545 ef3d 6c6a 63bd
000000d0: 3dba 5f3e 885d 88be 98a3 51be 89d7 78bd
000000e0: 2317 72be 6aea 823e 9014 413d 2e41 8a3e
000000f0: 0641 aa3d 2308 f7ba 8ace 9c3d 6989 c53d
00000100: b154 5e3e 44ab 33be e7f2 853e 4def 73bd
00000110: 2699 603e 4aa7 693e 82a6 8bbe 2913 193e
00000120: 0398 f23d 4bc6 44be 648d 85be 4fd0 853d
00000130: 1036 433d 53cd babe 7193 0ebe ed15 a1bc
00000140: dd47 423e bcb8 e8bd 3e71 bbbe 0461 1dba
00000150: 199d 09be 127a 0dbe 4463 4fbe 7173 333e
00000160: b320 36bd dac3 0bbe 41b5 fabb fefc 34be
00000170: 4309 a73d 3aa2 20be 6d22 b0be a44b 4dbd
00000180: fd4c 43be 7249 c23d b64b 983e 2ca4 b3bd
00000190: 598c 903d c4ae 8abd 30ed d5bd ff26 0c3e
000001a0: 0335 53be 3566 0cbe 07f3 153e 3ea5 3e3e
000001b0: 2552 0b3c 253e 47be 3061 383e d8c7 a93d
000001c0: e31f 97be 6d1b 9fbe a17e 4f3d 11fa 3abe
000001d0: ff42 6dbe 102b 1ebd fe8c 913e 86bd 823e
000001e0: db54 c8bd 7828 96be c5f3 473d 405b 48be
000001f0: eeec a3be 0b54 cbbd 89a4 0abd a756 4cbd
00000200: 2e71 b73d 061d 93be 0922 90be 0cb0 8dbe
00000210: c3d8 bcbe a493 0fbe 91b9 85bd 6925 9bbe
00000220: 1fd9 82bd a9f4 91be 3727 1abe 3f2f 9c3e
00000230: 5e8f 173d 7194 3f3e dd9d 53be 62f4 41bc
00000240: 6b32 003e 98c6 353e 9bb2 b7be f078 b43d
00000250: eb14 dfbd 6319 803e 1ff0 08be 36c9 05be
00000260: d3e7 853d 9356 a6be b8d4 c0bd f015 45be
00000270: 9e47 d23d 38af bfbe c8c4 463d 469a 193c
00000280: 05e8 08be 6438 f6bd 0d6b 963e d1d2 c1bd
00000290: 1a49 40bd 608d 7ebe d5fc 8cbd 0738 9d3c
000002a0: bb5f 39be 4d4f 443e 935d 38be f513 6bbe
000002b0: d51f 6c3e a477 82be 1e9e a53b edfa 70be
000002c0: 17e0 90bc f269 ae3c 749d 283e b8d5 a93d
000002d0: afc3 463e e4dc 23bd 7d58 923c 0cf1 0f3d
000002e0: 3b8c 903e df6f 06be 10df 613e e2e7 693e
000002f0: d5c7 02be 4ad4 96be 6f5d 81be f9b7 4bbe
00000300: 698e 4cbe 7bc9 3fbe 884a 513e 27a5 45be
00000310: fbc8 2b3e e3df 353d 2c6e 2e3e 562a 37be
00000320: a86a 463e 7d1d 233d 126e 993e 770d 82b8
00000330: eef0 343e b4b8 9f3d d1e3 723d 0a93 173e
00000340: d24f 693e dc5c 033e eaae 79be ff9c 57be
00000350: 55cf 503d c158 3bbe 1568 40be ee1b 0a3e
00000360: 7daa 283e 0aae 4abe 00de a53e 45b4 56be
00000370: e250 d93c 0f7c 9b3d 6dbb bfbc c288 d63d
00000380: 4204 2d3e a4d9 153e 460c bfbc c097 4b3e
00000390: 9994 92bd ba80 a1be 18a5 8dbe 4c54 f8bd
000003a0: 1743 093d 1def 74bd c38e 833d 9c38 1b3e
000003b0: b628 323e 50b1 0d3e c227 023e 8ad0 523d
000003c0: 843d 99be 1492 db3d 5ebf 513e 9a7d 14bc
000003d0: 27dd 453e ae5e 7b3e c552 04be 6ab5 a0be
000003e0: 84dd 3dbe 3428 4b3e 9338 96be 242a 1fbe
000003f0: f67c d2bd b930 f63c ae38 c9bd 45aa 95bd

encoder.lnLst.0.2.bias f4 [32]
-0.061997887 0.049089257 -0.1170422 0.021676207 -0.22107151 -0.10832191 0.20186485 0.0064158505
-0.089185074 -0.061133713 -0.25400782 -0.03620673 -0.14493306 -0.010850869 0.04240727 0.07682874
0.076922365 -0.12373142 0.0049654776 -0.048485667 0.19177915 -0.15333375 0.044058576 -0.016493723
-0.09098204 0.0011683583 0.12167625 -0.087999836 -0.17583859 -0.053156752 0.14651825 0.09055099
00000000: 7ff1 7dbd d111 493d d2b3 efbd 4d92 b13c
00000010: 9260 62be e1d7 ddbd a9b5 4e3e 0e3c d23b
00000020: aaa6 b6bd 5867 7abd 500d 82be 824d 14bd
00000030: 5569 14be d8c7 31bc 3fb3 2d3d 6358 9d3d
00000040: 7989 9d3d e666 fdbd 72b5 a23b e898 46bd
00000050: c161 443e 8603 1dbe c476 343d d81d 87bc
00000060: cb54 babd 9923 993a 6631 f93d 4239 b4bd
00000070: 080f 34be e5ba 59bd e108 163e cc72 b93d

encoder.lnLst.1.0.weight f4 [32, 8]
-0.1109351 0.29392138 0.1347092 0.17156425 0.26610237 0.09999089 -0.2956844 -0.26866356
-0.24404791 0.12591404 -0.24698928 -0.055625502 -0.15455893 -0.06614967 -0.29797438 0.19579731
-0.36877862 -0.15720806 -0.22798364 -0.31087667 -0.12114171 0.2098033 0.13964537 0.1755225
-0.3163534 -0.15816426 -0.03994541 0.32840008 0.26058874 -0.24832375 -0.28183386 -0.040702682
0.2525915 -0.050327282 -0.03812674 -0.21536519 -0.37016752 0.23951624 -0.06753395 -0.06901391
-0.07335557 -0.12516622 -0.35762587 -0.06531955 -0.2993705 -0.27778888 -0.10066892 0.23381658
0.2084522 -0.041724198 -0.042600993 0.2970672 -0.22624774 -0.33347058 -0.19199032 -0.10452129
0.21481515 0.25789744 -0.12499205 -0.22832264 -0.26415664 0.06225795 -0.10461079 0.33103397
-0.34726277 -0.33356 -0.182927 0.14991103 0.046068553 0.1310126 -0.30752733 0.18575653
-0.06628217 0.16711348 -0.25927028 -0.18597896 -0.06272582 0.24380381 0.055294733 -0.42218104
-0.111492336 -0.13390258 -0.24730933 -0.04086611 -0.1344777 0.10189229 -0.18258403 -0.36756396
0.031808544 0.1979606 -0.33579248 -0.017982364 0.24045438 0.09114863 0.027331652 -0.31178984
0.25955078 0.08520003 -0.19172151 -0.09390498 0.071691886 0.09831224 -0.052659046 -0.2274459
-0.32345048 0.12650923 -0.32078215 -0.06742092 -0.40468195 0.19143523 -0.16061115 -0.31105724
0.054115787 0.18887289 -0.2228188 0.14495139 0.38882256 0.40689445 -0.26176974 0.09232878
0.31724855 0.24931982 -0.019313974 -0.08157746 -0.3143161 0.17960171 -0.043138992 -0.3503355
-0.261037 0.17251456 0.12430445 0.023785016 -0.4410368 -0.24493574 0.25354385 -0.12685038
0.23514265 -0.04883759 0.022787428 0.39848837 0.120196864 0.18575627 0.3443276 -0.20060173
0.08925664 0.28177986 0.16756493 0.4094255 0.36550283 0.32204932 0.1456576 0.39435008
0.13310318 -0.08891174 0.11090824 0.06714266 0.030839436 -0.09094992 -0.39045727 0.19194295
0.2360647 -0.23702787 0.14745973 0.009677046 0.04712706 0.21418655 -0.06814194 0.37796175
0.09581519 0.28393367 0.19872226 -0.09582084 0.18744169 0.24431604 -0.36061677 -0.33758363
0.25801075 -0.1348762 -0.06774217 -0.30320048 0.27615544 -0.17321312 -0.36176974 -0.21703033
-0.16182645 0.06761435 0.07126808 0.26191485 0.098802716 0.02768374 0.28858796 0.045862462
0.0024654083 0.3329924 -0.14869973 -0.35502484 -0.18284073 0.16145763 -0.34068823 -0.04955356
0.34190854 -0.1191157 0.23796713 0.2522176 0.010743941 -0.2721086 0.071081534 0.22761357
0.22645287 0.1466607 -0.16192344 -0.35426122 0.34057936 -0.23915999 -0.3830315 0.31492376
-0.01903571 -0.33952588 -0.10823572 -0.033311617 -0.042218506 -0.12282844 0.011839168 0.13854793
0.33342224 0.19672519 0.12911572 0.14052668 0.36026222 0.08736037 -0.29917964 0.06947905
0.03683469 0.2176621 0.1952223 0.32846388 -0.0056613316 0.19997609 0.010301987 -0.031416893
0.21353346 -0.15326194 -0.13196632 -0.22428504 -0.2676149 0.09062919 0.1419482 0.059881065
-0.25147635 -0.15094583 0.11618656 0.20207724 0.23874643 0.08427614 0.041796617 0.15323742
00000000: f131 e3bd dd7c 963e 35f1 093e 8aae 2f3e
00000010: 923e 883e 06c8 cc3d f263 97be 458e 89be
00000020: b2e7 79be 9cef 003e c2ea 7cbe 91d7 63bd
00000030: b244 1ebe 7a79 87bd 1990 98be 177f 483e
00000040: 8dd0 bcbe 26fb 20be 8b74 69be 3a2b 9fbe
00000050: 2519 f8bd add6 563e 32ff 0e3e 2cbc 333e
00000060: 13f9 a1be d0f5 21be cc9d 23bd 0e24 a83e
00000070: e36b 853e 9548 7ebe 874c 90be dbb7 26bd
00000080: ac53 813e fb23 4ebd c92a 1cbd b188 5cbe
00000090: 9986 bdbe bf43 753e 3d4f 8abd 2a57 8dbd
000000a0: 723b 96bd 932b 00be bd1a b7be 42c6 85bd
000000b0: 1747 99be 583a 8ebe 822b cebd 9d6d 6f3e
000000c0: 7e74 553e fee6 2abd 617e 2ebd 3119 983e
000000d0: 7dad 67be a8bc aabe 1c99 44be 420f d6bd
000000e0: 81f8 5b3e 220b 843e d5fb ffbd 69cd 69be
000000f0: 8a3f 87be 3102 7f3d 2f3e d6bd 497d a93e
00000100: 6dcc b1be 60c8 aabe 3751 3bbe 4782 193e
00000110: 61b2 3c3d 2b28 063e 3974 9dbe f636 3e3e
00000120: f2be 87bd cc1f 2b3e 13bf 84be 4571 3ebe
00000130: 6576 80bd b5a7 793e bb7c 623d 1d28 d8be
00000140: 1856 e4bd c21d 09be a83e 7dbe 3963 27bd
00000150: 86b4 09be e8ac d03d 4ff7 3abe 5831 bcbe
00000160: ad49 023d 2fb6 4a3e feec abbe c04f 93bc
00000170: ac39 763e 22ac ba3d a1e6 df3c eba2 9fbe
00000180: d7e3 843e 5a7d ae3d a552 44be 4151 c0bd
00000190: 32d3 923d ed57 c93d 03b1 57bd 94e7 68be
000001a0: 4d9b a5be a38b 013e 8f3d a4be fb13 8abd
000001b0: 7932 cfbe 9907 443e 4077 24be e542 9fbe
000001c0: 84a8 5d3d e567 413e 9d2a 64be 236e 143e
000001d0: c013 c73e 7854 d03e af06 86be df16 bd3d
000001e0: 676e a23e b24d 7f3e 5738 9ebc 1512 a7bd
000001f0: 0aee a0be 83e9 373e 83b2 30bd 2d5f b3be
00000200: a4a6 85be a8a7 303e 5593 fe3d cbd8 c23c
00000210: 93cf e1be 6fd0 7abe 80d0 813e 11e5 01be
00000220: 3cc9 703e ed09 48bd b3ac ba3c ab06 cc3e
00000230: c629 f63d e436 3e3e b54b b03e 8a6a 4dbe
00000240: 2fcc b63d 7345 903e 2496 2b3e 38a0 d13e
00000250: 3023 bb3e a6e3 a43e 4427 153e 41e8 c93e
00000260: 334c 083e 5c17 b6bd dc23 e33d 1782 893d
00000270: fca2 fc3c f443 babd 04ea c7be b18c 443e
00000280: f2ba 713e 6fb7 72be afff 163e 798c 1e3c
00000290: 4e08 413d b853 5b3e 008e 8bbd 3484 c13e
000002a0: c13a c43d c15f 913e d97d 4b3e b73d c4bd
000002b0: b7f0 3f3e fc2d 7a3e c3a2 b8be c3d7 acbe
000002c0: fc19 843e fd1c 0abe 68bc 8abd 183d 9bbe
000002d0: 3f64 8d3e c85e 31be e239 b9be 333d 5ebe
000002e0: d5b5 25be 6479 8a3d 00f5 913d b419 863e
000002f0: 1459 ca3d 03c9 e23c cdc1 933e 47da 3b3d
00000300: b092 213b fb7d aa3e be44 18be d1c5 b5be
00000310: 9a3a 3bbe 2655 253e b06e aebe acf8 4abd
00000320: a30e af3e eff2 f3bd a8ad 733e aa22 813e
00000330: 5b07 303c d251 8bbe 3293 913d 8813 693e
00000340: 43e3 673e 392e 163e 42cf 25be ba61 b5be
00000350: 6b60 ae3e 5be6 74be b41c c4be b03d a13e
00000360: c7f0 9bbc 56d6 adbe b0aa ddbd c371 08bd
00000370: 50ed 2cbd 7a8d fbbd 12f9 413c 82df 0d3e
00000380: 52b6 aa3e 5472 493e e936 043e 3ae6 0f3e
00000390: 4a74 b83e fee9 b23d 132e 99be 084b 8e3d
000003a0: f9df 163d d0e2 5e3e 5be8 473e 6b2c a83e
000003b0: b182 b9bb 88c6 4c3e aac9 283c 00af 00bd
000003c0: 84a8 5a3e b3f0 1cbe 2e22 07be faaa 65be
000003d0: d204 89be cc9b b93d de5a 113e d945 753d
000003e0: 82c1 80be 8b91 1abe 38f3 ed3d 56ed 4e3e
000003f0: f279 743e f898 ac3d ee32 2b3d 45ea 1c3e

encoder.lnLst.1.0.bias f4 [32]
0.31841698 -0.021346409 -0.057687182 0.28678215 -0.064415924 0.28499278 0.2691137 0.052564688
0.2514215 -0.14096881 -0.016680373 -0.20684108 0.21096687 0.008642601 0.37856546 -0.29624808
-0.38659307 -0.07230623 -0.31018308 -0.3044572 0.15152961 -0.1678563 -0.11203924 0.12326849
-0.14328596 0.32642576 -0.06952594 -0.3059983 -0.29344952 0.2173896 0.3026049 0.161502
00000000: 8d07 a33e aade aebc 6549 6cbd 1cd5 923e
00000010: 7fec 83bd 93ea 913e 45c9 893e 124e 573d
00000020: 52ba 803e 215a 10be 47a5 88bc 26ce 53be
00000030: b307 583e b299 0d3c 55d3 c13e d4ad 97be
00000040: 87ef c5be 4a15 94bd 51d0 9ebe d0e1 9bbe
00000050: 942a 1b3e 86e2 2bbe d474 e5bd 3174 fc3d
00000060: 8eb9 12be 4721 a73e 9e63 8ebd cfab 9cbe
00000070: 043f 96be 619b 5e3e 08ef 9a3e c860 253e

encoder.lnLst.1.2.weight f4 [32, 32]
0.33703896 -0.24953489 0.038327403 -0.055185907 0.012277317 0.31258795 -0.017628329 0.053688657
-0.047382656 -0.061567888 -0.038415555 -0.119591065 0.19433145 0.23446676 -0.01769454 0.08519427
-0.17528231 -0.23038103 -0.038619824 0.18557379 -0.0806984 -0.017760323 -0.13348168 0.29590124
-0.24078149 0.015906213 -0.26353103 -0.2219924 -0.06322724 -0.25130612 -0.16748211 -0.19573258
0.05165594 -0.255747 0.115241915 0.122608595 -0.07772768 -0.25901404 -0.06372622 -0.07107811
0.0021508955 0.14598712 -0.07609319 0.27734774 0.0062918733 -0.20704745 -0.19694188 0.18617503
0.14200366 0.2886711 -0.09907288 0.2809022 -0.23887977 -0.06589311 -0.0107507445 -0.16859281
0.14594093 0.015446202 0.19285229 -0.16486755 -0.0044114087 0.010543082 0.12335673 -0.045568075
-0.1340416 -0.062219664 0.19284372 -0.151075 0.030559713 0.05993596 -0.08128946 0.066772826
-0.20484759 -0.1379727 -0.23046035 0.15318845 -0.12774591 0.29111072 -0.31389448 -0.048503093
-0.22701856 -0.07451637 -0.20940952 0.06436505 0.035037175 0.10139436 0.18062009 -0.3281668
0.033450574 -0.33920446 -0.057548873 0.28025386 -0.027145922 0.0564749 0.12525561 -0.29304448
-0.33834666 0.15420717 -0.33657685 0.02114554 0.16277915 0.18035568 -0.307649 0.079460084
-0.03986261 -0.32514572 0.07418481 0.041325208 -0.34604442 0.27938592 -0.27308926 0.15090477
-0.28891355 0.06628293 0.15342018 0.0893421 -0.105676316 -0.09388524 -0.2681841 0.116112225
-0.26114208 0.25025272 -0.27551883 -0.28584155 0.08527709 -0.3371039 0.09054566 -0.12326748
-0.3607107 -0.28088692 -0.026026918 -0.071843565 -0.19113003 -0.0994018 0.010859248 -0.32170454
0.12106593 0.071929894 0.02160183 -0.32811874 0.22991979 -0.063950874 0.07216199 0.063309126
0.11116899 0.15331325 -0.053969543 0.06652211 -0.2135607 -0.06689915 -0.24958362 -0.21340477
-0.12242886 -0.0918601 0.06879445 0.25385872 -0.030793257 0.13630703 -0.34100422 -0.36589932
-0.14156853 0.20617567 -0.013200542 -0.30698708 0.1837027 -0.3280605 0.042733766 -0.00017940774
-0.08676703 0.11981678 -0.18898717 -0.33591345 -0.24313582 -0.137701 -0.067775026 -0.29671007
-0.114933975 -0.21707872 -0.13360861 -0.11176785 -0.05290124 -0.027108254 0.19034198 -0.27945203
0.199009 -0.037631534 -0.048710376 -0.07137546 0.062291373 -0.06193076 0.0606186 -0.17330669
-0.042838123 -0.011359897 0.24547414 -0.17727505 -0.03178348 -0.1670004 -0.066059664 0.31388605
0.2950395 0.0924729 0.091712624 -0.17917712 -0.09754777 0.28538007 -0.015348923 -0.039642695
0.15579762 0.3700242 0.09997201 -0.005926658 0.22144392 0.10852241 -0.081892595 0.07087097
0.16535786 0.2611415 -0.07018982 0.25363964 -0.002144712 0.3516903 0.017587528 0.115318805
0.0016605086 0.20399468 0.0019000316 -0.051943853 -0.032486994 0.092612855 -0.17941476 0.019422574
-0.025847279 0.1742911 -0.24593963 0.06640064 -0.22858892 0.20412268 0.0879963 0.12530091
-0.18807167 -0.017386757 -0.3523424 0.1846254 0.0019620464 0.17040554 -0.19169748 -0.31009495
-0.13631819 -0.09517298 0.03891079 0.26050618 -0.3267886 0.2558263 -0.27407232 -0.19640057
00000000: 5f90 ac3e 1386 7fbe 32fd 1c3d 9e0a 62bd
00000010: cd26 493c 870b a03e 4969 90bc a3e8 5b3d
00000020: 5114 42bd 9c2e 7cbd a159 1dbd 29ec f4bd
00000030: d3fe 463e 0e18 703e 24f4 90bc 557a ae3d
00000040: 357d 33be 01e9 6bbe d22f 1ebd 0e07 3e3e
00000050: 3445 a5bd 197e 91bc 6caf 08be 5e80 973e
00000060: 6c8f 76be bf4d 823c 8aed 86be fa51 63be
00000070: 497d 81bd 32ab 80be 6e80 2bbe 1f6e 48be
00000080: 2e95 533d 45f1 82be f403 ec3d 371a fb3d
00000090: b12f 9fbd 7d9d 84be e482 82bd 6691 91bd
000000a0: 0af6 0c3b a67d 153e bfd6 9bbd 8600 8e3e
000000b0: 0f2c ce3b 3f04 54be 22ab 49be aba4 3e3e
000000c0: 6869 113e b3cc 933e b9e6 cabd 6ad2 8f3e
000000d0: e69c 74be f8f2 86bd e423 30bc 98a3 2cbe
000000e0: 8a71 153e 1112 7d3c 127b 453e 0ad3 28be
000000f0: 948d 90bb e4bc 2c3c 74a2 fc3d 97a5 3abd
00000100: 3442 09be 0cda 7ebd d378 453e 68b3 1abe
00000110: 5d58 fa3c 697f 753d 177b a6bd 31c0 883d
00000120: 91c3 51be b748 0dbe ccfd 6bbe 6fdd 1c3e
00000130: d3cf 02be 770c 953e c7b6 a0be 2eab 46bd
00000140: 8e77 68be 0a9c 98bd 736f 56be d3d1 833d
00000150: 2483 0f3d d9a7 cf3d 79f4 383e 7b05 a8be
00000160: 7803 093d 35ac adbe 5eb8 6bbd 6f7d 8f3e
00000170: 2061 debc 3a52 673d 0243 003e ed09 96be
00000180: c63b adbe 7ce8 1d3e cd53 acbe 6939 ad3c
00000190: 94af 263e 29af 383e 2b84 9dbe f8bb a23d
000001a0: fa46 23bd 8079 a6be 35ee 973d 9f44 293d
000001b0: bc2c b1be ac0b 8f3e 5bd2 8bbe c886 1a3e
000001c0: 7aec 93be 58bf 873d 2e1a 1d3e fef8 b63d
000001d0: d36c d8bd e846 c0bd 6d4f 89be 3fcc ed3d
000001e0: 6ab4 85be 2021 803e ce10 8dbe d359 92be
000001f0: c1a5 ae3d e298 acbe 0170 b93d a973 fcbd
00000200: 13af b8be 69d0 8fbe 6736 d5bc b822 93bd
00000210: 97b7 43be 2c93 cbbd fdea 313c 75b6 a4be
00000220: 6af1 f73d fb4f 933d 52f6 b03c 2eff a7be
00000230: 1870 6b3e adf8 82bd aac9 933d 37a8 813d
00000240: 91ac e33d 26fe 1c3e 2b0f 5dbd be3c 883d
00000250: a8af 5abe 6c02 89bd d992 7fbe c886 5abe
00000260: fbbb fabd 2621 bcbd 1be4 8c3d c5f9 813e
00000270: 2442 fcbc 1294 0b3e 1b98 aebe 2857 bbbe
00000280: 57f7 10be b71f 533e 1647 58bc 692d 9dbe
00000290: 901c 3c3e 8cf7 a7be 9a09 2f3d 661f 3cb9
000002a0: eab2 b1bd 8062 f53d da85 41be d9fc abbe
000002b0: 99f8 78be 7e01 0dbe a2cd 8abd 62ea 97be
000002c0: 8162 ebbd e249 5ebe b2d0 08be 8be6 e4bd
000002d0: f8ae 58bd 2112 debc 02e9 423e 5614 8fbe
000002e0: 04c9 4b3e 8623 1abd 8884 47bd 4c2d 92bd
000002f0: 3d25 7f3d 1cab 7dbd 364b 783d 4f77 31be
00000300: 0777 2fbd dd1e 3abc 935d 7b3e 9787 35be
00000310: 652f 02bd 2702 2bbe 4a4a 87bd acb5 a03e
00000320: 6b0f 973e 6f62 bd3d d4d3 bb3d 357a 37be
00000330: 20c7 c7bd 561d 923e 0d7a 7bbc 6160 22bd
00000340: 6989 1f3e d073 bd3e 20be cc3d 6934 c2bb
00000350: 32c2 623e ff40 de3d 4eb7 a7bd cd24 913d
00000360: 9253 293e 57b4 853e aebf 8fbd 0edd 813e
00000370: 4c8e 0cbb c010 b43e b813 903c 442c ec3d
00000380: 6ca5 d93a fbe3 503e 7b0a f93a 14c3 54bd
00000390: 1511 05bd cfab bd3d 81b8 37be 171c 9f3c
000003a0: acbd d3bc 5e79 323e 99d7 7bbe 0ffd 873d
000003b0: 3713 6abe 8905 513e 6737 b43d e24e 003e
000003c0: dc95 40be ac6e 8ebc 3966 b4be 710e 3d3e
000003d0: ad95 003b ca7e 2e3e 584c 44be c4c4 9ebe
000003e0: ff96 0bbe 0dea c2bd ec60 1f3d 1161 853e
000003f0: d650 a7be aafb 823e 3553 8cbe 3b1d 49be

encoder.lnLst.1.2.bias f4 [32]
-0.036247686 0.109310344 -0.17482355 -0.2116907 0.053678688 0.01612257 0.22295812 -0.19396229
0.006653074 0.14510064 -0.061496533 -0.12131962 -0.12323864 0.24599849 0.06577898 -0.03108254
0.124184966 -0.15196015 -0.22643495 -0.053979814 -0.11672449 -0.051337104 0.10457291 0.089394756
-0.12661664 -0.084995456 -0.10467163 -0.08922891 -0.18749496 0.17668909 0.205778 0.049751043
00000000: 7478 14bd 1ade df3d f204 33be 72c5 58be
00000010: 2fde 5b3d 7b13 843c 224f 643e 0d9e 46be
00000020: 0802 da3b 4395 143e cae3 7bbd 6c76 f8bd
00000030: 8a64 fcbd 07e7 7b3e 21b7 863d d0a0 febc
00000040: b054 fe3d 719b 1bbe 90de 67be f019 5dbd
00000050: 400d efbd db46 52bd 522a d63d 9914 b73d
00000060: cba7 01be 1912 aebd 145e d6bd a6bd b6bd
00000070: aefe 3fbe fced 343e 78b7 523e c0c7 4b3d

encoder.lnLst.2.0.weight f4 [32, 7]
-0.2959009 -0.27942738 0.12005603 0.118857965 -0.14046887 -0.009037007 0.14646088 -0.2411197
-0.022933984 -0.0921266 0.026323026 0.1077297 0.23705003 -0.27624863 -0.07984169 -0.059880596
-0.16346003 0.16440329 -0.14475663 -0.31690362 -0.4231027 0.2902602 -0.18602553 0.02977378
-0.08758312 -0.38236147 0.0016787428 -0.17183106 -0.059496947 -0.15227929 0.02824161 0.002831731
-0.2386725 0.1418464 -0.3391172 -0.25691667 0.36362052 0.054234713 -0.15955365 -0.08311233
0.25460672 -0.27511808 0.086197 0.30070022 0.26791316 0.14632683 -0.009544102 -0.29729548
0.16581085 -0.16356644 0.21676588 0.17220253 -0.3099004 -0.113821305 -0.07335247 0.44885206
0.23714316 0.1985417 -0.31660044 0.33918223 -0.3173347 0.35912094 -0.2768265 -0.11569986
0.119213134 -0.379802 -0.26454058 -0.27889478 -0.27796653 -0.26064712 -0.08540304 -0.12135464
-0.38294676 -0.3719429 -0.030889746 -0.35608283 0.3569593 -0.07468692 -0.12274273 0.08646379
-0.087232865 -0.122248046 0.09870269 -0.16167535 0.21556291 0.25233766 -0.19810043 0.008413832
0.2988413 0.26396525 0.3066504 0.24163744 -0.25021607 0.0467111 -0.17619863 0.24914254
0.10253304 0.20111115 0.25185752 -0.25341377 -0.32475674 0.0067394245 -0.31202644 -0.15706086
0.041644856 -0.0710422 0.3346901 0.3631297 -0.07362373 0.19112065 0.22646919 0.10578533
0.09408109 -0.31400388 0.12206614 -0.3056082 -0.050958693 0.21471287 0.2198603 0.056180272
0.09152739 -0.014731059 0.049967736 0.2934144 0.15873682 -0.120999224 -0.07936266 -0.3220862
-0.21039431 -0.21414466 0.15503877 -0.07042816 0.20201248 -0.06600958 0.4524916 0.095522955
0.020962862 -0.26857513 0.11455337 0.23711362 0.0762988 -0.19084215 -0.07083654 -0.080506735
0.17426617 -0.34036842 0.28370795 0.1764272 0.0656003 -0.34378096 -0.26321182 -0.26232466
0.00801266 0.30106157 0.055635847 0.43260497 0.27454364 -0.1272899 -0.2769004 -0.048482962
-0.25100377 0.025129361 0.12963603 -0.11626627 0.09487191 -0.4229025 0.2049757 -0.29835573
-0.19403644 -0.20585479 -0.24545756 -0.029697517 0.14907987 -0.2455174 0.034024525 0.0863768
-0.2942913 0.0627375 0.27623218 -0.168178 -0.08638834 0.08625803 0.22088641 -0.22024332
-0.05966525 -0.4076922 0.15518622 0.0025233638 0.19258541 0.20141253 0.24833062 -0.010843839
0.36179283 0.06756943 0.0010509753 0.043248866 -0.29149508 -0.24682808 -0.31601867 -0.2524044
-0.26724413 -0.30779645 0.06460843 -0.005780504 0.31028122 0.1873429 0.040827926 -0.12055587
0.25680313 -0.32905167 -0.30041197 -0.41960478 0.0254031 -0.24904072 0.03406096 -0.23103695
0.16838516 0.16006915 -0.26300326 0.38766152 -0.20036341 -0.062662326 -0.09551192 0.098948665
00000000: 5380 97be 1b11 8fbe f0df f53d ce6b f33d
00000010: 12d7 0fbe f40f 14bc d7f9 153e 15e8 76be
00000020: 0de0 bbbc dfac bcbd 63a3 d73c 64a1 dc3d
00000030: 3ebd 723e 7670 8dbe 0a84 a3bd 5b45 75bd
00000040: 1162 27be 5659 283e 153b 14be 3141 a2be
00000050: eba0 d8be fc9c 943e 7a7d 3ebe 24e8 f33c
00000060: c75e b3bd e2c4 c3be 4309 dc3a 7bf4 2fbe
00000070: 12b3 73bd 1aef 1bbe f35a e73c 9094 393b
00000080: 9066 74be 2f40 113e c5a0 adbe 958a 83be
00000090: 782c ba3e 3825 5e3d 0862 23be cc36 aabd
000000a0: d05b 823e 47dc 8cbe 0e88 b03d 61f5 993e
000000b0: ea2b 893e b3d6 153e dd5e 1cbc 1d37 98be
000000c0: 52ca 293e f67d 27be e0f7 5d3e dc55 303e
000000d0: 44ab 9ebe 251b e9bd d239 96bd f0cf e53e
000000e0: a8d5 723e 844e 4b3e 7419 a2be 4ba9 ad3e
000000f0: b279 a2be b3de b73e 34bc 8dbe 0cf4 ecbd
00000100: 0426 f43d 6875 c2be dd71 87be 4ccb 8ebe
00000110: a151 8ebe 8a73 85be cae7 aebd c888 f8bd
00000120: 9911 c4be 4d6f bebe 7e0c fdbc 7d50 b6be
00000130: 5fc3 b63e 75f5 98bd 8a60 fbbd ed13 b13d
00000140: 25a7 b2bd 2f5d fabd a324 ca3d 398e 25be
00000150: 86bc 5c3e 6732 813e d7da 4abe 2bda 093c
00000160: ba01 993e 7426 873e 4801 9d3e ce6f 773e
00000170: 521c 80be 2354 3f3d 6a6d 34be 391f 7f3e
00000180: d8fc d13d 15f0 4d3e 78f3 803e 73bf 81be
00000190: 8446 a6be 64d6 dc3b eec1 9fbe 90d4 20be
000001a0: cc93 2a3d 937e 91bd 805c ab3e 23ec b93e
000001b0: 0ac8 96bd 22b5 433e 8ae7 673e fba5 d83d
000001c0: 96ad c03d 1ec5 a0be d0fd f93d ae78 9cbe
000001d0: 10ba 50bd b1dd 5b3e 0f23 613e 491d 663d
000001e0: b672 bb3d 8a5a 71bc f8aa 4c3d 6a3a 963e
000001f0: e88b 223e 71ce f7bd e488 a2bd 7be8 a4be
00000200: 9b71 57be bd48 5bbe 7cc2 1e3e a43c 90bd
00000210: 5cdc 4e3e 0830 87bd fbac e73e 8aa1 c33d
00000220: 4fba ab3c ae82 89be f59a ea3d eacd 723e
00000230: 8c42 9c3d 206c 43be bf12 91bd b7e0 a4bd
00000240: d572 323e c544 aebe 2b42 913e 55a9 343e
00000250: 7359 863d 0f04 b0be b3c3 86be 6b4f 86be
00000260: 8847 033c be24 9a3e 6ae2 633d 667e dd3e
00000270: fc90 8c3e 4958 02be e4c5 8dbe 1296 46bd
00000280: 9183 80be 17dc cd3c 4fbf 043e 031d eebd
00000290: 344c c23d ad86 d8be 26e5 513e 15c2 98be
000002a0: 7db1 46be 99cb 52be 3a59 7bbe 3548 f3bc
000002b0: 65a8 183e ea68 7bbe 4d5d 0b3d 52e6 b03d
000002c0: 59ad 96be 857c 803d 4e6e 8d3e db36 2cbe
000002d0: 5fec b0bd 0da8 b03d 0c30 623e 7787 61be
000002e0: 8d63 74bd 08bd d0be 23e9 1e3e 055f 253b
000002f0: 1c35 453e 163f 4e3e 624a 7e3e 5baa 31bc
00000300: e93c b93e d761 8a3d e1c0 893a b925 313d
00000310: d83e 95be 80c0 7cbe 33cd a1be 263b 81be
00000320: 39d4 88be 7f97 9dbe 6d51 843d 626a bdbb
00000330: 2edd 9e3e d1d6 3f3e 2f3b 273d ffe5 f6bd
00000340: b37b 833e 7679 a8be 99cf 99be 70d6 d6be
00000350: 291a d03c 8804 7fbe 8183 0b3d f394 6cbe
00000360: 296d 2c3e 2be9 233e 5da8 86be 927b c63e
00000370: 112c 4dbe 1b55 80bd c19b c3bd 99a5 ca3d

encoder.lnLst.2.0.bias f4 [32]
-0.10815867 0.11241814 0.057982873 -0.22747211 0.036606427 -0.25923875 0.36305115 0.40985596
0.3201716 0.18358807 -0.19881815 0.11304634 0.052001476 0.047656517 0.14326416 -0.27503234
-0.0432624 -0.39652154 0.017847287 0.24481137 0.36175936 0.07595901 0.24704419 -0.035772152
-0.050557375 -0.33946243 -0.31251934 0.098162346 -0.009073959 -0.16761245 0.26449284 -0.2757568
00000000: 4b82 ddbd 7b3b e63d 737f 6d3d 73ee 68be
00000010: 9ff0 153d f1ba 84be d7e1 b93e a4d8 d13e
00000020: 88ed a33e 83fe 3b3e fc96 4bbe d784 e73d
00000030: 80ff 543d 7b33 433d d7b3 123e 0ad1 8cbe
00000040: ea33 31bd df04 cbbe 7934 923c d5af 7a3e
00000050: 8638 b93e 6690 9b3d 27f9 7c3e d285 12bd
00000060: 4015 4fbd 05ce adbe 8902 a0be 5709 c93d
00000070: f1aa 14bc 99a2 2bbe 9b6b 873e ff2f 8dbe
