app/vegetation/attention/andy/model_ep1.pth (torch, 62334 bytes, 31 tensors)

encoder.lnXc.0.weight f4 [32, 15]
-0.39007714 0.07590766 0.21446872 -0.17793669 -0.19736709 -0.16288519 0.099224284 0.19273384
-0.23783614 -0.033401277 -0.2261984 0.06188785 -0.13173503 0.07495457 0.28951228 -0.23044677
-0.22074346 0.36246896 0.2165095 0.06867513 0.110240705 0.26176777 0.25916004 0.31390437
-0.1211582 -0.10912815 0.32342422 0.06919738 -0.087781586 0.33351436 0.11268796 0.23866147
0.40583417 -0.18404779 0.018223295 -0.07930401 0.33798686 0.15071398 0.21373726 0.32285246
-0.26513815 -0.07211397 0.18952447 0.15106396 -0.34273568 0.3360161 -0.19696276 0.059742175
-0.20692271 0.06295206 0.023932092 -0.17015281 0.2396833 0.21422918 0.24097358 -0.33504042
-0.0809893 -0.009166196 0.22863957 -0.28136277 -0.13475022 0.11911059 -0.18709747 0.015245986
-0.23128906 -0.19413693 -0.15545094 0.20644695 0.10740488 -0.20646386 0.2521527 -0.2296026
-0.1627328 -0.21823163 0.039539035 0.18658382 -0.2238967 -0.3225293 0.13183442 0.32566094
-0.2606614 -0.30120227 9.711172e-05 -0.010951178 -0.10468439 -0.00030513524 0.34479874 -0.022628734
0.25891235 -0.08723188 0.2837317 0.0020172382 0.12398474 0.26302558 -0.33001807 -0.31319332
-0.11047787 -0.2774204 0.26263312 0.30706483 0.008941731 -0.0049939277 -0.31805864 0.27692306
0.295594 0.29573062 0.012589026 0.30422115 0.29949248 -0.2902409 -0.15042993 0.22231317
-0.26816267 0.24914894 0.1598325 0.09379957 0.116523325 0.00096830603 -0.2975421 0.1987083
-0.03248216 0.14528705 0.022460321 0.0024441238 0.11660453 -0.40208808 0.036765132 -0.17572941
0.26572722 -0.036310837 0.25504476 -0.1103095 -0.22602782 0.26053613 0.072791494 -0.2588761
0.35909483 -0.32793528 -0.058054727 -0.10574905 0.10765097 0.33540943 0.17223305 -0.152704
-0.20645802 0.12708998 -0.029903764 -0.16711679 -0.19985618 0.20821783 0.12432315 -0.12383044
-0.07714833 0.2612145 -0.128369 0.31356335 -0.06713554 0.16269718 0.045513112 0.25100458
0.11138258 -0.27467293 -0.12214248 -0.15294223 -0.09279655 0.005341525 0.13119127 0.35858938
0.20468432 0.21972276 0.015293991 0.24667875 0.19176102 0.31277058 0.27311486 -0.32712334
-0.043964393 -0.32024577 -0.13224341 -0.3208141 -0.31616977 -0.36106732 -0.115163624 0.29401654
0.2320242 -0.10559119 -0.2061459 0.3411375 0.1942426 0.31443024 0.24192637 -0.158713
0.08654852 0.25769192 -0.24032922 -0.10729427 -0.22891869 -0.32024646 -0.097490154 0.018979548
-0.2313293 0.1093351 -0.14491007 -0.27229112 -0.3284688 -0.29118502 0.019517964 -0.32197663
0.18154171 0.300293 -0.00038687704 -0.26771572 0.21471678 0.31494924 -0.11717479 -0.31993234
0.03697601 -0.24461088 0.35147956 0.0021322411 0.015335048 0.14583194 -0.2782283 0.2662302
-0.058720008 -0.31544104 -0.08772617 0.055893503 -0.23228012 -0.08645588 0.06571469 -0.26241758
-0.35247114 0.123514816 -0.2266755 -0.10312651 -0.020289363 -0.21143746 -0.2434337 0.07684263
-0.02302491 0.07005153 -0.04706728 0.118092865 -0.2673059 -0.056564085 -0.16052417 0.09755153
-0.04959274 -0.3349732 0.10090389 -0.32494432 -0.27267173 -0.13200349 0.2816364 0.13587052
00000000: 31b8 c7be 7a75 9b3d b09d 5b3e 0935 36be
00000010: 991a 4abe 60cb 26be 1a36 cb3d 055c 453e
00000020: 518b 73be c7cf 08bd 8ea0 67be 1d7e 7d3d
00000030: 8ce5 06be c881 993d f43a 943e 3dfa 6bbe
00000040: 930a 62be 8895 b93e abb4 5d3e 8ca5 8c3d
00000050: e1c5 e13d 6d06 863e a0b0 843e 13b8 a03e
00000060: ca21 f8bd 947e dfbd dc97 a53e 5bb7 8d3d
00000070: d5c6 b3bd 65c2 aa3e f2c8 e63d ac63 743e
00000080: 7fc9 cf3e 0677 3cbe 0549 953c 246a a2bd
00000090: 9d0c ad3e c454 1a3e f1dd 5a3e eb4c a53e
000000a0: 30c0 87be 7db0 93bd b412 423e 83b0 1a3e
000000b0: 0d7b afbe 4d0a ac3e 9bb0 49be 36b4 743d
000000c0: 8ce3 53be 02ed 803d 3c0d c43c 8a3c 2ebe
000000d0: 8a6f 753e e55e 5b3e c7c1 763e 6b8a abbe
000000e0: b8dd a5bd d02d 16bc 7e20 6a3e c80e 90be
000000f0: f6fb 09be 41f0 f33d 7b96 3fbe 4dca 793c
00000100: 0ad7 6cbe d5cb 46be 882e 1fbe d466 533e
00000110: 17f7 db3d 436b 53be 291a 813e f21c 6bbe
00000120: 6da3 26be 1d78 5fbe aff3 213d d40f 3f3e
00000130: 2d45 65be 8f22 a5be 9aff 063e 08bd a63e
00000140: 6975 85be 2f37 9abe 75a8 cb38 926c 33bc
00000150: c564 d6bd 8ffa 9fb9 7689 b03e e55f b9bc
00000160: 2990 843e a1a6 b2bd 4845 913e a433 043b
00000170: b6eb fd3d 4aab 863e 21f8 a8be e05a a0be
00000180: 3942 e2bd 0c0a 8ebe d977 863e 9a37 9d3e
00000190: 5780 123c 1aa4 a3bb 95d8 a2be dcc8 8d3e
000001a0: 1958 973e 016a 973e 3442 4e3c e0c2 9b3e
000001b0: 1457 993e 759a 94be 4e0a 1abe 10a6 633e
000001c0: 9e4c 89be e620 7f3e 22ab 233e fd19 c03d
000001d0: c8a3 ee3d ebd5 7d3a 7057 98be 307a 4b3e
000001e0: 030c 05bd 21c6 143e b5fe b73c 982d 203b
000001f0: 5bce ee3d 7dde cdbe 0997 163d 69f2 33be
00000200: 660d 883e acba 14bd 3a95 823e f2e9 e1bd
00000210: d673 67be fe64 853e b513 953d 688b 84be
00000220: 47db b73e 22e7 a7be cbca 6dbd f592 d8bd
00000230: 1d78 dc3d c9ba ab3e dc5d 303e 705e 1cbe
00000240: bb69 53be e023 023e bdf8 f4bc aa20 2bbe
00000250: 19a7 4cbe 0e37 553e 239d fe3d d09a fdbd
00000260: f2ff 9dbd e8bd 853e 2a73 03be 608b a03e
00000270: 5c7e 89bd 179a 263e f56b 3a3d ac83 803e
00000280: 8d1c e43d eea1 8cbe d625 fabd e39c 1cbe
00000290: 1e0c bebd f607 af3b 0157 063e 0799 b73e
000002a0: c498 513e 01ff 603e a693 7a3c 5b99 7c3e
000002b0: 005d 443e 7723 a03e b6d5 8b3e b67c a7be
000002c0: 0214 34bd 41f7 a3be d16a 07be bf41 a4be
000002d0: 01e1 a1be d1dd b8be e8da ebbd 5689 963e
000002e0: c097 6d3e 3240 d8bd e917 53be 93a9 ae3e
000002f0: 88e7 463e 00fd a03e 8cbb 773e a985 22be
00000300: 5a40 b13d 32f0 833e dd18 76be 19bd dbbd
00000310: a969 6abe 58f7 a3be eba8 c7bd ff7a 9b3c
00000320: 97e1 6cbe 15eb df3d 4e63 14be be69 8bbe
00000330: 102d a8be 3416 95be 23e4 9f3c 1fda a4be
00000340: 12e6 393e 01c0 993e c2d5 cab9 0912 89be
00000350: b7de 5b3e 0741 a13e 56f9 efbd 2cce a3be
00000360: 2874 173d 467b 7abe 21f5 b33e 12bd 0b3b
00000370: da3f 7b3c f854 153e f173 8ebe 534f 883e
00000380: 6484 70bd 7d81 a1be c7a9 b3bd 96f0 643d
00000390: d7da 6dbe c80f b1bd 6c95 863d 995b 86be
000003a0: 1977 b4be 56f5 fc3d 9f1d 68be fe33 d3bd
000003b0: e135 a6bc 1083 58be af46 79be ab5f 9d3d
000003c0: bc9e bcbc 2d77 8f3d 9fc9 40bd acda f13d
000003d0: 52dc 88be beaf 67bd 7360 24be 19c9 c73d
000003e0: c221 4bbd 9b81 abbe b3a6 ce3d 1a5f a6be
000003f0: a19b 8bbe ec2b 07be a532 903e a421 0b3e

encoder.lnXc.0.bias f4 [32]
0.06552083 -0.19418472 0.059750974 0.011629433 -0.17281832 -0.19466276 -0.27933595 0.08013575
-0.14010413 -0.113267355 0.27092403 0.23566769 0.12072896 0.24188311 -0.13149928 -0.141793
-0.031429946 0.18821461 -0.011447629 0.29033986 -0.10652605 -0.052969046 0.005807515 0.19918776
-0.17932357 0.08895589 -0.28972995 0.27681464 0.048219487 0.021539453 -0.16902408 -0.16425113
00000000: c92f 863d 5cd8 46be 70bd 743d 6189 3e3c
00000010: 49f7 30be ad55 47be 1f05 8fbe 361e a43d
00000020: 7577 0fbe b7f8 e7bd 8eb6 8a3e df52 713e
00000030: bf40 f73d 35b0 773e bfa7 06be 2f32 11be
00000040: b0bc 00bd 55bb 403e d68e 3bbc 6da7 943e
00000050: 542a dabd 12f6 58bd f74c be3b e0f7 4b3e
00000060: 99a0 37be 812e b63d 7c57 94be a6ba 8d3e
00000070: cc81 453d 8273 b03c a614 2dbe 7331 28be

encoder.lnXc.2.weight f4 [32, 32]
-0.1120848 0.34789315 -0.23404698 0.24225686 -0.2578559 0.22865681 -0.077820115 -0.030491896
-0.041323863 0.15152533 0.01119452 0.16724646 0.28781027 -0.07118475 -0.08318857 -0.20671873
-0.054859653 -0.045983493 -0.046527807 0.07337964 0.29682887 -0.17004128 -0.049499474 -0.17911975
-0.20291944 0.09561657 0.35815778 0.24535915 0.19820848 0.23626961 -0.17888501 -0.12637906
-0.0028054672 -0.09145165 -0.2426831 0.119816914 0.18271434 0.1053193 0.09280401 -0.03385472
0.086536795 -0.26094243 0.00710256 -0.044004623 0.35019696 -0.13415559 0.07554763 0.15012445
0.010508357 -0.029907383 -0.12839188 -0.092541434 0.09779722 -0.06575924 -0.028209906 -0.055023123
0.1297081 -0.2728953 0.14911936 -0.27393472 -0.26626498 -0.2854307 -0.19940364 0.034951463
0.24064931 0.042784598 -0.004970361 -0.17198725 0.2234447 0.063155375 0.15690091 -0.09606873
0.022805523 -0.1931121 0.2252809 0.18203579 0.28483415 -0.24274436 0.12213723 0.031197816
-0.13548838 0.24319771 0.2924535 0.010433571 -0.12495055 -0.019547602 0.14464824 0.25652656
0.08991893 -0.19403104 -0.12728977 -0.061373606 0.24133116 -0.15480462 -0.1776228 0.2645968
-0.2568219 -0.04206768 -0.31731385 -0.2462405 -0.1295497 -0.2258685 -0.07294216 -0.030186836
0.11996007 -0.19854456 0.18168777 -0.019574804 -0.19961953 -0.013958167 0.23184368 -0.29715487
0.007211879 -0.3460464 -0.22481655 0.10251222 -0.015587948 0.080533534 -0.1336148 -0.20319903
-0.07417296 -0.28163967 -0.3196765 -0.32980496 -0.091781855 0.013241193 -0.18514334 -0.22546919
0.20647937 -0.08498533 0.22008818 0.054390173 0.04544532 -0.062082984 0.104622416 -0.20145175
-0.20833147 -0.21250544 0.25079265 0.27797642 -0.060050335 0.22901589 -0.03802847 0.13309518
0.15327238 0.27996737 -0.173706 -0.2526479 0.12737392 -0.07144092 -0.19793761 0.25345775
-0.32268092 -0.031678636 -0.25420278 -0.17563684 0.05311789 -0.18572225 0.24870633 -0.02909887
-0.029747663 0.102446005 0.23045452 0.21509136 -0.25123957 0.12601669 0.07099752 0.00536528
-0.046400934 -0.22005774 -0.1471053 0.159826 0.22763428 0.2573056 0.029585281 -0.1793212
0.07836431 0.06581691 0.13699737 -0.3424099 0.13820663 0.0071898256 -0.13438152 0.19505562
-0.26565486 -0.053148072 0.10524738 -0.22884907 0.04981945 -0.04562775 -0.23808707 -0.1138321
-0.16060932 0.23727016 0.07533272 0.3409311 0.22016191 0.2704603 0.038854342 0.28763935
-0.13427225 0.32209602 -0.17350079 0.17587864 0.029353455 0.21794689 0.22285612 0.0833129
-0.2376596 -0.091592364 0.34480587 0.3691447 0.079120345 0.17054865 -0.21631558 0.19497445
-0.034942925 -0.09035113 0.12369872 -0.032622308 -0.0024934788 -0.015994407 -0.0158997 0.12449364
0.22919083 0.2143145 -0.18850525 -0.31162798 0.06447319 -0.25017917 -0.13013604 0.10278396
0.19587128 0.062465433 -0.014938999 -0.31511503 0.17263159 -0.04278566 -0.100801624 -0.16468811
-0.3568695 0.075387225 0.07905238 0.22463436 -0.26206434 0.21773943 -0.15521787 -0.2871216
0.18050441 -0.21855251 0.15798427 -0.31778926 -0.36620378 -0.21838927 -0.031972107 -0.25120023
00000000: b78c e5bd 0d1f b23e 03aa 6fbe 2f12 783e
00000010: b005 84be 0325 6a3e 2760 9fbd 24ca f9bc
00000020: 3643 29bd 7529 1b3e 3869 373c a842 2b3e
00000030: de5b 933e 4fc9 91bd c55e aabd 13ae 53be
00000040: 84b4 60bd 3059 3cbd f193 3ebd 1148 963d
00000050: f4f9 973e 4d1f 2ebe f6bf 4abd 2b6b 37be
00000060: 1dca 4fbe 9fd2 c33d 7560 b73e 6e3f 7b3e
00000070: 2af7 4a3e a9f0 713e a22d 37be 8369 01be
00000080: eedb 37bb 014b bbbd eb81 78be 9262 f53d
00000090: 7819 3b3e a5b1 d73d 0710 be3d 3fab 0abd
000000a0: 343a b13d 3f9a 85be 97bc e83b 313e 34bd
000000b0: 044d b33e 1560 09be b7b8 9a3d 39ba 193e
000000c0: 3e2b 2c3c 5400 f5bc 2979 03be 5d86 bdbd
000000d0: e949 c83d c8ac 86bd 7618 e7bc ed5f 61bd
000000e0: 33d2 043e efb8 8bbe bfb2 183e 2c41 8cbe
000000f0: e253 88be f923 92be 7830 4cbe 4429 0f3d
00000100: c66c 763e e73e 2f3d 69de a2bb 6d1d 30be
00000110: b0ce 643e 9b57 813d a2aa 203e afbf c4bd
00000120: a6d2 ba3c 2ebf 45be 09b0 663e 9767 3a3e
00000130: c8d5 913e fa91 78be 1623 fa3d 9092 ff3c
00000140: 77bd 0abe d208 793e 77bc 953e 92f1 2a3c
00000150: 13e6 ffbd 4b22 a0bc ab1e 143e 7357 833e
00000160: 6a27 b83d 13b0 46be 4058 02be e462 7bbd
00000170: 841f 773e 1a85 1ebe c0e2 35be 3b79 873e
00000180: 297e 83be 294f 2cbd f676 a2be 7826 7cbe
00000190: ada8 04be 124a 67be b362 95bd 624a f7bc
000001a0: a0ad f53d 444f 4bbe 5c0c 3a3e 575b a0bc
000001b0: 1069 4cbe ccb0 64bc 6e68 6d3e af24 98be
000001c0: a051 ec3b fe2c b1be 4f36 66be edf1 d13d
000001d0: 9864 7fbc c4ee a43d 51d2 08be 6813 50be
000001e0: fee7 97bd 1333 90be a3ac a3be 32dc a8be
000001f0: 20f8 bbbd 97f1 583c 3796 3dbe 65e1 66be
00000200: 546f 533e ca0c aebd cc5e 613e 3bc8 5e3d
00000210: df24 3a3d ba4a 7ebd 4744 d63d 5e49 4ebe
00000220: d854 55be 079b 59be e567 803e ed52 8e3e
00000230: 57f7 75bd 2483 6a3e bec3 1bbd 1a4a 083e
00000240: 6ff3 1c3e e257 8f3e fcdf 31be 115b 81be
00000250: 4f6e 023e 9e4f 92bd 28b0 4abe 37c5 813e
00000260: 6f36 a5be 75c1 01bd de26 82be 25da 33be
00000270: 2592 593d f92d 3ebe dfac 7e3e c160 eebc
00000280: 5fb1 f3bc 36cf d13d 45fc 6b3e e940 5c3e
00000290: 79a2 80be 850a 013e 2667 913d 3bcf af3b
000002a0: e80e 3ebd d156 61be c6a2 16be 6da9 233e
000002b0: f618 693e 8fbd 833e d55c f23c fa9f 37be
000002c0: 787d a03d 04cb 863d 0a49 0c3e 5a50 afbe
000002d0: 0a86 0d3e a198 eb3b 4f9b 09be a9bc 473e
000002e0: ea03 88be cbb1 59bd f08b d73d 6957 6abe
000002f0: 7b0f 4c3d 2ae4 3abd 19cd 73be ce20 e9bd
00000300: c576 24be f3f6 723e 0b48 9a3d 858e ae3e
00000310: 2072 613e c679 8a3e bb25 1f3d 7745 933e
00000320: aa7e 09be c5e9 a43e 31aa 31be 8819 343e
00000330: a876 f03c 782d 5f3e 6534 643e f49f aa3d
00000340: 0a5d 73be c794 bbbd 658a b03e 8900 bd3e
00000350: d909 a23d 4ea4 2e3e d581 5dbe 62a7 473e
00000360: 5020 0fbd 030a b9bd c155 fd3d f89e 05bd
00000370: a269 23bb b406 83bc 1640 82bc 86f6 fe3d
00000380: 00b1 6a3e 4375 5b3e 8507 41be b48d 9fbe
00000390: 850a 843d 7c17 80be 6242 05be 6680 d23d
000003a0: 7b92 483e c1db 7f3d b4c2 74bc c256 a1be
000003b0: 56c6 303e 0440 2fbd 1571 cebd 00a4 28be
000003c0: 99b7 b6be 9e64 9a3d 37e6 a13d 8d06 663e
000003d0: 4c2d 86be 16f7 5e3e 6ff1 1ebe 9a01 93be
000003e0: 26d6 383e 3bcc 5fbe a1c6 213e 46b5 a2be
000003f0: 107f bbbe 70a1 5fbe 2ff5 02bd 519d 80be

encoder.lnXc.2.bias f4 [32]
0.10349312 -0.013508996 0.06231235 -0.14353181 0.061087266 0.0932189 0.22913322 -0.10567502
-0.013241602 -0.052270778 -0.02515275 0.115075886 0.07423886 0.115817696 -0.05010492 0.06059391
-0.023103641 0.008697461 0.049303412 -0.12207953 -0.037649695 0.08825481 -0.010786696 -0.016551513
-0.14459999 0.036758967 0.22629851 0.06286378 0.0044171414 -0.058922257 0.21361426 -0.102680214
00000000: 33f4 d33d d654 5dbc 3c3b 7f3d 01fa 12be
00000010: a436 7a3d 8de9 be3d e6a1 6a3e 256c d8bd
00000020: 4ef3 58bc e219 56bd 240d cebc e8ac eb3d
00000030: 8b0a 983d d431 ed3d d13a 4dbd 5231 783d
00000040: d943 bdbc cc7f 0e3c 60f2 493d d504 fabd
00000050: 9136 1abd f0be b43d afba 30bc 0a97 87bc
00000060: 0512 14be 9290 163d ccba 673e babe 803d
00000070: abbd 903b 7758 71bd b2bd 5a3e 014a d2bd

encoder.lnLst.0.0.weight f4 [32, 3]
-0.07456161 -0.333118 0.024036923 0.03107504 -0.056766838 -0.33991352 0.13959444 0.31097668
-0.18911071 0.26527396 -0.102068976 -0.4279619 0.009797385 0.14341798 -0.32003307 -0.14552471
-0.071253575 -0.04475795 -0.14588384 -0.4031847 0.3663204 -0.32070354 0.35397783 -0.34239224
-0.30183667 -0.14091745 0.3248754 -0.2934118 -0.14254072 0.3303302 -0.383095 -0.16629252
-0.09788424 -0.40729332 -0.074185856 0.3340105 0.1255261 0.3558476 0.31140342 0.16421677
-0.01805871 0.26458406 0.29416692 -0.0066554267 -0.26548317 -0.337703 0.10936574 -0.16823295
-0.0050769444 -0.41433248 -0.04537528 -0.20925836 -0.19230552 0.3613771 0.12534635 0.29127508
-0.34917253 0.30325824 -0.17235465 0.15301065 -0.18136446 0.3189058 0.065357156 0.09544104
-0.23628019 -0.031398077 -0.23100936 -0.18333447 -0.25530005 0.14868733 -0.20512173 0.07063474
0.15723081 0.03636836 -0.3057435 0.30320972 0.21856147 0.37119684 -0.25334468 0.34241912
0.23805375 0.35382292 0.19882876 0.08555967 0.05928568 0.09053587 0.34513274 0.15971516
-0.31199047 0.093987525 0.14589973 -0.45821628 -0.05149918 0.13556136 -0.3058755 0.26070282
00000000: c2b3 98bd 718e aabe 15e9 c43c 1591 fe3c
00000010: 5884 68bd 2509 aebe d8f1 0e3e 5638 9f3e
00000020: 3da6 41be fdd1 873e 8a09 d1bd d21d dbbe
00000030: 3685 203c 2adc 123e 60db a3be 6e04 15be
00000040: 65ed 91bd 1d54 37bd 9362 15be 3a6e cebe
00000050: 598e bb3e 4133 a4be 953c b53e 094e afbe
00000060: 568a 9abe aa4c 10be 1256 a63e 123a 96be
00000070: 32f6 11be 0a21 a93e 0725 c4be 9648 2abe
00000080: 8877 c8bd c088 d0be c1ee 97bd 6d03 ab3e
00000090: ea89 003e a831 b63e 4570 9f3e 7128 283e
000000a0: dcef 93bc 9077 873e 0c9d 963e c415 dabb
000000b0: 69ed 87be 68e7 acbe 25fb df3d 4245 2cbe
000000c0: 7f5c a6bb 6323 d4be 6edb 39bd d347 56be
000000d0: bdeb 44be 6b06 b93e cb5a 003e 0222 953e
000000e0: bec6 b2be aa44 9b3e bd7d 30be d3ae 1c3e
000000f0: 9bb7 39be 9f47 a33e f9d9 853d 9876 c33d
00000100: 6ff3 71be 459b 00bd b88d 6cbe 08bc 3bbe
00000110: b0b6 82be 7e41 183e 6e0b 52be f2a8 903d
00000120: 1d01 213e fdf6 143d 698a 9cbe 4e3e 9b3e
00000130: 94ce 5f3e 830d be3e 65b6 81be 8f51 af3e
00000140: 5dc4 733e 4728 b53e c499 4b3e e939 af3d
00000150: 8bd5 723d df6a b93d 3db5 b03e 5f8c 233e
00000160: 37bd 9fbe 887c c03d bd66 153e 539b eabe
00000170: cef0 52bd 99d0 0a3e b79b 9cbe d77a 853e

encoder.lnLst.0.0.bias f4 [32]
-0.2761683 0.48947728 -0.52584046 0.22374457 0.34375834 0.49196938 0.11109537 -0.48849872
0.19658025 -0.34118357 -0.55547744 -0.35352445 -0.057393692 0.16590934 0.07667963 -0.097468145
0.23103087 0.02650226 0.12878153 -0.3604521 -0.33670232 -0.09372122 -0.5203835 -0.039250053
-0.12964669 -0.11474909 0.10311515 0.045418363 0.31960556 0.23418614 0.2282039 -0.26756558
00000000: ee65 8dbe c49c fa3e 7b9d 06bf 4c1d 653e
00000010: 1801 b03e 69e3 fb3e f885 e33d 811c fabe
00000020: 554c 493e 9daf aebe c533 0ebf 2801 b5be
00000030: a615 6bbd 23e4 293e 360a 9d3d 619d c7bd
00000040: 5b93 6c3e 441b d93c 4edf 033e 2d8d b8be
00000050: 3f64 acbe e9f0 bfbd da37 05bf aac4 20bd
00000060: 1ac2 04be 9201 ebbd 092e d33d 9b08 3a3d
00000070: 57a3 a33e 7ece 6f3e 48ae 693e 5bfe 88be

encoder.lnLst.0.2.weight f4 [32, 32]
0.034091152 0.17885518 0.28313676 0.04892694 0.048768487 0.2283793 0.026322117 0.05405073
-0.18154663 0.07978698 -0.26051715 -0.15203781 -0.12366372 -0.052739635 -0.299907 -0.28325006
0.11090726 -0.07116447 -0.32680222 -0.2652572 -0.21309079 0.22833665 -0.29944465 0.0008450663
0.18139587 0.092225336 0.2120788 -0.25766918 -0.3274089 -0.21908732 0.2203799 -0.27815783
0.23060477 0.07300217 0.07211532 0.34161925 0.17766759 -0.20595022 0.31383416 -0.14704244
0.09213423 -0.086134225 0.102025695 -0.052409276 0.14130512 0.2743482 -0.257536 0.28526485
0.14039104 -0.14763373 0.11625414 -0.056889664 0.21848388 -0.2663386 -0.20472562 -0.061357882
-0.23641638 0.25482184 0.046510372 0.2693017 0.08240371 -0.0025319012 0.076016545 0.096453495
0.21711995 -0.17213517 0.26161882 -0.058704544 0.22117607 0.23012665 -0.27326417 0.14948715
0.11998305 -0.19216268 -0.26084435 0.06533872 0.05022216 -0.3624794 -0.13495256 -0.019663775
0.19087073 -0.0489553 -0.3644551 0.00019250863 -0.13438834 -0.13816097 -0.2025271 0.17622775
-0.04446478 -0.13392693 -0.005587948 -0.17428176 0.08408746 -0.15517408 -0.34330377 -0.050120965
-0.19072337 0.097282745 0.29745263 -0.0871633 0.07118123 -0.0663561 -0.10601924 0.13686751
-0.20649616 -0.13710864 0.14643489 0.18617722 0.010227206 -0.19297788 0.18357836 0.0829007
-0.29398268 -0.24552433 0.05180066 -0.18189366 -0.23170088 -0.038615286 0.2842788 0.2561284
-0.0978181 -0.29140446 0.0502401 -0.19421023 -0.31859022 -0.09813541 -0.033409163 -0.049887326
0.08957134 -0.2886751 -0.28150967 -0.27535743 -0.36837447 -0.1397101 -0.062059365 -0.3030198
-0.06310112 -0.28506973 -0.15054022 0.30504796 0.036778927 0.18708888 -0.20986745 -0.011838051
0.12728916 0.110607 -0.3580565 0.08920629 -0.10892662 0.2501937 -0.13372849 -0.12939802
0.065383576 -0.32524952 -0.09377889 -0.19255987 0.10253563 -0.3736309 0.05012508 0.009375161
-0.13369758 -0.11558497 0.29378548 -0.09336257 -0.04332321 -0.24624544 -0.06782522 0.019191755
-0.17713173 0.19170876 -0.18004446 -0.22956832 0.23390155 -0.2517082 0.010167158 -0.2353322
-0.018208213 0.086773366 0.16668105 0.08400067 0.19410585 -0.04000558 0.01786446 0.03608707
0.28231987 -0.12790424 0.22304022 0.231998 -0.12422081 -0.29249308 -0.2518499 -0.19894399
-0.199762 -0.18974923 0.20438588 -0.19391455 0.16599403 0.043067478 0.17009792 -0.17887244
0.19130479 0.039823044 0.2996679 -6.201391e-05 0.17495658 0.076377064 0.0546949 0.14802185
0.22642519 0.06318885 -0.24502975 -0.21146655 0.050978977 -0.18295576 -0.18789704 0.13394278
0.16471286 -0.19961692 0.32257116 -0.21147095 0.024734797 0.07468702 -0.024259804 0.10475303
0.16896155 0.14699775 -0.023321282 0.19937511 -0.072221816 -0.31477994 -0.27832818 -0.12125453
0.031357624 -0.05979835 0.06423714 0.15158314 0.17453073 0.13890909 0.12854369 0.05146841
-0.2981365 0.17204168 0.205466 -0.008296924 0.19322644 0.24547836 -0.12922199 -0.3130689
-0.18541533 0.19908771 -0.29275393 -0.15521455 -0.10242033 0.030654134 -0.09761781 -0.07307867
00000000: 2aa3 0b3d d025 373e 4df7 903e 9d67 483d
00000010: 77c1 473d 43dc 693e 7ba1 d73c 4c64 5d3d
00000020: 5ce7 39be 5b67 a33d 8162 85be cdaf 1bbe
00000030: 6843 fdbd 8405 58bd 698d 99be 2706 91be
00000040: 5823 e33d adbe 91bd 9f52 a7be cbcf 87be
00000050: 7934 5abe 15d1 693e cf50 99be 7087 5d3a
00000060: d7bf 393e a3e0 bc3d 2f2b 593e 37ed 83be
00000070: 24a2 a7be 6d58 60be 45ab 613e b46a 8ebe
00000080: a823 6c3e 2982 953d 32b1 933d b8e8 ae3e
00000090: 7eee 353e 9de4 52be dfae a03e 4b92 16be
000000a0: dfb0 bc3d 2467 b0bd d9f2 d03d 1cab 56bd
000000b0: 4ab2 103e 5e77 8c3e c2db 83be 3c0e 923e
000000c0: abc2 0f3e 4c2d 17be a716 ee3d 2305 69bd
000000d0: 3dba 5f3e 885d 88be 98a3 51be 6752 7bbd
000000e0: 2317 72be 0278 823e a981 3e3d eae1 893e
000000f0: 47c3 a83d 41ee 25bb 90ae 9b3d 6989 c53d
00000100: b154 5e3e 3444 30be e7f2 853e 2d74 70bd
00000110: fb7b 623e 52a6 6b3e 48e9 8bbe 2913 193e
00000120: acb9 f53d 4bc6 44be 648d 85be 4fd0 853d
00000130: c0b5 4d3d e696 b9be 0131 0abe ed15 a1bc
00000140: 9e73 433e 5a85 48bd dc99 babe 24dc 4939
00000150: 199d 09be 127a 0dbe 4463 4fbe 0c75 343e
00000160: b320 36bd 2424 09be 1b1b b7bb eb76 32be
00000170: 0c36 ac3d f4e5 1ebe 83c5 afbe a44b 4dbd
00000180: fd4c 43be 2d3c c73d b64b 983e ac82 b2bd
00000190: 77c7 913d b5e5 87bd 9e20 d9bd ff26 0c3e
000001a0: bb73 53be 3566 0cbe 07f3 153e 3ea5 3e3e
000001b0: 0390 273c fe9b 45be f7fb 3b3e d8c7 a93d
000001c0: e684 96be bb6a 7bbe ee2c 543d 5542 3abe
000001d0: ff42 6dbe 102b 1ebd fe8c 913e 4323 833e
000001e0: db54 c8bd f732 95be 90c8 4d3d 0cdf 46be
000001f0: 421e a3be 38fb c8bd 0cd8 08bd a756 4cbd
00000200: 2e71 b73d 39cd 93be 0922 90be a6fb 8cbe
00000210: 949b bcbe 2a10 0fbe f631 7ebd 6925 9bbe
00000220: 293b 81bd a9f4 91be 3727 1abe 3f2f 9c3e
00000230: 80a5 163d 3a94 3f3e 7ee7 56be 62f4 41bc
00000240: 1758 023e ec85 e23d 2e53 b7be cab1 b63d
00000250: eb14 dfbd 6319 803e 1ff0 08be ea80 04be
00000260: d3e7 853d 1b87 a6be 260f c0bd 6a2e 45be
00000270: 33fe d13d 8d4c bfbe f54f 4d3d 469a 193c
00000280: 05e8 08be d0b7 ecbd 0d6b 963e e034 bfbd
00000290: ae73 31bd c427 7cbe f3e7 8abd 0738 9d3c
000002a0: 0562 35be 4d4f 443e 935d 38be f513 6bbe
000002b0: e383 6f3e e6df 80be 2794 263c edfa 70be
000002c0: 6429 95bc 3cb6 b13d 70ae 2a3e 8b08 ac3d
000002d0: afc3 463e e4dc 23bd 7d58 923c 09d0 133d
000002e0: 3b8c 903e 54f9 02be a864 643e e290 6d3e
000002f0: 7b67 febd a7c1 95be 78f2 80be f9b7 4bbe
00000300: 698e 4cbe 9f4d 42be 884a 513e 8991 46be
00000310: 57fa 293e 8667 303d 262e 2e3e 562a 37be
00000320: 67e5 433e 7d1d 233d 126e 993e 770d 82b8
00000330: d127 333e 946b 9c3d c207 603d 0a93 173e
00000340: 01dc 673e 2869 813d 14e9 7abe b08a 58be
00000350: 55cf 503d c158 3bbe 1568 40be 4c28 093e
00000360: 7daa 283e 6168 4cbe 0c28 a53e d78b 58be
00000370: a1a0 ca3c 82f5 983d 7fbc c6bc c288 d63d
00000380: 4204 2d3e 9486 163e 460c bfbc fd28 4c3e
00000390: 08e9 93bd d62a a1be 0881 8ebe 4c54 f8bd
000003a0: da70 003d 1def 74bd c38e 833d 9c38 1b3e
000003b0: 2fb8 323e 2f3e 0e3e f5a0 033e 8ad0 523d
000003c0: 59a5 98be b22b 303e ae65 523e d2ef 07bc
000003d0: 27dd 453e ae5e 7b3e c552 04be 914a a0be
000003e0: 84dd 3dbe a6dd 4b3e d8e3 95be 90f0 1ebe
000003f0: c0c1 d1bd 611e fb3c d9eb c7bd 45aa 95bd

encoder.lnLst.0.2.bias f4 [32]
-0.063361876 0.048370346 -0.11476593 0.023170115 -0.22094366 -0.10529888 0.20029408 0.006903943
-0.089397624 -0.06123121 -0.24919225 -0.039186336 -0.14720266 -0.0133589525 0.045501616 0.075317115
0.07684837 -0.124375805 0.0070326515 -0.04501893 0.19049968 -0.15300862 0.04456303 -0.015461644
-0.09558986 0.0010555441 0.11966627 -0.08835778 -0.17510346 -0.052683588 0.14785258 0.0901394
00000000: dfc3 81bd fc1f 463d 660a ebbd 41cf bd3c
00000010: 0e3f 62be f0a6 d7bd e419 4d3e 793a e23b
00000020: 1a16 b7bd 94cd 7abd 412c 7fbe da81 20bd
00000030: 4bbc 16be 82df 5abc e75f 3a3d dc3f 9a3d
00000040: ae62 9d3d beb8 febd 2872 e63b c565 38bd
00000050: 5912 433e 4bae 1cbe b987 363d d652 7dbc
00000060: 9ec4 c3bd 2f5a 8a3a 9713 f53d ecf4 b4bd
00000070: 524e 33be bfca 57bd ab66 173e 019b b83d

encoder.lnLst.1.0.weight f4 [32, 8]
-0.11184123 0.2931305 0.1342086 0.17081104 0.266719 0.09954475 -0.29663196 -0.26928678
-0.24404791 0.12591404 -0.24698928 -0.055625502 -0.15455893 -0.06614967 -0.29797438 0.19579731
-0.36809483 -0.1565336 -0.22728719 -0.3102973 -0.120427914 0.21029773 0.14014046 0.1759811
-0.31725505 -0.15917857 -0.040578544 0.3267372 0.26016757 -0.25072232 -0.28420922 -0.043460872
0.25334322 -0.04957188 -0.037367437 -0.21461457 -0.36937627 0.2402643 -0.06679401 -0.06826849
-0.07368509 -0.12550962 -0.35793564 -0.06576566 -0.29973745 -0.27841318 -0.10123063 0.233175
0.21543486 -0.034359593 -0.034902107 0.30536893 -0.21600755 -0.3226722 -0.18281417 -0.093796425
0.21504937 0.25801665 -0.12503755 -0.2282874 -0.2649463 0.06189564 -0.104625784 0.33078107
-0.35613552 -0.34250632 -0.19140889 0.14024027 0.037880678 0.12047104 -0.31808034 0.17491545
-0.06515306 0.16814014 -0.25828385 -0.18500732 -0.06180075 0.24483629 0.056389857 -0.4211791
-0.111492336 -0.13390258 -0.24730933 -0.04086611 -0.1344777 0.10189229 -0.18258403 -0.36756396
0.032547787 0.19870128 -0.3350522 -0.01724121 0.24117541 0.09190622 0.028096281 -0.31103092
0.26247618 0.08826136 -0.18864956 -0.09057681 0.0752062 0.102343276 -0.04891043 -0.22341183
-0.32226104 0.12768416 -0.31966344 -0.06624595 -0.40366447 0.19266851 -0.15937482 -0.3098331
0.055430036 0.19024853 -0.22136392 0.14638378 0.3906736 0.40870228 -0.26015064 0.094053686
0.31724855 0.24931982 -0.019313974 -0.08157746 -0.3143161 0.17960171 -0.043138992 -0.3503355
-0.25838813 0.17518343 0.12698129 0.026489604 -0.4383383 -0.24225529 0.2561955 -0.12407426
0.23586346 -0.048127964 0.023465795 0.39922476 0.12081282 0.1865471 0.34513423 -0.19979267
0.09342245 0.28606677 0.17178169 0.4140048 0.36992645 0.3273812 0.15080751 0.39972973
0.13437276 -0.087641016 0.11217924 0.06841115 0.0321092 -0.089710854 -0.38921297 0.19317138
0.23378916 -0.23954947 0.14468794 0.006833556 0.043024156 0.21040961 -0.071254164 0.37431264
0.095886305 0.28399634 0.19876258 -0.095818534 0.18786772 0.24460633 -0.36053398 -0.33736548
0.25899938 -0.1338885 -0.06675416 -0.30221292 0.27714556 -0.17226668 -0.36079296 -0.21610431
-0.16194837 0.06740041 0.07119592 0.26140118 0.098771155 0.026722621 0.2877301 0.044746514
0.0024654083 0.3329924 -0.14869973 -0.35502484 -0.18284073 0.16145763 -0.34068823 -0.04955356
0.34015056 -0.12084685 0.23636736 0.25043488 0.009577211 -0.2739058 0.069114156 0.22572868
0.22645287 0.1466607 -0.16192344 -0.35426122 0.34057936 -0.23915999 -0.3830315 0.31492376
-0.01903571 -0.33952588 -0.10823572 -0.033311617 -0.042218506 -0.12282844 0.011839168 0.13854793
0.32933673 0.19264615 0.12511037 0.13655151 0.35815626 0.08406692 -0.30386525 0.06622355
0.0306457 0.21156597 0.18960036 0.32214555 -0.009834338 0.19368304 0.003483877 -0.0380473
0.21763095 -0.14925365 -0.12812264 -0.22034325 -0.26445538 0.094343185 0.14597046 0.06367444
-0.25329733 -0.15272824 0.11474886 0.20008825 0.23826613 0.082123116 0.039310914 0.1508406
00000000: 040d e5bd 3315 963e fb6d 093e 17e9 2e3e
00000010: 658f 883e 1ede cb3d 25e0 97be f5df 89be
00000020: b2e7 79be 9cef 003e c2ea 7cbe 91d7 63bd
00000030: b244 1ebe 7a79 87bd 1990 98be 177f 483e
00000040: ed76 bcbe 584a 20be f9bd 68be 4adf 9ebe
00000050: e9a2 f6bd 4a58 573e fb80 0f3e 6434 343e
00000060: 416f a2be b5ff 22be b035 26bd 194a a73e
00000070: af34 853e ad5e 80be df83 91be 0704 32bd
00000080: 34b6 813e e20b 4bbd 990e 19bd ecc3 5bbe
00000090: e31e bdbe d807 763e 4ccb 88bd 5ad0 8bbd
000000a0: 35e8 96bd 9885 00be 5743 b7be 25b0 86bd
000000b0: 3077 99be 2c8c 8ebe 0152 cfbd 6dc5 6e3e
000000c0: f59a 5c3e a5bc 0cbd 83f5 0ebd 5159 9c3e
000000d0: 1531 5dbe 4a35 a5be a333 3bbe 5718 c0bd
000000e0: e735 5c3e c21a 843e d809 00be 2cc4 69be
000000f0: 0ba7 87be 4886 7d3d 0b46 d6bd 235c a93e
00000100: 6557 b6be fd5c afbe b100 44be 259b 0f3e
00000110: c528 1b3d 85b9 f63d 6ddb a2be 091d 333e
00000120: f86e 85bd ee2c 2c3e c83d 84be 8f72 3dbe
00000130: c922 7dbd 5db6 7a3e 0df9 663d c9a4 d7be
00000140: 1856 e4bd c21d 09be a83e 7dbe 3963 27bd
00000150: 86b4 09be e8ac d03d 4ff7 3abe 5831 bcbe
00000160: d450 053d 5978 4b3e f68b abbe 703d 8dbc
00000170: b0f6 763e 5439 bc3d 2c2a e63c 723f 9fbe
00000180: 4763 863e 5fc2 b43d 5a2d 41be 5680 b9bd
00000190: b505 9a3d 5a99 d13d 4e56 48bd 12c6 64be
000001a0: 66ff a4be a3bf 023e edaa a3be f5ab 87bd
000001b0: 1cad cebe e54a 453e 2733 23be 72a2 9ebe
000001c0: 9b0a 633d 83d0 423e 39ad 62be a1e5 153e
000001d0: 5f06 c83e 6d41 d13e 7732 85be 389f c03d
000001e0: 676e a23e b24d 7f3e 5738 9ebc 1512 a7bd
000001f0: 0aee a0be 83e9 373e 83b2 30bd 2d5f b3be
00000200: 734b 84be 4963 333e 6207 023e ba00 d93c
00000210: e16d e0be c511 78be 0e2c 833e a51a febd
00000220: 3186 713e d421 45bd 573b c03c 3067 cc3e
00000230: b66c f73d 3406 3f3e 6fb5 b03e 7396 4cbe
00000240: 4554 bf3d 5877 923e 8ae7 2f3e 70f8 d33e
00000250: 0067 bd3e 829e a73e 496d 1a3e 60a9 cc3e
00000260: 0399 093e 227d b3bd 3bbe e53d 251b 8c3d
00000270: f084 033d 53ba b7bd ec46 c7be b8ce 453e
00000280: 6d66 6f3e 754c 75be 1329 143e 06ec df3b
00000290: 193a 303d 9e75 573e b4ed 91bd e8a5 bf3e
000002a0: 0a60 c43d f867 913e 6b88 4b3e 823c c4bd
000002b0: 6560 403e 157a 7a3e e997 b8be 2bbb acbe
000002c0: 919b 843e 111a 09be 68b6 88bd a7bb 9abe
000002d0: 06e6 8d3e ad66 30be dbb9 b8be 734a 5dbe
000002e0: cbd5 25be 3a09 8a3d 2bcf 913d 60d6 853e
000002f0: 8848 ca3d 66e9 da3c 5c51 933e 1f48 373d
00000300: b092 213b fb7d aa3e be44 18be d1c5 b5be
00000310: 9a3a 3bbe 2655 253e b06e aebe acf8 4abd
00000320: 3728 ae3e 8e7e f7bd 490a 723e 0039 803e
00000330: bce9 1c3c 623d 8cbe b98b 8d3d 6b25 673e
00000340: 43e3 673e 392e 163e 42cf 25be ba61 b5be
00000350: 6b60 ae3e 5be6 74be b41c c4be b03d a13e
00000360: c7f0 9bbc 56d6 adbe b0aa ddbd c371 08bd
00000370: 50ed 2cbd 7a8d fbbd 12f9 413c 82df 0d3e
00000380: d39e a83e 0845 453e ef1c 003e 29d4 0b3e
00000390: 4260 b73e 472b ac3d 3a94 9bbe 36a0 873d
000003a0: b10c fb3c c0a4 583e 9926 423e 43f0 a43e
000003b0: 3420 21bc d954 463e c251 643b 7cd7 1bbd
000003c0: a6da 5e3e f3d5 18be 9532 03be a9a1 61be
000003d0: b266 87be 0037 c13d 4879 153e bf67 823d
000003e0: 30b0 81be cb64 1cbe 7301 eb3d efe3 4c3e
000003f0: 09fc 733e 2a30 a83d 7b04 213d f575 1a3e

encoder.lnLst.1.0.bias f4 [32]
0.3184264 -0.021346409 -0.057072707 0.28548554 -0.063651316 0.28450605 0.27948847 0.051983748
0.24206999 -0.1399219 -0.016680373 -0.2060876 0.21479729 0.0098810755 0.3804802 -0.29624808
-0.38393283 -0.071591236 -0.30520838 -0.30321166 0.14760032 -0.16750358 -0.111045085 0.12281935
-0.14328596 0.32489732 -0.06952594 -0.3059983 -0.2968989 0.21208058 0.30610126 0.16011925
00000000: c908 a33e aade aebc 12c5 69bd 292b 923e
00000010: 9f5b 82bd c7aa 913e 1d19 8f3e e9ec 543d
00000020: 32e1 773e b047 0fbe 47a5 88bc a108 53be
00000030: d2f3 5b3e 3ce4 213c 4dce c23e d4ad 97be
00000040: d892 c4be 6d9e 92bd 4644 9cbe 8f3e 9bbe
00000050: 8a24 173e 0f86 2bbe 9b6b e3bd b688 fb3d
00000060: 8eb9 12be f158 a63e 9e63 8ebd cfab 9cbe
00000070: 2203 98be a72b 593e 4eb9 9c3e 4df6 233e

encoder.lnLst.1.2.weight f4 [32, 32]
0.33371496 -0.24953489 0.037532818 -0.056993037 0.011471995 0.31124762 -0.021737957 0.050429814
-0.049576208 -0.0626937 -0.038415555 -0.120229304 0.19068877 0.23424804 -0.02219343 0.08519427
-0.17681795 -0.23475593 -0.04386963 0.18479049 -0.08609459 -0.0152989095 -0.13337268 0.29066154
-0.24078149 0.011262846 -0.26353103 -0.2219924 -0.06783442 -0.25720966 -0.17217651 -0.19959098
0.050167583 -0.255747 0.114427626 0.12179071 -0.07871057 -0.2597116 -0.06723968 -0.07219059
0.001507561 0.14619346 -0.07609319 0.27604496 0.004601318 -0.20674044 -0.19902821 0.18617503
0.14275837 0.28721133 -0.10122476 0.27985376 -0.24161656 -0.06441316 -0.010462628 -0.1711817
0.14594093 0.013483625 0.19285229 -0.16486755 -0.0052559795 0.0072638695 0.12144433 -0.047492705
-0.12858939 -0.062219664 0.19395572 -0.14617506 0.03146076 0.06181764 -0.07379547 0.070678495
-0.20126286 -0.13709939 -0.23046035 0.1541888 -0.12215877 0.2911577 -0.30698714 -0.048503093
-0.22548081 -0.06815322 -0.20179479 0.065382466 0.04254464 0.10072272 0.18080404 -0.32000276
0.033450574 -0.33219448 -0.057548873 0.28025386 -0.020508109 0.06569881 0.13218322 -0.2872866
-0.33676332 0.15420717 -0.33552104 0.018744282 0.16365477 0.1815964 -0.30632117 0.08274327
-0.039265595 -0.324013 0.07418481 0.042152368 -0.3437804 0.27967852 -0.27041104 0.15090477
-0.28732395 0.07020815 0.15800658 0.09021243 -0.10206249 -0.099985994 -0.26800558 0.11968493
-0.26114208 0.2534942 -0.27551883 -0.28584155 0.09123723 -0.3335516 0.09416541 -0.121166684
-0.35976556 -0.28088692 -0.025215568 -0.06650127 -0.19022754 -0.09858579 0.011313677 -0.32215124
0.12280131 0.072785854 0.02160183 -0.32722363 0.23038022 -0.06392747 0.07227891 0.063309126
0.11195006 0.15206137 -0.055795945 0.067411765 -0.21418329 -0.062023062 -0.2499427 -0.21447948
-0.12242886 -0.09239135 0.06879445 0.25385872 -0.03702925 0.13500346 -0.34172696 -0.36533242
-0.13899708 0.20617567 -0.01221282 -0.3050711 0.1846073 -0.32692513 0.048323955 0.0017549681
-0.08518206 0.12056084 -0.18898717 -0.33498645 -0.24057306 -0.13774644 -0.064377286 -0.29671007
-0.116006725 -0.21373072 -0.12955956 -0.11087417 -0.049381014 -0.025659068 0.19012956 -0.2746597
0.199009 -0.03403481 -0.048710376 -0.07137546 0.06787053 -0.055705883 0.0641844 -0.17068906
-0.04550379 -0.011359897 0.24440092 -0.17936452 -0.032701403 -0.16827534 -0.07111786 0.31189358
0.29340348 0.091611825 0.091712624 -0.1801019 -0.10034911 0.28534928 -0.018795922 -0.039642695
0.15489325 0.36642578 0.095900886 -0.006843368 0.21802454 0.11261156 -0.08213048 0.06616934
0.16535786 0.2574092 -0.07018982 0.25363964 -0.00602175 0.34567618 0.013780216 0.11277427
0.0008953828 0.20399468 0.002745583 -0.057513114 -0.031608377 0.093274385 -0.18322894 0.020580463
-0.026168795 0.17529751 -0.24593963 0.06724605 -0.22888638 0.20436403 0.087408096 0.12530091
-0.18705872 -0.016930178 -0.35181484 0.18550226 0.0019856896 0.1643633 -0.19194506 -0.31077567
-0.13631819 -0.09546991 0.03891079 0.26050618 -0.32522258 0.25436035 -0.27402157 -0.19671948
00000000: b0dc aa3e 1386 7fbe 03bc 193d 8871 69bd
00000010: 09f5 3b3c d95b 9f3e cd13 b2bc 7e8f 4e3d
00000020: 6c10 4bbd 8e65 80bd a159 1dbd c83a f6bd
00000030: eb43 433e b8de 6f3e ffce b5bc 557a ae3d
00000040: c40f 35be dc63 70be a4b0 33bd b839 3d3e
00000050: 5c52 b0bd 47a8 7abc d992 08be 97d1 943e
00000060: 6c8f 76be cd87 383c 8aed 86be fa51 63be
00000070: c6ec 8abd fcb0 83be 0a4f 30be 9461 4cbe
00000080: 867c 4d3d 45f1 82be 0859 ea3d 686d f93d
00000090: 0233 a1bd ebf8 84be f5b4 89bd a9d8 93bd
000000a0: 5a99 c53a bdb3 153e bfd6 9bbd c455 8d3e
000000b0: a7c6 963b c4b3 53be 0dce 4bbe aba4 3e3e
000000c0: 402f 123e 5d0d 933e ed4e cfbd fe48 8f3e
000000d0: 556a 77be 0ceb 83bd 716b 2bbc 414a 2fbe
000000e0: 8a71 153e 6cea 5c3c 127b 453e 0ad3 28be
000000f0: 5a3a acbb c105 ee3b ceb7 f83d b687 42bd
00000100: f0ac 03be 0cda 7ebd 549c 463e eaae 15be
00000110: ffdc 003d 7e34 7d3d 1422 97bd e3bf 903d
00000120: da17 4ebe c863 0cbe ccfd 6bbe abe3 1d3e
00000130: 612e fabd 9f12 953e 6b2d 9dbe 2eab 46bd
00000140: 71e4 66be ea93 8bbd 4ba3 4ebe 3ee7 853d
00000150: 4a43 2e3d b747 ce3d b224 393e 67d7 a3be
00000160: 7803 093d 6515 aabe 5eb8 6bbd 6f7d 8f3e
00000170: 9f00 a8bc 198d 863d 0a5b 073e 3b17 93be
00000180: 3e6c acbe 7ce8 1d3e 6ac9 abbe 9c8d 993c
00000190: 1e95 273e 68f4 393e 21d6 9cbe 4e75 a93d
000001a0: f6d4 20bd 08e5 a5be 35ee 973d f6a7 2c3d
000001b0: fc03 b0be 0632 8f3e 5173 8abe c886 1a3e
000001c0: 201c 93be 4ac9 8f3d 7acc 213e 4bc1 b83d
000001d0: 2406 d1bd 75c5 ccbd 0738 89be 5f1d f53d
000001e0: 6ab4 85be fec9 813e ce10 8dbe d359 92be
000001f0: 96da ba3d 46c7 aabe cbd9 c03d 3d26 f8bd
00000200: 3133 b8be 69d0 8fbe e190 cebc d131 88bd
00000210: 02cb 42be 59e7 c9bd 005d 393c 02f1 a4be
00000220: 417f fb3d c010 953d 52f6 b03c db89 a7be
00000230: cbe8 6b3e 68ec 82bd f706 943d 37a8 813d
00000240: 1346 e53d fab5 1b3e 4a8a 64bd 2e0f 8a3d
00000250: dd52 5bbe e50b 7ebd fbf0 7fbe 82a0 5bbe
00000260: fbbb fabd ad37 bdbd 1be4 8c3d c5f9 813e
00000270: fcab 17bd 593e 0a3e d6f6 aebe da0c bbbe
00000280: 4055 0ebe b71f 533e 4818 48bc 4732 9cbe
00000290: b209 3d3e bb62 a7be 57ef 453d f506 e63a
000002a0: ef73 aebd 9ae8 f63d da85 41be 5883 abbe
000002b0: c958 76be 670d 0dbe 3dd8 83bd 62ea 97be
000002c0: ef94 edbd 3adc 5abe 43ab 04be ff11 e3bd
000002d0: bf43 4abd f732 d2bc 53b1 423e 32a0 8cbe
000002e0: 04c9 4b3e 1668 0bbd 8884 47bd 4c2d 92bd
000002f0: b4ff 8a3d da2b 64bd 1c73 833d 1dc9 2ebe
00000300: 2f62 3abd dd1e 3abc 3c44 7a3e 55ab 37be
00000310: e8f1 05bd 5f50 2cbe 3ea6 91bd 84b0 9f3e
00000320: fb38 963e fb9e bb3d d4d3 bb3d a26c 38be
00000330: d683 cdbd 4d19 923e e8f9 99bc 6160 22bd
00000340: 569c 1e3e 299c bb3e af67 c43d 553e e0bb
00000350: d341 5f3e e4a0 e63d 0634 a8bd ca83 873d
00000360: 9253 293e 23cb 833e aebf 8fbd 0edd 813e
00000370: 1a52 c5bb 78fc b03e 6ac6 613c 32f6 e63d
00000380: 1fb8 6a3a fbe3 503e 3def 333b df92 6bbd
00000390: c977 01bd a406 bf3d 5ea0 3bbe 5c98 a83c
000003a0: f15f d6bc 3181 333e 99d7 7bbe 4cb8 893d
000003b0: 3161 6abe ce44 513e 0403 b33d e24e 003e
000003c0: 528c 3fbe 28b1 8abc 1321 b4be 4ef4 3d3e
000003d0: 5822 023b da4e 283e 3f8d 44be fd1d 9fbe
000003e0: ff96 0bbe ba85 c3bd ec60 1f3d 1161 853e
000003f0: 9383 a6be 853b 823e 8e4c 8cbe d570 49be

encoder.lnLst.1.2.bias f4 [32]
-0.040113535 0.1076878 -0.16906902 -0.20917591 0.053950474 0.01879507 0.22016911 -0.1940832
0.0041047814 0.1448654 -0.0567506 -0.12275841 -0.12635644 0.24207236 0.06888284 -0.03368818
0.11923732 -0.15365513 -0.22085322 -0.04829579 -0.11708306 -0.053355675 0.10624305 0.089634985
-0.13337806 -0.08537263 -0.10460018 -0.08802981 -0.18749623 0.17849185 0.20749383 0.049955994
00000000: 174e 24bd 6c8b dc3d 6e20 2dbe 3632 56be
00000010: 2cfb 5c3d 1ef8 993c 0374 613e bfbd 46be
00000020: 6781 863b 9857 143e 5173 68bd c368 fbbd
00000030: 9563 01be d1e1 773e 7212 8d3d 9efc 09bd
00000040: b232 f43d c557 1dbe 5927 62be ced1 45bd
00000050: 3ec9 efbd 7b8b 5abd f595 d93d 8c92 b73d
00000060: 4294 08be d8d7 aebd 9f38 d6bd f948 b4bd
00000070: 03ff 3fbe 91c6 363e 4379 543e a89e 4c3d

encoder.lnLst.2.0.weight f4 [32, 7]
-0.2959009 -0.27942738 0.12005603 0.118857965 -0.14046887 -0.009037007 0.14646088 -0.23983733
-0.022356518 -0.09010789 0.027878942 0.10783004 0.23664182 -0.27672645 -0.07858459 -0.057649817
-0.16216867 0.16592771 -0.14256477 -0.31504527 -0.4215665 0.2902602 -0.18602553 0.02977378
-0.08758312 -0.38236147 0.0016787428 -0.17183106 -0.05830277 -0.15124199 0.029464656 0.0040072883
-0.23762225 0.14294247 -0.33798417 -0.25691667 0.36362052 0.054234713 -0.15955365 -0.08311233
0.25460672 -0.27511808 0.08677492 0.30181378 0.26859045 0.14702994 -0.008525169 -0.29653642
0.16642833 -0.16632736 0.21401092 0.16868164 -0.3130621 -0.11588044 -0.074482836 0.4479574
0.2345119 0.19616178 -0.3203929 0.33596432 -0.31872472 0.35900646 -0.2766621 -0.11456912
0.120536424 -0.3786868 -0.2633721 -0.27763298 -0.27676812 -0.25947964 -0.08540304 -0.12135464
-0.38294676 -0.3719429 -0.030889746 -0.35608283 0.3569593 -0.0677555 -0.11340607 0.0940421
-0.079606146 -0.11398489 0.10565836 -0.15518633 0.21522556 0.25212106 -0.19876006 0.007919542
0.29889357 0.26434118 0.30708286 0.23995095 -0.25162655 0.04385529 -0.178471 0.24873267
0.10341514 0.2022895 0.2550627 -0.2517656 -0.32189795 0.009311494 -0.30964717 -0.15408936
0.044735238 -0.067497164 0.33826852 0.36671805 -0.070066266 0.19463234 0.22966914 0.10888081
0.09703454 -0.3113215 0.12420097 -0.30314484 -0.04765546 0.21886304 0.22424026 0.056791507
0.09212541 -0.014112335 0.05058118 0.29402846 0.15932222 -0.12039761 -0.07998495 -0.32236427
-0.21048827 -0.21436003 0.15415262 -0.07176758 0.20068361 -0.06851637 0.44976354 0.09259248
0.018192342 -0.270891 0.11279414 0.2354967 0.07533136 -0.19143528 -0.07222165 -0.08163801
0.17398334 -0.34027034 0.28387967 0.17571297 0.06366152 -0.34501493 -0.26444665 -0.26369935
0.007151281 0.30037892 0.062177937 0.43715948 0.28331494 -0.11989671 -0.2736747 -0.04677065
-0.24959333 0.02594498 0.13045041 -0.115445405 0.095689945 -0.42204875 0.2058463 -0.29748222
-0.19403644 -0.20585479 -0.24545756 -0.029697517 0.14907987 -0.2455174 0.034024525 0.087383
-0.29328665 0.06374365 0.2772383 -0.16717172 -0.08538259 0.08726265 0.2247081 -0.21645792
-0.055842925 -0.403866 0.1590426 0.006391295 0.19645031 0.20354551 0.2511631 -0.009126699
0.36381188 0.07070245 0.004505627 0.04671029 -0.29149508 -0.24682808 -0.31601867 -0.2524044
-0.26724413 -0.30779645 0.06460843 -0.0075564017 0.30863273 0.18558976 0.03906986 -0.12235703
0.25609073 -0.3294179 -0.2994512 -0.4195271 0.026026953 -0.24841304 0.03461853 -0.22996995
0.1695927 0.16006915 -0.26300326 0.38766152 -0.20036341 -0.062662326 -0.09551192 0.098948665
00000000: 5380 97be 1b11 8fbe f0df f53d ce6b f33d
00000010: 12d7 0fbe f40f 14bc d7f9 153e eb97 75be
00000020: 0425 b7bc 7c8a b8bd 6162 e43c ffd5 dc3d
00000030: 3c52 723e 17af 8dbe f5f0 a0bd 3722 6cbd
00000040: 8b0f 26be f4e8 293e 80fc 11be 9d4d a1be
00000050: 90d7 d7be fc9c 943e 7a7d 3ebe 24e8 f33c
00000060: c75e b3bd e2c4 c3be 4309 dc3a 7bf4 2fbe
00000070: e3ce 6ebd 2edf 1abe dd5f f13c 924f 833b
00000080: 3f53 73be 835f 123e 430c adbe 958a 83be
00000090: 782c ba3e 3825 5e3d 0862 23be cc36 aabd
000000a0: d05b 823e 47dc 8cbe 0db7 b13d 5687 9a3e
000000b0: b084 893e 048f 163e 27ad 0bbc 9fd3 97be
000000c0: 306c 2a3e b851 2abe ae25 5b3e e1ba 2c3e
000000d0: ad49 a0be b952 edbd 758a 98bd ac5a e53e
000000e0: e323 703e a2de 483e 8a0a a4be 8403 ac3e
000000f0: e32f a3be b2cf b73e a8a6 8dbe 37a3 eabd
00000100: cddb f63d 3ce3 c1be b5d8 86be e925 8ebe
00000110: 8db4 8dbe 84da 84be cae7 aebd c888 f8bd
00000120: 9911 c4be 4d6f bebe 7e0c fdbc 7d50 b6be
00000130: 5fc3 b63e 65c3 8abd 7141 e8bd 2599 c03d
00000140: 8c08 a3bd e970 e9bd 6963 d83d 2ae9 1ebe
00000150: 1764 5c3e 0316 813e c287 4bbe f7c0 013c
00000160: 9408 993e ba57 873e f739 9d3e b4b5 753e
00000170: 32d5 80be 9ba1 333d 1ac1 36be c7b3 7e3e
00000180: 51cb d33d fb24 4f3e 9497 823e 6ce7 80be
00000190: cfcf a4be 3d8f 183c 138a 9ebe 9ac9 1dbe
000001a0: 4c3c 373d f43b 8abd 8831 ad3e 78c2 bb3e
000001b0: e77e 8fbd b34d 473e 632e 6b3e e7fc de3d
000001c0: 0bba c63d 8865 9fbe 145d fe3d cd35 9bbe
000001d0: 5f32 43bd a21d 603e 3d9f 653e 369e 683d
000001e0: 3fac bc3d 6c37 67bc 362e 4f3d e68a 963e
000001f0: 5d25 233e 0693 f6bd 26cf a3bd ee0c a5be
00000200: 3d8a 57be 3281 5bbe 2fda 1d3e e2fa 92bd
00000210: 0180 4d3e 5052 8cbd 6847 e63e 20a1 bd3d
00000220: 1b08 953c 3ab2 8abe 9d00 e73d 0c26 713e
00000230: 5447 9a3d 9c07 44be f2e8 93bd d431 a7bd
00000240: b028 323e ea37 aebe ad58 913e 1aee 333e
00000250: f960 823d cca5 b0be 8d65 87be 9a03 87be
00000260: 4b55 ea3b 44cb 993e 4bae 7e3d 5ed3 df3e
00000270: a80e 913e 688c f5bd 171f 8cbe 9592 3fbd
00000280: 6595 7fbe 918a d43c cb94 053e a46e ecbd
00000290: 17f9 c33d c616 d8be 5fc9 523e 974f 98be
000002a0: 7db1 46be 99cb 52be 3a59 7bbe 3548 f3bc
000002b0: 65a8 183e ea68 7bbe 4d5d 0b3d dcf5 b23d
000002c0: ab29 96be 088c 823d 2ef2 8d3e 102f 2bbe
000002d0: 11dd aebd c3b6 b23d e119 663e 25a7 5dbe
000002e0: 8dbb 64bd 86c7 cebe 10dc 223e 126e d13b
000002f0: 452a 493e 3c6e 503e 7398 803e 2688 15bc
00000300: 8d45 ba3e 72cc 903d f0a3 933b 4a53 3f3d
00000310: d83e 95be 80c0 7cbe 33cd a1be 263b 81be
00000320: 39d4 88be 7f97 9dbe 6d51 843d b19b f7bb
00000330: 1c05 9e3e 3e0b 3e3e b807 203d 5396 fabd
00000340: 531e 833e 77a9 a8be ab51 99be 42cc d6be
00000350: 7a36 d53c fd5f 7ebe 29cc 0d3d 3e7d 6bbe
00000360: b5a9 2d3e 2be9 233e 5da8 86be 927b c63e
00000370: 112c 4dbe 1b55 80bd c19b c3bd 99a5 ca3d

encoder.lnLst.2.0.bias f4 [32]
-0.10815867 0.11179558 0.060250852 -0.22747211 0.037534606 -0.25923875 0.36414373 0.40851483
0.3199313 0.184864 -0.19881815 0.121120006 0.052400693 0.04841141 0.14548422 -0.2712582
-0.039746746 -0.39584857 0.016627116 0.24283987 0.361941 0.074616246 0.24824227 -0.034961663
-0.050557375 -0.3384556 -0.3086374 0.10187261 -0.009073959 -0.16946742 0.26516095 -0.2757568
00000000: 4b82 ddbd 15f5 e43d 99c9 763d 73ee 68be
00000010: e3bd 193d f1ba 84be 0c71 ba3e db28 d13e
00000020: 09ce a33e fd4c 3d3e fc96 4bbe c40d f83d
00000030: 1ca2 563d 0b4b 463d d1f9 143e 5be2 8abe
00000040: 7ccd 22bd aaac cabe 9735 883c 04ab 783e
00000050: 5550 b93e 67d0 983d 3933 7e3e f633 0fbd
00000060: 4015 4fbd 0d4a adbe b905 9ebe 96a2 d03d
00000070: f1aa 14bc de88 2dbe 2dc3 873e ff2f 8dbe
