app/vegetation/attention/andy/model_ep2.pth (torch, 62334 bytes, 31 tensors)

encoder.lnXc.0.weight f4 [32, 15]
0.24153022 -0.019687314 -0.15451667 -0.31264964 0.09603412 -0.29389226 -0.08732878 -0.08105783
0.15462758 -0.024622634 -0.21776745 -0.2004423 0.21274047 -0.354773 -0.052577436 -0.09606999
-0.3059488 -0.2894716 0.0673726 0.32248363 -0.1540344 -0.09801984 0.22140671 0.06282954
0.06897556 0.32975212 -0.23632227 0.18423554 -0.27593172 0.2222891 0.15042828 0.22346827
-0.16585003 -0.2699195 -0.009108014 -0.2715587 0.15565501 -0.24057746 0.005381224 -0.32922867
-0.10743086 0.083468586 0.08305429 -0.35401562 -0.069662705 -0.2669359 -0.24482737 -0.029424012
0.33293754 0.2691118 -0.19536479 -0.22494741 0.07765734 -0.25290367 -0.22359794 0.05695266
0.04397849 0.26631284 0.32481888 0.29303607 0.18721059 0.3277161 0.30740798 -0.22089806
-0.34015837 0.0347625 0.12913379 -0.33680984 0.06830796 -0.14278689 -0.11431212 -0.023459977
0.1388253 0.01013774 -0.29942244 0.06521864 0.034055088 -0.27456066 -0.24161956 0.2606061
0.19553222 -0.12998532 0.27386186 0.110639 -0.15523772 -0.3386637 -0.24013726 0.31994334
0.2502862 -0.16513541 -0.31549636 0.16283521 0.34402642 -0.3144254 -0.20506597 0.15910198
-0.14016216 -0.16649391 -0.015348592 -0.0028171344 0.3344148 0.08412592 -0.14812613 0.236935
0.32441172 -0.29704306 -0.13164543 0.30849722 0.20860939 -0.30316895 0.2241296 -0.19771013
-0.010172155 0.0065442226 -0.12419801 0.22724189 -0.26320252 -0.06846619 0.05623812 -0.19318102
0.12861228 0.22448614 -0.16528682 0.22378938 0.27165768 0.2472729 0.04023956 0.22380874
-0.34638003 0.09134959 -0.12935895 0.0068335985 0.1703918 0.0075207064 -0.1405213 0.19616641
-0.1276092 0.20638755 0.27315646 0.006370893 -0.06570932 -0.20179836 0.21684404 -0.22193286
-0.3106098 0.0122717265 -0.20624264 0.12636872 -0.2106892 -0.34618783 0.33280095 -0.18720624
0.052984297 0.19959393 0.030205887 -0.33517933 0.17827582 0.061408382 -0.31435633 -0.27407578
-0.0023820056 -0.2804575 -0.00777571 -0.08622813 -0.22190215 0.027345162 -0.026758496 0.29803854
-0.0658394 0.19713505 -0.17538057 0.32836586 0.13137196 -0.11380054 -0.081002675 0.31251037
0.20022626 0.060290616 0.08697006 0.25113332 -0.12119837 -0.10905481 0.3337212 -0.14986865
0.18599577 -0.25907466 0.32614288 0.12131647 0.21128099 -0.14940476 0.113075264 0.21480589
0.05788676 0.17942864 -0.09818582 -0.10616943 -0.24717544 -0.15412337 -0.28148386 -0.031644832
0.1907824 0.012616857 0.17959352 0.0142614525 -0.13915777 0.024931645 -0.011696638 -0.2576317
0.08137144 -0.060443655 -0.15865107 -0.33533806 -0.2019813 0.14992495 -0.29822364 0.16639586
0.23027544 0.013014802 -0.2829505 -0.14941558 0.024786232 0.15752351 -0.26049775 0.023056027
-0.26343015 0.17471181 -0.27493292 0.09421997 0.04429552 0.060754098 -0.07320463 0.01972816
0.16507676 0.14267275 -0.27374533 -0.33245772 0.008036846 -0.31733042 0.0567319 0.086165525
-0.18486388 0.2205111 -0.25207058 0.17227304 0.2043985 -0.074094065 0.03931632 0.0310815
-0.13209303 0.19314839 0.073353976 -0.22308142 0.21566238 -0.34785616 -0.24494152 0.17867307
00000000: b353 773e 4a47 a1bc 9e39 1ebe 9d13 a0be
00000010: 89ad c43d 0c79 96be 6ed9 b2bd a601 a6bd
00000020: b156 1e3e 68b5 c9bc 6efe 5ebe bf40 4dbe
00000030: a3d8 593e cfa4 b5be 705b 57bd 58c0 c4bd
00000040: 52a5 9cbe 9f35 94be a5fa 893d 931c a53e
00000050: 32bb 1dbe a0be c8bd 71b8 623e c6ac 803d
00000060: 0f43 8d3d 45d5 a83e 77fe 71be 3ea8 3c3e
00000070: ec46 8dbe c19f 633e df09 1a3e ded4 643e
00000080: 97d4 29be e432 8abe c839 15bc be09 8bbe
00000090: 0764 1f3e f059 76be fb54 b03b a990 a8be
000000a0: b604 dcbd 94f1 aa3d 5e18 aa3d 8941 b5be
000000b0: 52ab 8ebd d3ab 88be 07b4 7abe a00a f1bc
000000c0: ca76 aa3e 06c9 893e b50d 48be 9d58 66be
000000d0: d00a 9f3d 977c 81be dcf6 64be 3147 693d
000000e0: ca22 343d 285a 883e a94e a63e d308 963e
000000f0: 22b4 3f3e 68ca a73e 9464 9d3e 1a33 62be
00000100: 3d29 aebe 2063 0e3d a63b 043e 5772 acbe
00000110: 0be5 8b3d ba36 12be 791c eabd 232f c0bc
00000120: 3828 0e3e c318 263c e64d 99be 5a91 853d
00000130: 597d 0b3d 3793 8cbe 1e6b 77be 2a6e 853e
00000140: 9939 483e df1a 05be 9f37 8c3e b396 e23d
00000150: a3f6 1ebe 5465 adbe 8be6 75be 9dcf a33e
00000160: 8325 803e 4219 29be bd88 a1be 46be 263e
00000170: 3b24 b03e 5efc a0be d0fc 51be a1eb 223e
00000180: ab86 0fbe 617d 2abe a978 7bbc ac9f 38bb
00000190: 6b38 ab3e 364a ac3d 60ae 17be 179f 723e
000001a0: 4b19 a63e 0716 98be 0fce 06be 59f3 9d3e
000001b0: b39d 553e f638 9bbe 3b82 653e 8674 4abe
000001c0: 1ca9 26bc eb70 d63b 875b febd 19b2 683e
000001d0: 7bc2 86be 0038 8cbd f159 663d 3fd1 45be
000001e0: f0b2 033e b2df 653e f340 29be 0b29 653e
000001f0: b716 8b3e 1b35 7d3e 3dd2 243d 1e2e 653e
00000200: b958 b1be 7e15 bb3d ac76 04be 61ec df3b
00000210: 307b 2e3e 4270 f63b d1e4 0fbe d9df 483e
00000220: fcab 02be 4257 533e 2adb 8b3e edc2 d03b
00000230: 9c92 86bd 3ba4 4ebe 5d0c 5e3e 5e42 63be
00000240: 3f08 9fbe 5a0f 493c 4531 53be cd66 013e
00000250: e9be 57be 883f b1be e364 aa3e feb2 3fbe
00000260: 1006 593d 5a62 4c3e 5672 f73c a09c abbe
00000270: f08d 363e 5b87 7b3d 50f3 a0be a953 8cbe
00000280: 6c1b 1cbb 2098 8fbe 62cb febb 6098 b0bd
00000290: 513a 63be f602 e03c a234 dbbc 8298 983e
000002a0: cfd6 86bd c5dd 493e f796 33be 921f a83e
000002b0: 5f86 063e 4210 e9bd bbe4 a5bd 5c01 a03e
000002c0: 1d08 4d3e 4bf3 763d 5c1d b23d 8c94 803e
000002d0: da36 f8bd 2158 dfbd 81dd aa3e 2b77 19be
000002e0: ad75 3e3e 6fa5 84be 33fc a63e c574 f83d
000002f0: 0b5a 583e 90fd 18be 0194 e73d 13f6 5b3e
00000300: ab1a 6d3d 24bc 373e a615 c9bd 5c6f d9bd
00000310: 8f1b 7dbe 84d2 1dbe a71e 90be 039e 01bd
00000320: 765c 433e efb6 4e3c 5de7 373e dea8 693c
00000330: 607f 0ebe 733d cc3c 41a3 3fbc 4de8 83be
00000340: 12a6 a63d c493 77bd 6d75 22be 6eb1 abbe
00000350: 30d4 4ebe ed85 193e c5b0 98be ad63 2a3e
00000360: 53cd 6b3e 093c 553c e3de 90be 6600 19be
00000370: 7f0c cb3c d84d 213e f65f 85be fedf bc3c
00000380: 51e0 86be a7e7 323e 02c4 8cbe 66f6 c03d
00000390: 386f 353d 4ad9 783d 4fec 95bd f39c a13c
000003a0: e209 293e ce18 123e 5928 8cbe e637 aabe
000003b0: faac 033c 2279 a2be b55f 683d 8d77 b03d
000003c0: f54c 3dbe a9cd 613e 650f 81be 5868 303e
000003d0: d74d 513e a1be 97bd 260a 213d a19e fe3c
000003e0: 6543 07be b1c8 453e 9c3a 963d 756f 64be
000003f0: 99d6 5c3e 341a b2be f3d1 7abe 13f6 363e

encoder.lnXc.0.bias f4 [32]
-0.19903943 0.09865653 0.16190034 0.17506896 -0.22283679 0.049451236 0.16436 0.2105856
-0.029084641 0.048957873 0.026477503 0.11539218 -0.13062389 -0.16696288 -0.25245416 0.09729241
-0.12666169 0.069398634 -0.17977712 0.069512755 -0.15093468 -0.25449586 -0.16467375 0.2509077
-0.182137 0.057261646 0.18875524 0.066763826 0.2660952 -0.24114136 0.14558947 -0.058816038
00000000: fed0 4bbe 6f0c ca3d 34c9 253e 4745 333e
00000010: 542f 64be 618d 4a3d fd4d 283e c0a3 573e
00000020: ea42 eebc 0d88 483d 59e7 d83c bc52 ec3d
00000030: 45c2 05be 51f8 2abe ac41 81be 3e41 c73d
00000040: 9ab3 01be df20 8e3d 7e17 38be b45c 8e3d
00000050: 9f8e 1abe 484d 82be 3ca0 28be f976 803e
00000060: 1f82 3abe 308b 6a3d 0e49 413e 79bb 883d
00000070: a13d 883e c3ed 76be 6815 153e 16e9 70bd

encoder.lnXc.2.weight f4 [32, 32]
0.29982796 -0.103113145 -0.18069036 -0.21279871 0.15176208 0.15995789 0.22561932 0.09606022
-0.31477723 -0.10451993 0.07322492 0.017532479 -0.28493154 -0.057852484 0.15846653 -0.16988215
0.12451909 0.15932453 0.22916737 0.105869174 -0.18101457 -0.24794684 0.049226843 0.063525565
0.23267087 -0.1543778 -0.1949527 -0.25530645 -0.09399368 0.19150159 0.170782 0.04591172
0.09399707 -0.017850004 0.14283247 -0.19487832 -0.075861275 -0.009237864 0.052194595 -0.17613626
-0.23930904 0.11124667 -0.048098642 0.0069256504 0.19264022 -0.27982485 -0.056323085 -0.09764541
0.26766646 -0.24351344 0.10175122 0.2580395 -0.058868293 -0.093591005 -0.0022621665 -0.08111033
-0.019542448 -0.17733997 0.30187684 0.056708805 -0.22614315 -0.09210895 0.06892274 0.11837286
0.2592186 -0.23697549 0.14258385 0.25724754 0.0059552174 -0.14419906 -0.038903218 -0.0015901085
0.291008 0.2959433 0.29989538 -0.24060448 0.23189132 -0.19526188 -0.21671881 -0.118573725
-0.09509318 0.050464075 0.19654115 -0.2365596 -0.22058462 0.1853083 -0.29870462 -0.20692012
0.15849695 -0.2862151 0.19873542 0.13286977 -0.05324267 0.2946564 0.06606611 -0.30691347
-0.24250138 -0.0661172 0.2295491 -0.28251332 -0.13781339 0.030929415 0.2552008 -0.027865134
0.26634228 -0.0057755597 0.24025083 0.031447664 0.25728074 0.09887788 0.19121759 0.10192042
-0.028698705 0.1585898 0.010403159 -0.28253195 -0.21385624 0.13908009 0.19900176 0.094154894
0.080116205 -0.04736176 0.20539041 0.20095107 0.2699902 0.15488634 -0.23908713 -0.12180223
-0.25636196 -0.05711956 -0.09994386 0.038746577 -0.050250396 0.31705663 0.013561141 0.049231697
-0.22621667 0.27063742 0.049228273 0.29736137 0.060605038 0.061842654 0.16201268 -0.18967864
-0.13821243 -0.021503218 -0.05517206 -0.28373832 0.30919257 -0.22160086 0.14409277 0.3166701
0.078568704 -0.14441276 0.27837214 0.13209671 -0.2721584 0.045790832 0.22721879 0.30325738
-0.091856144 0.08441913 -0.027246905 0.2843217 0.20314892 -0.0837256 -0.1566303 0.13763952
0.089770034 0.21000768 0.10247422 0.01715544 -0.13908325 0.09848069 0.21599406 -0.070411436
0.019870723 0.000829626 0.04966321 -0.270614 -0.14523745 -0.16187328 0.16932145 -0.07529474
0.21977387 0.31610912 0.25065392 -0.20008281 0.256095 0.048630588 -0.2243771 -0.27050436
-0.10516078 0.096142955 -0.0020354025 0.2921501 0.0950155 -0.115323834 -0.22391851 0.20797765
-0.21723148 -0.26311672 0.04537545 -0.26551118 0.14506695 -0.06141374 0.004982794 0.08681223
-0.158175 0.16524374 0.13962156 -0.30431104 -0.25648662 -0.16741496 -0.0690863 0.13366902
-0.22290199 0.05334179 0.19042149 0.26389608 -0.09530017 0.30013806 0.04925876 -0.1136999
0.06586308 -0.02118913 0.065929316 0.18612199 0.091516726 0.12569933 0.13142066 0.14595449
0.20082289 -0.316889 0.1529962 -0.16454491 -0.13463634 -0.12256902 -0.24626291 -0.15331009
0.14295818 -0.18860756 0.19827892 0.17854919 -0.22047018 0.2621652 -0.2050904 0.08242051
0.07940259 -0.05815792 -0.17051733 -0.27753013 -0.25550583 0.012183124 -0.21206442 -0.2091797
00000000: 0d83 993e fc2c d3bd e506 39be e8e7 59be
00000010: 8567 1b3e 00cc 233e c008 673e 38bb c43d
00000020: 7b2a a1be 8c0e d6bd f2f6 953d 46a0 8f3c
00000030: 8ce2 91be baf6 6cbd 0d45 223e 96f5 2dbe
00000040: dd03 ff3d f825 233e daaa 6a3e f0d1 d83d
00000050: e25b 39be c7e5 7dbe 16a2 493d b119 823d
00000060: 4641 6e3e 3715 1ebe aea1 47be 87b7 82be
00000070: c27f c0bd fe18 443e 7ae1 2e3e ed0d 3c3d
00000080: 8981 c03d 2c3a 92bc ad42 123e 2f8e 47be
00000090: 285d 9bbd 695a 17bc 00ca 553d 105d 34be
000000a0: 6e0d 75be 4bd5 e33d 1503 45bd 91f0 e23b
000000b0: 7a43 453e 3445 8fbe 09b3 66bd 51fa c7bd
000000c0: 940b 893e 965b 79be f262 d03d c11d 843e
000000d0: e11f 71bd a4ac bfbd db40 14bb 2c1d a6bd
000000e0: 7c17 a0bc 9c98 35be 9a8f 9a3e 7e47 683d
000000f0: 1292 67be 9ea3 bcbd 5e27 8d3d 786d f23d
00000100: 4db8 843e b4a9 72be 8001 123e f3b5 833e
00000110: fc23 c33b eba8 13be fb58 1fbd 306b d0ba
00000120: 00ff 943e e185 973e e38b 993e 0561 76be
00000130: eb74 6d3e bbf2 47be 89eb 5dbe c8d6 f2bd
00000140: 37c0 c2bd 6bb3 4e3d 1542 493e ae3c 72be
00000150: efe0 61be 76c1 3d3e d0ef 98be dee2 53be
00000160: 064d 223e c98a 92be 4c81 4b3e 030f 083e
00000170: fc14 5abd 34dd 963e ab4d 873d c323 9dbe
00000180: 4852 78be 7468 87bd eb0e 6b3e 96a5 90be
00000190: f41e 0dbe af5f fd3c aea9 823e 6c45 e4bc
000001a0: 045e 883e e840 bdbb 5004 763e 44cf 003d
000001b0: 4dba 833e 7c80 ca3d 8bce 433e a7bb d03d
000001c0: 8c19 ebbc 5d65 223e 0372 2a3c 07a8 90be
000001d0: 21fd 5abe 036b 0e3e 1ec7 4b3e 48d4 c03d
000001e0: f713 a43d 68fe 41bd dd51 523e 1ec6 4d3e
000001f0: 283c 8a3e 869a 1e3e 42d3 74be 7373 f9bd
00000200: e041 83be 33f6 69bd 5eaf ccbd bbb4 1e3d
00000210: 5cd3 4dbd 3f55 a23e 8c2f 5e3c 2da7 493d
00000220: 58a5 67be fd90 8a3e 96a3 493d c03f 983e
00000230: fd3c 783d b94e 7d3d a7e6 253e 1e3b 42be
00000240: 8f87 0dbe 8427 b0bc 19fc 61bd 2646 91be
00000250: 7d4e 9e3e 56eb 62be 0e8d 133e 9522 a23e
00000260: a1e8 a03d f0e0 13be cb86 8e3e 5c44 073e
00000270: 5958 8bbe 2b8f 3b3d 0bac 683e 8d44 9b3e
00000280: 131f bcbd f0e3 ac3d e734 dfbc 9d92 913e
00000290: 4506 503e 5478 abbd b263 20be 60f1 0c3e
000002a0: 5ad9 b73d 410c 573e 01de d13d 9189 8c3c
000002b0: d76b 0ebe 3eb0 c93d 8c2d 5d3e df33 90bd
000002c0: edc7 a23c 427b 593a a66b 4b3d eb8d 8abe
000002d0: 20b9 14be 1cc2 25be 9a62 2d3e 2134 9abd
000002e0: 670c 613e 0ed9 a13e b655 803e 82e2 4cbe
000002f0: e21e 833e de30 473d 1cc3 65be 8c7f 8abe
00000300: 895e d7bd 99e6 c43d 6364 05bb b394 953e
00000310: 7d97 c23d e72e ecbd e54a 65be 18f8 543e
00000320: ee71 5ebe 3cb7 86be 9cdb 393d 15f1 87be
00000330: 6e8c 143e f98c 7bbd b546 a33b 9cca b13d
00000340: a1f8 21be a835 293e f4f8 0e3e a8ce 9bbe
00000350: 3752 83be d46e 2bbe 1e7d 8dbd 88e0 083e
00000360: 6b40 64be ec7c 5a3d dafd 423e 631d 873e
00000370: bc2c c3bd b2ab 993e 8ec3 493d 7edb e8bd
00000380: 39e3 863d d494 adbc f305 873d c396 3e3e
00000390: 1f6d bb3d 53b7 003e 2393 063e 1875 153e
000003a0: 84a4 4d3e 463f a2be 09ab 1c3e 767e 28be
000003b0: 1cde 09be 7705 fbbd 582c 7cbe 52fd 1cbe
000003c0: a163 123e 5722 41be a109 4b3e 99d5 363e
000003d0: efc2 61be 843a 863e 3803 52be 16cc a83d
000003e0: d39d a23d 0037 6ebd 189c 2ebe 6e18 8ebe
000003f0: a9d1 82be ba9b 473c 6a27 59be 3433 56be

encoder.lnXc.2.bias f4 [32]
0.1499094 0.16141 -0.070570484 0.08594087 0.15149242 0.040480286 -0.14331517 0.014279309
-0.13064241 0.17737551 0.059694316 0.1930746 0.11879128 -0.10896089 0.013354995 0.0068309437
-0.013435945 -0.17516525 0.06196841 0.040238094 -0.033857897 -0.14302199 0.15548609 0.08820575
0.08029106 0.19113222 -0.0031230506 -0.11457001 0.011436139 0.16949739 -0.0712264 -0.08982433
00000000: da81 193e aa48 253e 4287 90bd c401 b03d
00000010: d420 1b3e a8ce 253d 36c1 12be c3f3 693c
00000020: 20c7 05be eda1 353e 0782 743d 59b5 453e
00000030: d848 f33d e326 dfbd e9ce 5a3c 1cd6 df3b
00000040: 7022 5cbc 855e 33be 96d2 7d3d b3d0 243d
00000050: 94ae 0abd 5b74 12be bf37 1f3e 37a5 b43d
00000060: a46f a43d 2ab8 433e 18ac 4cbb aea3 eabd
00000070: a55e 3b3c b990 2d3e 26df 91bd d1f5 b7bd

encoder.lnLst.0.0.weight f4 [32, 3]
-0.28405043 -0.42154238 -0.092382886 0.08946901 0.045806322 0.40391532 0.23486339 -0.17870559
-0.14387663 0.05332838 -0.3838463 -0.3274034 -0.31851774 0.2537815 -0.016253766 0.36622363
-0.40053478 0.36922264 0.31043726 -0.39410105 0.076715805 0.17461461 -0.3536743 0.18686865
-0.22929834 -0.11359023 -0.30751303 -0.37007222 0.27718365 -0.3354182 0.27840278 0.2989471
0.0073574297 0.040518243 0.17710213 0.11430178 0.3924888 0.27808878 -0.2625254 0.0063583655
-0.18975957 0.33486068 0.08990305 0.33034956 -0.37053415 -0.14089121 -0.08582342 0.11880751
0.412986 0.36895508 0.22235842 0.21709704 -0.32579893 -0.15684663 0.31505594 0.23450093
-0.14454786 -0.060918257 -0.23452607 0.17499584 0.31375545 0.0007620761 0.1615889 -0.16497369
-0.07407359 0.35528427 -0.07198748 -0.15341094 0.3686751 -0.059638537 -0.41538417 0.10273404
0.25112456 0.31117618 -0.3635188 -0.22706719 -0.10924451 0.18128256 0.36506453 -0.16733505
0.2078358 -0.16423185 0.37615678 -0.0801446 -0.32897106 -0.32995087 0.34666985 0.24164641
-0.28802156 0.022463676 0.28630674 -0.0153380465 -0.3310019 -0.16682991 0.0803883 -0.37556848
00000000: 0f6f 91be 67d4 d7be 3d33 bdbd 873b b73d
00000010: 699f 3b3d fdcd ce3e 0780 703e 99fe 36be
00000020: 6554 13be dc6e 5a3d 8187 c4be 6ba1 a7be
00000030: c214 a3be a6ef 813e 9e26 85bc aa81 bb3e
00000040: e512 cdbe c00a bd3e a2f1 9e3e 9dc7 c9be
00000050: 2d1d 9d3d 2cce 323e cc14 b5be 7f5a 3f3e
00000060: 2fcd 6abe ffa1 e8bd 5972 9dbe 1b7a bdbe
00000070: 04eb 8d3e efbb abbe cf8a 8e3e 980f 993e
00000080: 9816 f13b 75f6 253d 435a 353e 0d17 ea3d
00000090: 4bf4 c83e a761 8e3e bb69 86be d659 d03b
000000a0: 5550 42be dc72 ab3e 171f b83d 9423 a93e
000000b0: a7b6 bdbe c945 10be 30c4 afbd 5a51 f33d
000000c0: e772 d33e aee7 bc3e edb1 633e b04e 5e3e
000000d0: 1ecf a6be 679c 20be 034f a13e 0321 703e
000000e0: 5b04 14be 6c85 79bd 9a27 70be 1c32 333e
000000f0: 8ea4 a03e 10c6 473a 9077 253e ddee 28be
00000100: e5b3 97bd d2e7 b53e 2c6e 93bd c217 1dbe
00000110: fcc2 bc3e 8a47 74bd 3cad d4be 3966 d23d
00000120: 6693 803e 7c52 9f3e 231f babe 4d84 68be
00000130: 96bb dfbd 23a2 393e bde9 ba3e e159 2bbe
00000140: e8d2 543e 652c 28be 9f97 c03e da22 a4bd
00000150: e56e a8be 52ef a8be b67e b13e 2872 773e
00000160: 9077 93be be05 b83c cc96 923e 6e4c 7bbc
00000170: 1579 a9be 76d5 2abe 9fa2 a43d 834a c0be

encoder.lnLst.0.0.bias f4 [32]
0.24693474 -0.48860183 -0.38784266 -0.16789922 -0.5475867 -0.13314234 0.23176426 -0.30939704
-0.14743602 0.1616988 -0.28090578 -0.13420434 -0.33269596 0.57956326 0.49175885 0.043824706
-0.35814482 0.0744103 0.16821766 -0.21224804 0.07614712 -0.028667765 -0.328987 0.26772445
-0.14200518 0.07811437 -0.4480572 0.23735331 0.14664428 0.2864753 0.012234009 0.09667283
00000000: 76dc 7c3e 052a fabe 5093 c6be c6ed 2bbe
00000010: a42e 0cbf 7756 08be 9c53 6d3e 4a69 9ebe
00000020: 78f9 16be 5f94 253e e2d2 8fbe dd6c 09be
00000030: 2057 aabe 425e 143f d1c7 fb3e 8981 333d
00000040: c25e b7be 6d64 983d 4041 2c3e 8d57 59be
00000050: 05f3 9b3d a9d8 eabc fc70 a8be 2e13 893e
00000060: ce69 11be 6dfa 9f3d c167 e5be bf0c 733e
00000070: eb29 163e e4ac 923e 2771 483c 68fc c53d

encoder.lnLst.0.2.weight f4 [32, 32]
-0.16937308 0.047883134 -0.08864668 0.13058805 0.08500337 -0.29107353 -0.2361763 -0.003972358
-0.26431662 -0.2126377 0.19823638 -0.18754035 0.07436191 -0.14242795 0.24004011 -0.2104181
0.07516673 0.06564136 -0.16061258 -0.08336981 0.15671414 -0.11521474 0.20428595 -0.16608176
-0.22672619 -0.061742503 -0.19417436 -0.20776117 0.14027326 0.11729108 -0.04420513 -0.25908834
0.13126454 -0.27962705 -0.20374487 0.18719289 -0.2324794 0.017767806 0.26235065 0.005224426
0.28862566 0.11646157 0.09859358 0.29049048 -0.10174059 -0.29455408 0.28144753 -0.24438268
-0.010993746 -0.023811081 0.17268115 -0.23438329 -0.12702365 -0.3000085 -0.29589775 0.12387571
-0.016462937 -0.09775338 0.024114141 0.09535822 -0.22127452 -0.1744974 0.23710176 0.19369934
-0.0472846 0.24207173 0.003385507 0.01078272 -0.15362646 0.24707448 -0.04823011 -0.1336824
0.17819816 -0.12559938 -0.2938304 0.094794825 0.08688634 0.049156524 -0.15932952 0.23012659
0.13916971 -0.15350229 -0.26671046 -0.15971193 -0.040267266 -0.035050303 -0.23098032 0.12655951
-0.043216597 -0.24102227 0.1816705 0.14155045 -0.06321629 0.26402935 0.1830171 -0.07372525
-0.060060523 -0.03612513 0.103958935 -0.097511314 -0.044520587 -0.06917479 -0.06556362 -0.2427292
0.28910092 0.19020608 -0.24043705 -0.019043691 -0.12326076 -0.3110699 0.249264 -0.14979121
0.13170084 -0.051407352 -0.0007965581 0.027188411 0.09403504 0.12849623 -0.14969951 0.08821923
0.27717972 0.18750346 -0.0040929182 -0.14602007 0.12645961 -0.1531234 -0.03985398 0.22400758
0.068844825 0.29136378 -0.102589004 0.03665066 -0.27400434 -0.2429885 -0.26610482 0.17710085
-0.28003582 0.14963919 -0.15162359 0.30133054 0.13896923 -0.0015957754 0.25642934 -0.28606135
0.006965643 -0.2887712 -0.086298145 -0.3059982 0.10275368 0.20165327 0.28105104 0.13176554
-0.27860847 0.29577094 0.3056991 -0.25747588 -0.17960969 0.038241327 0.28371984 0.036131464
-0.0067710513 -0.16536023 0.24423422 -0.016206108 0.14807725 -0.029484991 0.22992146 -0.0043854313
0.07576567 -0.12872691 -0.17617211 0.2270354 -0.03234253 -0.079210475 -0.112131275 0.21525685
-0.04717706 0.17383033 0.13356432 -0.08876049 0.01558761 0.11094387 0.15791728 0.28686696
-0.2538827 -0.106913224 0.21751192 -0.21866398 0.1971901 -0.17101558 0.21763127 -0.1293652
0.03063489 -0.01778664 -0.010483819 0.19951493 -0.11003042 0.028193237 0.060055144 -0.20274797
-0.29068407 -0.1923355 -0.1823931 -0.07157866 0.08781773 -0.22750881 0.2808354 -0.044151362
0.13622901 0.12974703 0.09738375 0.25227502 0.16523552 0.20525412 0.17782955 0.044618607
0.035263576 0.21152416 -0.16566125 0.3225777 0.1959176 -0.25832838 0.044109613 0.013970463
0.12131093 -0.14009042 -0.08354566 -0.05801962 0.007784224 0.047139455 -0.20414269 0.29670322
-0.04255428 -0.030031484 0.061938062 0.18528265 0.12505299 -0.047856238 -0.17545429 -0.1471777
0.1511446 -0.053286914 -0.058402404 0.112317085 0.20711944 0.013093131 0.18971717 -0.12779379
-0.24296705 0.27529985 0.23175384 0.14596993 0.15876938 0.06695918 -0.021514041 -0.19998133
00000000: 2370 2dbe 1b21 443d 648c b5bd e0b8 053e
00000010: 3f16 ae3d 9707 95be 33d8 71be 8e2a 82bb
00000020: 8254 87be b2bd 59be 7afe 4a3e 940a 40be
00000030: 0f4b 983d a2d8 11be 13cd 753e d877 57be
00000040: 04f1 993d fa6e 863d a077 24be cabd aabd
00000050: ac79 203e b5f5 ebbd 5630 513e 5611 2abe
00000060: e92a 68be b5e5 7cbd a5d5 46be 58bf 54be
00000070: cba3 0f3e 4e36 f03d 7010 35bd 3aa7 84be
00000080: 366a 063e 472b 8fbe 7fa2 50be 7eaf 3f3e
00000090: 140f 6ebe ca8d 913c d352 863e a931 ab3b
000000a0: bec6 933e 6783 ee3d 6eeb c93d 2bbb 943e
000000b0: 5f5d d0bd cbcf 96be e419 903e 743f 7abe
000000c0: 1d1f 34bc 750f c3bc 54d3 303e 2c02 70be
000000d0: 7d12 02be b79a 99be e97f 97be 8cb2 fd3d
000000e0: 48dd 86bc ed32 c8bd 058b c53c 2c4b c33d
000000f0: ca95 62be 72af 32be ceca 723e 1f59 463e
00000100: 7fad 41bd a7e1 773e 62df 5d3b 01aa 303c
00000110: 4150 1dbe 1801 7d3e f08c 45bd 0ae4 08be
00000120: 9479 363e 209d 00be f070 96be ca23 c23d
00000130: 77f1 b13d 5a58 493d 4727 23be 4ea6 6b3e
00000140: 8182 0e3e b42f 1dbe 468e 88be 868b 23be
00000150: 4aef 24bd e890 0fbd 1b86 6cbe d198 013e
00000160: e303 31bd 8bce 76be d507 3a3e 9af2 103e
00000170: 8b77 81bd db2e 873e d668 3b3e 44fd 96bd
00000180: 0602 76bd f2f7 13bd 6ce8 d43d 03b4 c7bd
00000190: 385b 36bd 83ab 8dbd 3846 86bd 018e 78be
000001a0: 0905 943e 62c5 423e 2135 76be 8401 9cbc
000001b0: 2370 fcbd 8e44 9fbe 103f 7f3e de62 19be
000001c0: 96dc 063e 8490 52bd 1cd0 50ba 3bba de3c
000001d0: 7195 c03d 8494 033e d44a 19be 49ac b43d
000001e0: 80ea 8d3e e800 403e e31d 86bb 4986 15be
000001f0: a17e 013e 61cc 1cbe ed3d 23bd 3e62 653e
00000200: 84fe 8c3d a22d 953e 2f1a d2bd 011f 163d
00000210: 4c4a 8cbe fad1 78be e43e 88be ed59 353e
00000220: db60 8fbe 043b 193e 3743 1bbe ff47 9a3e
00000230: f34d 0e3e 5629 d1ba b54a 833e a276 92be
00000240: 0c40 e43b d2d9 93be 15bd b0bd ccab 9cbe
00000250: 8570 d23d 327e 4e3e ece5 8f3e 8ced 063e
00000260: c5a5 8ebe 4a6f 973e 9884 9c3e e1d3 83be
00000270: 9aeb 37be f0a2 1c3d ba43 913e 96fe 133d
00000280: b2df ddbb 3154 29be 8918 7a3e acc2 84bc
00000290: 90a1 173e 828a f1bc 8870 6b3e aab3 8fbb
000002a0: 082b 9b3d fdd0 03be 7666 34be f87b 683e
000002b0: 9a79 04bd 1a39 a2bd 15a5 e5bd 4b6c 5c3e
000002c0: bc3c 41bd 9400 323e 16c5 083e 0fc8 b5bd
000002d0: 2d63 7f3c 8a36 e33d 11b5 213e 3ae0 923e
000002e0: eafc 81be 52f5 dabd 72bb 5e3e 73e9 5fbe
000002f0: 34ec 493e b51e 2fbe bbda 5e3e 5078 04be
00000300: 05f6 fa3c 4ab5 91bc 53c4 2bbc a44d 4c3e
00000310: a157 e1bd 81f5 e63c 62fc 753d 2a9d 4fbe
00000320: 8bd4 94be 99f3 44be 42c5 3abe d597 92bd
00000330: c8d9 b33d 12f8 68be a8c9 8f3e 0fd8 34bd
00000340: 9e7f 0b3e 68dc 043e 2271 c73d 312a 813e
00000350: 8033 293e 232e 523e f318 363e 00c2 363d
00000360: 8a70 103d ca99 583e 1aa3 29be e728 a53e
00000370: a09e 483e 9e43 84be 48ac 343d 5ee4 643c
00000380: dd71 f83d dd73 0fbe fd19 abbd fba5 6dbd
00000390: ce12 ff3b 4d15 413d c80a 51be 7ce9 973e
000003a0: 664d 2ebd 9604 f6bc c4b2 7d3d bcba 3d3e
000003b0: e40d 003e e704 44bd 4aaa 33be c0b5 16be
000003c0: a6c5 1a3e 6143 5abd 5c37 6fbd 8006 e63d
000003d0: 1e17 543e 9284 563c 3845 423e 60dc 02be
000003e0: 5bcc 78be 1af4 8c3e e150 6d3e 2479 153e
000003f0: 7194 223e e521 893d 373e b0bc e8c7 4cbe

encoder.lnLst.0.2.bias f4 [32]
0.08231985 0.06353793 0.09724285 -0.06809819 0.030502535 0.0021921308 0.0055731004 0.07686086
-0.032800637 0.008499362 -0.10053113 0.035712413 -0.17850101 0.06744342 -0.1699282 0.08553777
0.02210287 0.008591933 -0.04394909 0.10165887 0.03347152 -0.050302994 -0.007931957 0.049007203
0.068764545 0.12911984 0.106261484 0.046693157 0.01681804 -0.014249736 -0.039150354 -0.08000553
00000000: 4f97 a83d 2d20 823d 4227 c73d 1077 8bbd
00000010: 74e0 f93c daa9 0f3b 8e9e b63b 3a69 9d3d
00000020: f659 06bd e840 0b3c 44e3 cdbd 2e47 123d
00000030: f8c8 36be c71f 8a3d a801 2ebe 6d2e af3d
00000040: 1411 b53c 2ec5 0c3c f603 34bd 8732 d03d
00000050: 6f19 093d 830a 4ebd 0af5 01bc c7bb 483d
00000060: 6dd4 8c3d fe37 043e 9f9f d93d 5341 3f3d
00000070: fcc5 893c ba77 69bc 1f5c 20bd f0d9 a3bd

encoder.lnLst.1.0.weight f4 [32, 8]
-0.27366033 0.05197605 0.31754765 -0.05576779 0.27455395 -0.3166391 0.06615862 -0.12895378
-0.29759938 -0.32956797 0.18381453 0.083483785 0.1011807 0.15132639 0.02344995 0.33461353
0.1678128 0.100905985 0.2829549 0.1265053 -0.24834676 -0.36628434 -0.09158049 0.21036376
-0.4053014 0.03402191 -0.2566376 -0.03995968 0.30772334 -0.30562535 0.22687167 0.36026713
-0.22958219 -0.0065908846 -0.37851706 -0.17669101 -0.35108635 0.31054264 -0.2906943 0.3667902
-0.26749393 0.23370229 0.1514345 -0.40484145 0.18028398 0.29821715 0.17707297 -0.13588706
-0.099254355 -0.24785653 0.01382132 -0.21242407 0.38463542 0.3455983 -0.08255948 -0.33711392
0.38162073 -0.19339465 0.15313654 -0.28984022 -0.3361045 0.2100456 -0.007756994 -0.014400886
0.2272016 0.17096294 -0.031920288 -0.20754658 0.067697294 -0.21756259 -0.33677953 0.33568764
-0.0437098 0.002136765 -0.3674091 -0.1377737 -0.23365557 0.086668506 0.18846995 0.24564803
-0.11000133 0.11222712 0.029441683 -0.3238301 0.07154403 -0.10207974 0.022404287 0.1390093
0.14940928 0.16700834 -0.26027662 -0.322851 0.034025654 -0.12846032 0.15578507 -0.17062986
-0.08649494 -0.15817387 -0.2152013 -0.0001589721 0.28181213 -0.27585223 0.34201574 -0.24678496
-0.18177411 -0.17507252 -0.36634356 -0.03088551 0.05175259 -0.22229345 0.28148627 0.15086845
0.088805474 0.028559912 0.31102207 0.12241609 0.33727226 -0.22746857 0.3338767 0.3289714
0.16216494 0.33808976 0.31659862 0.29918137 -0.33968633 0.19481428 -0.24599119 0.07120718
0.20321418 0.12179874 -0.05002957 0.21067256 0.3119042 -0.17555164 0.28127438 0.09591973
0.37377512 0.37824297 0.24087784 -0.26070473 -0.20609203 -0.34177375 0.15807319 0.2969136
0.2743784 -0.03831007 -0.15104622 -0.2450086 -0.30128777 -0.30349892 -0.12098701 -0.26710883
-0.32615227 -0.32021758 -0.34982136 0.24056225 -0.09851074 -0.13507916 0.37920773 -0.21192004
0.3127661 0.24755126 -0.053251237 -0.28812975 0.19149804 -0.3171917 0.34491742 -0.28610268
0.09573988 -0.11633829 -0.21916805 0.17104872 -0.3805502 -0.07295954 -0.2860009 -0.22221415
-0.2938859 0.22068717 -0.10004783 0.14370021 0.21664558 -0.29679143 0.01543707 0.3765214
0.27839842 0.20203212 -0.035801854 -0.055333175 -0.24586739 0.30048153 0.054007143 -0.24171458
-0.14863473 0.23247749 0.109666504 -0.28912666 0.20455065 -0.07835895 0.36394635 0.0038794912
-0.27509353 -0.167836 -0.36566025 0.2675303 -0.21729241 -0.34438333 -0.28705356 -0.20536475
-0.33192986 0.03598977 -0.09743222 0.17126061 0.17370252 -0.1523156 -0.054900933 -0.39924204
-0.29602462 0.06199284 0.042597882 0.013501827 -0.118956104 0.055511788 -0.16755687 -0.20057331
-0.31293076 -0.32809687 -0.21650699 0.22986883 0.37860548 0.023859367 0.00066165597 -0.07814101
-0.23330185 -0.05213349 0.09313379 -0.30465868 -0.25341606 0.22395323 -0.3108345 -0.38251552
0.25827357 -0.3811493 0.015391501 0.32772905 -0.2808698 0.09800122 0.024091 -0.23935704
0.10241747 -0.0788931 0.012503749 0.20779376 -0.12559132 0.12948045 -0.0035199653 -0.1273052
00000000: 351d 8cbe d7e4 543d 9b95 a23e c46c 64bd
00000010: 5692 8c3e 851e a2be 2c7e 873d 760c 04be
00000020: f25e 98be 22bd a8be e039 3c3e 8cf9 aa3d
00000030: d437 cf3d 4ef5 1a3e 1c1a c03c 7752 ab3e
00000040: 1ed7 2b3e cca7 ce3d 77df 903e 9b8a 013e
00000050: 9d4e 7ebe 9f89 bbbe 8d8e bbbd 9969 573e
00000060: aa83 cfbe 8f5a 0b3d 0166 83be c3ac 23bd
00000070: ea8d 9d3e ed7a 9cbe 0c51 683e ef74 b83e
00000080: 9817 6bbe 59f8 d7bb fdcc c1be 7dee 34be
00000090: 97c1 b3be 72ff 9e3e e2d5 94be edcb bb3e
000000a0: f7f4 88be a74f 6f3e a511 1b3e 6147 cfbe
000000b0: 5d9c 383e ebaf 983e 9e52 353e fa25 0bbe
000000c0: de45 cbbd 1ace 7dbe d172 623c b285 59be
000000d0: efee c43e 43f2 b03e f214 a9bd 329a acbe
000000e0: cb63 c33e 3f09 46be d3cf 1c3e f065 94be
000000f0: e415 acbe 3216 573e 622e febb b2f1 6bbc
00000100: 89a7 683e e910 2f3e d9be 02bd 1787 54be
00000110: e1a4 8a3d bac8 5ebe 5e6e acbe 40df ab3e
00000120: 0c09 33bd f808 0c3b 0c1d bcbe 8c14 0dbe
00000130: 6843 6fbe 427f b13d 44fe 403e 288b 7b3e
00000140: 6148 e1bd 55d7 e53d af2f f13c 0fcd a5be
00000150: ad85 923d 2f0f d1bd 3289 b73c 7458 0e3e
00000160: bffe 183e 3c04 2b3e fa42 85be ba4c a5be
00000170: 7c5e 0b3d 1a8b 03be 1f86 1f3e 98b9 2ebe
00000180: 4224 b1bd 55f8 21be bb5d 5cbe c0b1 26b9
00000190: ae49 903e 813c 8dbe b01c af3e 32b5 7cbe
000001a0: fe22 3abe 3646 33be 6291 bbbe 9c03 fdbc
000001b0: 86fa 533d e5a0 63be f81e 903e 427d 1a3e
000001c0: a5df b53d 7af6 e93c 493e 9f3e 49b5 fa3d
000001d0: f3ae ac3e 85ed 68be e3f1 aa3e f06e a83e
000001e0: 910e 263e 1a1a ad3e 3719 a23e 4d2e 993e
000001f0: 5eeb adbe 657d 473e 1de5 7bbe 12d5 913d
00000200: 6117 503e 9e71 f93d ceeb 4cbd 8cba 573e
00000210: e8b1 9f3e cfc3 33be 3203 903e 9071 c43d
00000220: 745f bf3e 10a9 c13e aea8 763e 177b 85be
00000230: ca09 53be f8fc aebe f0dd 213e 0f05 983e
00000240: 537b 8c3e 05eb 1cbd dcab 1abe 89e3 7abe
00000250: 6442 9abe 3664 9bbe 0ac8 f7bd 7dc2 88be
00000260: 6efd a6be 8ff3 a3be c91b b3be f355 763e
00000270: 00c0 c9bd 3152 0abe 8427 c23e 9101 59be
00000280: e122 a03e 147e 7d3e f81d 5abd be85 93be
00000290: 1018 443e f366 a2be 0499 b03e 0d7c 92be
000002a0: 4513 c43d c542 eebd 976d 60be 6527 2f3e
000002b0: 7ad7 c2be d06b 95bd b66e 92be 1b8c 63be
000002c0: 3678 96be d1fb 613e e0e5 ccbd 2626 133e
000002d0: 57d8 5d3e 0cf5 97be c4eb 7c3c 6ac7 c03e
000002e0: 3d8a 8e3e 82e1 4e3e f7a4 12bd 0aa5 62bd
000002f0: a9c4 7bbe b7d8 993e 9836 5d3d 0784 77be
00000300: b433 18be 940e 6e3e d598 e03d 6908 94be
00000310: ba75 513e a87a a0bd 2d57 ba3e 103f 7e3b
00000320: 0fd9 8cbe 33dd 2bbe d237 bbbe bbf9 883e
00000330: e781 5ebe 0353 b0be aff8 92be 234b 52be
00000340: b6f2 a9be 026a 133d 8b8a c7bd f15e 2f3e
00000350: 13df 313e 9ff8 1bbe cddf 60bd 7469 ccbe
00000360: 8a90 97be 34ec 7d3d 1e7b 2e3d c436 5d3c
00000370: 429f f3bd 5460 633d 0794 2bbe 1763 4dbe
00000380: 7638 a0be 50fc a7be 02b4 5dbe bc62 6b3e
00000390: 94d8 c13e b874 c33c fb72 2d3a 6508 a0bd
000003a0: aee6 6ebe ed89 55bd eebc be3d 39fc 9bbe
000003b0: c0bf 81be ff53 653e b325 9fbe 13d9 c3be
000003c0: 6f3c 843e 0026 c3be a22c 7c3c 1acc a73e
000003d0: 2bce 8fbe ddb4 c83d 7d5a c53c 031a 75be
000003e0: 40c0 d13d b592 a1bd 86dc 4c3c e3c7 543e
000003f0: 039b 00be 8696 043e 38af 66bb 4b5c 02be

encoder.lnLst.1.0.bias f4 [32]
0.11911748 0.20966882 -0.15015344 -0.13473648 -0.03667261 0.2497535 -0.25296307 -0.3363239
-0.12131459 0.21703236 -0.1660241 -0.04156219 0.13111098 0.2908955 0.25005785 0.04328823
0.23306775 0.090598285 -0.2835749 -0.33755592 -0.09259514 0.12249433 0.057624146 0.14373173
-0.1867925 -0.21617818 0.16482961 -0.19224514 -0.18440734 0.03186699 -0.18217742 -0.28735083
00000000: def3 f33d 6cb3 563e d3c1 19be 5cf8 09be
00000010: 0536 16bd 62bf 7f3e 6084 81be a532 acbe
00000020: c973 f8bd bb3d 5e3e 3902 2abe 1d3d 2abd
00000030: f541 063e 41f0 943e 9507 803e 004f 313d
00000040: 50a9 6e3e 988b b93d bb30 91be 21d4 acbe
00000050: 85a2 bdbd 4fde fa3d 4c07 6c3d 692e 133e
00000060: 8846 3fbe d05d 5dbe 18c9 283e e9db 44be
00000070: 47d5 3cbe f686 023d b88c 3abe a61f 93be

encoder.lnLst.1.2.weight f4 [32, 32]
0.27232936 0.22320756 -0.22229074 -0.17101064 0.21128619 -0.049236767 -0.30579582 -0.16852148
-0.011750267 0.13088122 0.065918125 -0.124263346 -0.2543219 -0.2046017 -0.0020654956 -0.25587726
-0.106433205 0.17361186 0.038452968 -0.11545954 -0.10581093 0.016750243 0.13681741 0.08940448
0.1362553 0.08825379 0.18172911 0.30148873 -0.27312702 -0.29611027 -0.034288403 -0.077519566
-0.3170083 -0.25890523 -0.08258474 0.074643515 -0.2741654 0.24624382 0.09006073 -0.24505599
0.24198942 -0.2210571 0.30563727 -0.16979124 0.14715791 0.2244885 0.26891378 0.022712719
0.20164345 0.04188969 -0.21948636 0.10148852 0.21560962 0.026502108 0.19617671 0.095714435
0.077710316 -0.23137839 -0.19909115 0.14984141 0.05081038 0.22273695 -0.19827874 0.21140777
0.0029790052 -0.010553193 -0.28543627 -0.14860368 -0.24861817 0.18898527 0.13432491 0.13811809
0.1355431 0.030201787 -0.2457653 0.24872757 -0.055264864 0.1362409 -0.13151741 0.118874274
-0.21706018 0.22180878 -0.17607947 -0.1578932 -0.19746 -0.090020634 -0.13321638 0.062053464
-0.24657598 -0.09948251 -0.148761 -0.02327332 -0.16369501 0.08279119 0.12590262 -0.13945283
0.18097089 -0.2406312 0.039792057 0.15063201 -0.22583169 -0.025585776 0.2701896 0.20582902
-0.091915645 0.22100751 -0.20788082 -0.26682326 0.077277295 0.24609804 -0.021600928 -0.017692149
0.0017804772 0.06249448 -0.065316014 0.0393458 0.030413192 0.22908206 -0.054824244 -0.0062698526
-0.2651426 0.21311127 0.108904235 0.2570686 0.24525069 0.148128 -0.2436726 -0.004267553
0.010542544 0.22962059 0.3051715 -0.16999182 0.02437649 -0.1630369 0.11044984 -0.22075693
-0.091591716 -0.1177689 -0.21022369 0.004317817 -0.17440453 0.17989483 0.011705185 0.050849944
0.16635561 0.22236632 0.2577214 -0.024854876 -0.270623 -0.06510613 0.04265987 -0.060050197
-0.273143 0.057162922 -0.1819351 0.20709106 0.2363843 0.08320767 0.0820455 -0.04655201
0.27679855 -0.2571408 -0.021996405 -0.23553567 -0.004586806 -0.29357648 -0.27305377 -0.004008347
-0.048877344 -0.2767808 0.034513168 -0.2645549 -0.13245265 -0.089387044 0.10533331 -0.22224373
-0.24509121 -0.06845874 -0.2691914 -0.023977265 0.20381734 0.097351275 -0.25786212 -0.17086412
0.15163195 0.073685594 0.10675965 0.23737772 -0.05295543 -0.20751402 -0.0069564353 0.26423052
0.24935266 0.07951548 -0.004951941 -0.12662488 0.04710527 -0.1875222 0.150981 0.19242464
-0.055151626 -0.09207425 -0.18972972 0.05268442 0.013235884 -0.112234086 0.025726626 -0.008331852
-0.10755602 -0.092418194 -0.23569816 -0.18559742 0.14428401 0.23411795 -0.17917605 0.08243096
-0.07048702 0.054692622 -0.15198822 0.24466671 0.07062782 -0.109397344 0.23692513 -0.18909648
0.0616759 0.008752446 -0.083814755 -0.059007615 -0.013746694 -0.018050795 0.2680106 0.24779145
-0.08168886 0.13723771 -0.25113726 -0.08385654 -0.0039744545 0.28898814 0.13027419 0.17969939
0.0049785087 -0.040159933 0.05681336 -0.29801634 -0.28281814 -0.07485159 -0.0948027 0.28698227
0.08282769 -0.0753753 -0.2901914 -0.028971264 0.18508042 -0.29265428 0.14235854 -0.24161817
00000000: c16e 8b3e 8690 643e 2fa0 63be 6a1d 2fbe
00000010: 685b 583e 7eac 49bd 4591 9cbe e590 2cbe
00000020: 3184 40bc ba05 063e 1500 873d c87d febd
00000030: 7b36 82be 1c83 51be 445d 07bb 5802 83be
00000040: a7f9 d9bd 4fc7 313e dc80 1d3d 0d76 ecbd
00000050: 67b3 d8bd ce37 893c dd19 0c3e b219 b73d
00000060: 8286 0b3e 67be b43d 3217 3a3e bb5c 9a3e
00000070: 4ed7 8bbe c49b 97be ff71 0cbd 94c2 9ebd
00000080: e94e a2be 3a8f 84be 3022 a9bd b3de 983d
00000090: 685f 8cbe 5727 7c3e c371 b83d f5ef 7abe
000000a0: 13cc 773e cb5c 62be 7d7c 9c3e c1dd 2dbe
000000b0: 90b0 163e 50e0 653e 11af 893e 0610 ba3c
000000c0: 9f7b 4e3e 8694 2b3d 08c1 60be 37d9 cf3d
000000d0: c5c8 5c3e f31a d93c 8ce2 483e ee05 c43d
000000e0: 9626 9f3d 75ee 6cbe 8dde 4bbe 0770 193e
000000f0: 8c1e 503d 2815 643e 9509 4bbe 477b 583e
00000100: 6a3b 433b 4de7 2cbc b424 92be 902b 18be
00000110: c395 7ebe 5b85 413e 788c 093e d46e 0d3e
00000120: cfcb 0a3e bd69 f73c e6a9 7bbe 71b2 7e3e
00000130: 695d 62bd bc82 0b3e 80ac 06be 5b74 f33d
00000140: 0645 5ebe d721 633e 2d4e 34be c1ae 21be
00000150: f432 4abe bd5c b8bd e069 08be c62b 7e3d
00000160: 6a7e 7cbe 7cbd cbbd ce54 18be b1a7 bebc
00000170: aa9f 27be 6d8e a93d 9eec 003e b9cc 0ebe
00000180: 6f50 393e 0668 76be fffc 223d 473f 1a3e
00000190: 6c40 67be 4399 d1bc 4b56 8a3e d8c4 523e
000001a0: 453e bcbd cb4f 623e b6de 54be 0f9d 88be
000001b0: 8f43 9e3d 2001 7c3e 6ef4 b0bc 20ef 90bc
000001c0: e75e e93a 36fa 7f3d 67c4 85bd 1029 213d
000001d0: 1625 f93c 7d94 6a3e 638f 60bd 5673 cdbb
000001e0: c5c0 87be d739 5a3e 2f09 df3d 7f9e 833e
000001f0: ff22 7b3e deae 173e 4f85 79be d4d6 8bbb
00000200: a2ba 2c3c a921 6b3e 703f 9c3e 5612 2ebe
00000210: 34b1 c73c 25f3 26be 8733 e23d 1b0e 62be
00000220: 7094 bbbd d230 f1bd e144 57be 797c 8d3b
00000230: 1a97 32be 5a36 383e 1bc7 3f3c 0848 503d
00000240: 2059 2a3e ffb3 633e 0ff4 833e 749c cbbc
00000250: 198f 8abe 5d56 85bd 1ebc 2e3d 32f7 75bd
00000260: 66d9 8bbe ab23 6a3d 324d 3abe ae0f 543e
00000270: ba0e 723e c868 aa3d 7907 a83d 52ad 3ebd
00000280: 8ab8 8d3e f5a7 83be ce31 b4bc 4330 71be
00000290: eb4c 96bb a84f 96be b4cd 8bbe 7458 83bb
000002a0: 9c33 48bd 37b6 8dbe ae5d 0d3d bd73 87be
000002b0: aba1 07be 8e10 b7bd feb8 d73d dc93 63be
000002c0: 31f9 7abe 1934 8cbd 75d3 89be f86b c4bc
000002d0: 7eb5 503e 1b60 c73d 8106 84be 01f7 2ebe
000002e0: 6845 1b3e 79e8 963d cea4 da3d 2513 733e
000002f0: cbe7 58bd 8e7e 54be cff2 e3bb 3949 873e
00000300: 4e56 7f3e 03d9 a23d e443 a2bb f4a9 01be
00000310: 75f1 403d d205 40be c39a 1a3e f70a 453e
00000320: ace6 61bd 6d91 bcbd 8248 42be 9ecb 573d
00000330: 52db 583c fcda e5bd a5c0 d23c 5282 08bc
00000340: 5546 dcbd c045 bdbd dc5a 71be 400d 3ebe
00000350: 30bf 133e 9ebc 6f3e ed79 37be 90d1 a83d
00000360: 805b 90bd 5f05 603d cda2 1bbe e989 7a3e
00000370: 52a5 903d b70b e0bd 809c 723e 82a2 41be
00000380: de9f 7c3d 6b66 0f3c 12a7 abbd f8b1 71bd
00000390: d039 61bc 43df 93bc af38 893e 0bbd 7d3e
000003a0: 7d4c a7bd 0b88 0c3e 1095 80be fabc abbd
000003b0: 243c 82bb 41f6 933e 9966 053e 1e03 383e
000003c0: c222 a33b be7e 24bd 20b5 683d 9995 98be
000003d0: 8acd 90be ca4b 99bd eb27 c2bd 57ef 923e
000003e0: 90a1 a93d 5e5e 9abd f893 94be 2555 edbc
000003f0: b985 3d3e c8d6 95be 70c6 113e c16a 77be

encoder.lnLst.1.2.bias f4 [32]
-0.1537829 -0.008209183 -0.010356166 0.12046767 -0.0687328 0.003926237 -0.010873042 0.048325893
0.15200321 -0.07930911 -0.039164886 0.18811336 0.022300173 -0.1411538 -0.10460173 0.112712994
-0.06602954 -0.12210736 -0.031175053 -0.005574124 -0.021710623 -0.18315206 -0.031163704 0.018731512
0.08260956 0.031500302 0.10624742 0.057194944 -0.07219974 -0.05981793 -0.14684315 -0.0070010163
00000000: 4479 1dbe cf7f 06bc e9ac 29bc c1b7 f63d
00000010: c8c3 8cbd aaa7 803b d824 32bc 5ff1 453d
00000020: bba6 1b3e d16c a2bd 5c6b 20bd caa0 403e
00000030: daae b63c 9f8a 10be 6f39 d6bd 12d6 e63d
00000040: 7f3a 87bd 6c13 fabd d362 ffbc 24a7 b6bb
00000050: 7ada b1bc 378c 3bbe 064b ffbc d472 993c
00000060: 332f a93d 7606 013d 3f98 d93d 3f45 6a3d
00000070: 75dd 93bd a503 75bd 0d5e 16be c868 e5bb

encoder.lnLst.2.0.weight f4 [32, 7]
-0.13167582 -0.31968185 -0.036806233 -0.3854826 -0.3525125 -0.09677785 0.025388602 -0.31504002
0.19881031 0.3566914 0.27289727 -0.15985309 -0.2799944 -0.039687306 0.2003334 -0.04708148
-0.04780861 0.15137628 -0.32000667 -0.32886344 -0.058874387 -0.31690636 -0.1422003 -0.06942232
0.17091681 -0.26331758 0.23993766 0.3038996 -0.09327298 0.3356814 -0.2552794 0.26616928
-0.09650959 -0.3910253 -0.14252612 -0.30520085 0.13570052 0.27851638 -0.089383855 -0.31549415
0.04433652 -0.15851454 -0.14363442 -0.088886395 -0.28456685 0.2864125 0.06821817 -0.13753113
-0.24306637 0.27942133 -0.034933448 0.2132406 -0.37415007 0.21447635 -0.021978237 -0.37166607
-0.0019642455 -0.11826475 -0.09792883 -0.33829427 -0.29232928 0.20567505 -0.29055178 0.09694631
-0.2084319 0.29511216 0.2575233 -0.093278475 -0.060921866 -0.06535657 -0.26709604 0.3402139
0.111564755 0.12084956 -0.0029463898 -0.07300997 -0.10472703 -0.2355798 0.12148792 0.14247265
0.2259517 0.10875236 0.29232618 0.32730812 0.30076042 0.04339808 -0.14530519 0.13943724
-0.23557095 -0.23847675 -0.3002681 -0.11348163 -0.29098573 0.20772822 -0.19666915 0.150176
-0.07692643 0.22516799 0.09881526 -0.20941548 -0.29645032 -0.26556316 -0.3170741 0.035088826
-0.1962328 -0.011583064 -0.069369435 0.1499757 0.032699797 0.14755858 0.3969255 -0.06628195
-0.05550816 0.005790618 -0.09078378 -0.30945346 0.24202456 0.03966056 0.0085252905 0.3302914
-0.07630743 -0.1507627 -0.31757337 0.30766168 -0.14595228 0.095219135 -0.31476924 0.38390917
0.15237439 0.26080194 -0.16249171 -0.21235554 -0.33647874 -0.08088227 -0.334029 -0.09164717
0.28753075 -0.105003566 0.11283037 0.030699147 0.19712268 -0.13765283 0.20566575 0.20268786
-0.338264 -0.18944576 -0.059256352 0.054047104 -0.17603166 0.051517986 -0.2994918 -0.056111746
-0.09190484 -0.17793061 -0.123937756 -0.060187794 -0.24163532 -0.35310152 0.320787 0.37445652
0.36325347 -0.03770279 0.28658298 -0.10737281 0.12534212 0.13583106 -0.023129564 0.25727767
0.34059578 -0.18868282 -0.18695396 0.08297458 -0.13812739 0.17035244 0.188443 -0.097032435
0.29084182 -0.08109092 -0.0087515395 -0.0062484 0.06850807 -0.15686953 0.21864925 0.30655804
0.26166773 -0.14786567 0.3458087 -0.2214292 -0.26111114 0.20772511 -0.0058981427 0.03655045
0.3328413 -0.059369244 0.34118265 -0.26597002 -0.08711451 0.32461938 0.09348025 -0.38335297
-0.32702792 -0.30320662 -0.08634497 0.20570081 -0.23295191 0.26918977 0.059891794 0.13953215
-0.37278622 -0.21762922 -0.036963716 0.016046185 0.19293112 -0.10248316 -0.05323731 0.09243048
0.021611182 0.17260097 0.085336685 -0.2521188 -0.25328436 0.3600895 -0.34789306 0.19133723
00000000: 07d6 06be 57ad a3be 22c2 16bd fa5d c5be
00000010: 857c b4be 7733 c6bd c2fb cf3c ed4c a1be
00000020: ee94 4b3e 41a0 b63e 31b9 8b3e 87b0 23be
00000030: 6d5b 8fbe 288f 22bd 3324 4d3e 83d8 40bd
00000040: f6d2 43bd 6202 1b3e ead7 a3be ca60 a8be
00000050: 4526 71bd 8d41 a2be f59c 11be 4a2d 8ebd
00000060: d104 2f3e 90d1 86be 38b2 753e ba98 9b3e
00000070: e705 bfbd 6fde ab3e fbb3 82be 5747 883e
00000080: d2a6 c5bd 7834 c8be 5ef2 11be 4943 9cbe
00000090: 14f5 0a3e b399 8e3e e20e b7bd 7388 a1be
000000a0: 369a 353d a351 22be e714 13be 120a b6bd
000000b0: bfb2 91be a9a4 923e f8b5 8b3d f6d4 0cbe
000000c0: 64e6 78be 5010 8f3e 6016 0fbd be5b 5a3e
000000d0: 9990 bfbe b09f 5b3e b40b b4bc 044b bebe
000000e0: 92ba 00bb ca34 f2bd e98e c8bd e834 adbe
000000f0: 2fac 95be 7b9c 523e 34c3 94be c98b c63d
00000100: 2c6f 55be f118 973e 18da 833e c908 bfbd
00000110: 3589 79bd aad9 85bd d0c0 88be 8430 ae3e
00000120: 107c e43d f97f f73d 3818 41bb 4086 95bd
00000130: 207b d6bd d53b 71be a9ce f83d 5ae4 113e
00000140: e25f 673e 8fb9 de3d c7ab 953e ee94 a73e
00000150: 45fd 993e 2fc2 313d e2ca 14be a3c8 0e3e
00000160: 8339 71be 4033 74be bebc 99be 0f69 e8bd
00000170: 15fc 94be b5b6 543e a363 49be bdc7 193e
00000180: 9b8b 9dbd 7092 663e a85f ca3d 0371 56be
00000190: 56c8 97be e5f7 87be 8957 a2be 4db9 0f3d
000001a0: 40f1 48be e4c6 3dbc 9011 8ebd 3b93 193e
000001b0: 39f0 053d 9919 173e d239 cb3e d5be 87bd
000001c0: 865c 63bd 39bf bd3b d9ec b9bd af70 9ebe
000001d0: 49d5 773e 1d73 223d a9ad 0b3c f41b a93e
000001e0: 1247 9cbd 8a61 1abe fa98 a2be d585 9d3e
000001f0: 8474 15be 4002 c33d 6f29 a1be be8f c43e
00000200: 0808 1c3e d587 853e 3a64 26be bb73 59be
00000210: f146 acbe 9ba5 a5bd d905 abbe 83b1 bbbd
00000220: 3b37 933e 1c0c d7bd 9c13 e73d c77c fb3c
00000230: 87da 493e ddf4 0cbe 0b9a 523e 688d 4f3e
00000240: f030 adbe 12fe 41be cab6 72bd 7f60 5d3d
00000250: a541 34be 8604 533d fd56 99be 6ed5 65bd
00000260: 9b38 bcbd 7133 36be 14d3 fdbd 7a87 76bd
00000270: 406f 77be b9c9 b4be 323e a43e c4b8 bf3e
00000280: 5cfc b93e 3e6e 1abd 01bb 923e 47e6 dbbd
00000290: af59 003e 4c17 0b3e 367a bdbc e6b9 833e
000002a0: 9262 ae3e 1236 41be dc70 3fbe 94ee a93d
000002b0: 4471 0dbe df70 2e3e 34f7 403e f1b8 c6bd
000002c0: 38e9 943e ff12 a6bd 9e62 0fbc 61bf ccbb
000002d0: f64d 8c3d 68a2 20be 97e5 5f3e 2df5 9c3e
000002e0: 50f9 853e 196a 17be d70d b13e 56be 62be
000002f0: 5cb0 85be e4b5 543e 3545 c1bb edb5 153d
00000300: 2d6a aa3e 2a2d 73bd 7eaf ae3e 392d 88be
00000310: 1869 b2bd 8334 a63e 9372 bf3d d746 c4be
00000320: 3470 a7be e63d 9bbe a2d5 b0bd 3ca3 523e
00000330: f28a 6ebe 3ed3 893e 1951 753d 84e1 0e3e
00000340: d6dd bebe 32da 5ebe 4467 17bd 4a73 833c
00000350: bc8f 453e b1e2 d1bd 5e0f 5abd 314c bd3d
00000360: ef09 b13c 4fbe 303e 00c5 ae3d b715 81be
00000370: 7dae 81be a75d b83e 0a1f b2be e8ed 433e

encoder.lnLst.2.0.bias f4 [32]
0.0400911 -0.3391381 -0.18953292 0.12655379 -0.21840857 -0.36195138 -0.032395307 -0.33070976
-0.34020576 -0.11322105 -0.2628252 -0.2035856 0.025142072 0.23525575 -0.23797727 0.10164513
-0.2634617 -0.17450854 0.36538562 0.33423722 0.14633548 0.23650557 -0.15060504 0.07560132
-0.2896976 -0.01657986 0.039087314 0.025722928 -0.115333885 0.1088927 -0.11052877 -0.023358682
00000000: 9136 243d 82a3 adbe eb14 42be 5197 013e
00000010: 7fa6 5fbe b151 b9be f1b0 04bd ca52 a9be
00000020: 732f aebe 70e0 e7bd 0691 86be be78 50be
00000030: bff6 cd3c e2e6 703e 50b0 73be 522b d03d
00000040: 74e4 86be 5eb2 32be d313 bb3e 2421 ab3e
00000050: f8d8 153e 842e 723e 3538 1abe ddd4 9a3d
00000060: 3e53 94be 7dd2 87bc 051a 203d e4b8 d23c
00000070: 2c34 ecbd 2303 df3d e85c e2bd b55a bfbc
