app/vegetation/attention/andy/model_ep50.pth (torch, 62370 bytes, 31 tensors)

encoder.lnXc.0.weight f4 [32, 15]
0.2470943 -0.06790923 0.032152425 -0.28323016 0.24372299 -0.12418935 -0.3019892 -0.08573167
-0.340811 -0.1977897 -0.10056523 -0.24461395 -0.04745786 0.2518309 -0.26567292 0.27155635
-0.07445309 0.1427984 0.090855695 0.43315178 0.36912042 0.21075343 0.31911138 -0.21256652
0.18472621 0.027022785 -0.29140815 0.21640827 -0.27443266 0.10817108 0.31095654 0.018707424
0.03757446 -0.073814705 0.23859395 0.30329496 -0.33794624 -0.14980893 -0.015097209 0.16299418
0.2343695 -0.025816383 0.22365919 -0.22171615 0.31063372 0.15599564 -0.013662493 -0.24371563
-0.056290824 -0.16403817 0.109956585 0.007051035 -0.010658735 0.2344213 -0.28474894 -0.34117818
-0.33711755 -0.053183403 0.14798366 0.08191923 0.18540037 -0.13513619 0.23853463 -0.32679856
-0.3549315 0.2140827 0.14964171 -0.17871618 0.012738119 -0.20640175 -0.1832453 0.080086246
0.24938716 -0.016062917 0.006623104 -0.9389757 -0.1842249 -0.55468893 -0.16019125 0.23783022
0.34956327 0.34436387 0.0666137 0.22987549 -0.17581506 0.3545778 0.2545131 -0.3565632
-0.16410999 0.14499891 0.30278563 0.08827124 0.5352272 -0.11542321 0.2797056 0.28574532
-0.07600551 0.06726375 0.2567832 -0.21403533 0.072010726 -0.13061854 -0.06951951 -0.061105292
-0.35541135 0.13194577 0.13086395 -0.013280826 -0.18518353 -0.21325435 0.15649669 0.011546796
0.042940203 -0.2793827 0.34740028 -0.08520918 -0.17227946 -0.06894297 0.08928758 0.1451232
0.17572936 -0.29380813 -0.21324281 -0.3244357 -0.023043197 0.07040244 -0.12017592 0.10063223
-0.03821721 0.1682978 0.33203527 -0.02434676 -0.053729743 -0.107953474 -0.2978216 0.27153808
-0.27915534 -0.08618444 -0.12977456 0.18062387 -0.020832531 0.31298265 -0.15346773 0.12806271
0.16487207 -0.21472695 0.1933235 -0.13625127 -0.0043317364 -0.21631528 -0.21638727 -0.24225613
-0.02308188 -0.2628711 -0.06891022 0.20198539 -0.2658715 -0.1075577 -0.16410156 0.29184163
0.33209023 -0.23046578 0.091578014 0.22466502 0.043347646 0.103188984 0.2187688 -0.06624335
0.025332086 0.35599318 0.313224 0.05410405 -0.18600029 -0.13843825 -0.26671597 -0.0389556
0.20641083 0.23763902 -0.23216465 0.175502 -0.31485128 -0.26610819 -0.101188324 -0.14085625
0.15573338 -0.25557312 -0.12614062 0.001544843 0.11769953 0.22856286 -0.32955608 0.08213458
0.3136866 -0.0068873507 -0.10618085 0.058618724 0.3300937 -0.5917018 0.08856759 -0.14254014
0.42795658 -0.26454586 0.1375105 -0.15105447 -0.27374882 -0.24726428 0.13585137 -0.3448753
0.05207254 -0.25686568 -0.29137427 -0.08385158 -0.18334943 -0.1319336 0.020918546 -0.22317228
-0.186313 -0.3463493 0.08168914 -0.25207826 0.2475417 -0.07422883 0.03839593 0.006199774
0.1065733 -0.3603309 0.054642625 -0.12889461 0.029882934 0.054098547 -0.13102742 0.33477905
0.10769226 0.25045317 -0.20912975 -0.1587959 0.25323686 0.24525437 0.13773951 -0.35718584
0.45505366 0.46354598 0.32838216 0.10972282 0.36245644 -0.06448601 -0.02586362 0.18395916
0.08636119 -0.24148737 -0.070498936 0.16441615 0.19564395 -0.0075621493 -0.1320443 -0.22911373
00000000: 4a06 7d3e ff13 8bbd 43b2 033d 8b03 91be
00000010: 8592 793e fc56 febd 549e 9abe 1694 afbd
00000020: c87e aebe 6289 4abe 25f5 cdbd 147c 7abe
00000030: 2c63 42bd fbef 803e 4806 88be 6f09 8b3e
00000040: dd7a 98bd be39 123e 8d12 ba3d 12c6 dd3e
00000050: 5afd bc3e bfcf 573e 9162 a33e 0aab 59be
00000060: de28 3d3e e35e dd3c 7333 95be 219a 5d3e
00000070: 7082 8cbe cd88 dd3d b235 9f3e 5040 993c
00000080: ade7 193d 2a2c 97bd f951 743e 7a49 9b3e
00000090: 4a07 adbe 8367 19be 495a 77bc f2e7 263e
000000a0: 8ffe 6f3e e17c d3bc ea06 653e 8f09 63be
000000b0: 620b 9f3e 52bd 1f3e a6d8 5fbc 9790 79be
000000c0: 3591 66bd 9ff9 27be eb30 e13d 5e0c e73b
000000d0: faa1 2ebc 230c 703e 9dca 91be e8ae aebe
000000e0: ac9a acbe d7d6 59bd 0789 173e 45c5 a73d
000000f0: 98d9 3d3e 2461 0abe 6c42 743e 2452 a7be
00000100: 95b9 b5be 7f38 5b3e ad3b 193e 6001 37be
00000110: 8bb3 503c fb5a 53be a8a4 3bbe 4204 a43d
00000120: 595f 7f3e 6196 83bc a006 d93b b660 70bf
00000130: 74a5 3cbe 1800 0ebf 2d09 24be c489 733e
00000140: f5f9 b23e 7650 b03e c36c 883d 7b64 6b3e
00000150: dd08 34be 398b b53e 8b4f 823e 748f b6be
00000160: 730c 28be 987a 143e b806 9b3e 8dc7 b43d
00000170: a604 093f 0163 ecbd 9335 8f3e 364d 923e
00000180: c7a8 9bbd 94c1 893d 1679 833e 142c 5bbe
00000190: 5c7a 933d dec0 05be 3f60 8ebd 8b49 7abd
000001a0: 7af8 b5be cb1c 073e 3301 063e d297 59bc
000001b0: c0a0 3dbe 595f 5abe ab40 203e c62e 3d3c
000001c0: 11e2 2f3d 400b 8fbe 73de b13e 2782 aebd
000001d0: 076a 30be f931 8dbd 68dc b63d 2d9b 143e
000001e0: 66f2 333e 056e 96be 535c 5abe 701c a6be
000001f0: 16c5 bcbc 282f 903d cb1e f6bd 4518 ce3d
00000200: a689 1cbd 4256 2c3e 8700 aa3e db72 c7bc
00000210: b813 5cbd b616 ddbd 137c 98be 0a07 8b3e
00000220: 73ed 8ebe 7881 b0bd 9fe3 04be 77f5 383e
00000230: fca8 aabc 433f a03e a526 1dbe df22 033e
00000240: 39d4 283e 62e1 5bbe 98f6 453e 7485 0bbe
00000250: 3df1 8dbb c181 5dbe a094 5dbe fe11 78be
00000260: 3616 bdbc 0a97 86be cd20 8dbd 42d5 4e3e
00000270: 4f20 88be 3647 dcbd 3d0a 28be 446c 953e
00000280: bb07 aa3e 39ff 6bbe 418d bb3d 960e 663e
00000290: 4d8d 313d bf54 d33d ee04 603e 98aa 87bd
000002a0: 3c85 cf3c bd44 b63e e55e a03e 359c 5d3d
000002b0: dc76 3ebe c2c2 0dbe ff8e 88be e88f 1fbd
000002c0: 5c5d 533e a557 733e 92bc 6dbe ccb6 333e
000002d0: 3034 a1be 553f 88be d33b cfbd 9f3c 10be
000002e0: 9278 1f3e 7bda 82be 022b 01be 547c ca3a
000002f0: 740c f13d 620c 6a3e 93bb a8be 2d36 a83d
00000300: 889b a03e 49af e1bb 5875 d9bd 301a 703d
00000310: 0b02 a93e c579 17bf ed62 b53d 0bf6 11be
00000320: 201d db3e 8e72 87be 8dcf 0c3e 06ae 1abe
00000330: ce28 8cbe d932 7dbe 9f1c 0b3e 7f93 b0be
00000340: 044a 553d e683 83be 022f 95be 61ba abbd
00000350: f4bf 3bbe 9a19 07be 5f5d ab3c 4687 64be
00000360: d6c8 3ebe b254 b1be a34c a73d 6710 81be
00000370: 927b 7d3e 4905 98bd 0d45 1d3d 7927 cb3b
00000380: 1a43 da3d 4b7d b8be f2d0 5f3d f3fc 03be
00000390: 0ecd f43c 7096 5d3d 0d2c 06be 2968 ab3e
000003a0: c28d dc3d 663b 803e 1c26 56be 649b 22be
000003b0: 43a8 813e f623 7b3e 960b 0d3e 10e1 b6be
000003c0: cbfc e83e e655 ed3e b521 a83e 5cb6 e03d
000003d0: e493 b93e 3e11 84bd f1df d3bc ca5f 3c3e
000003e0: 23de b03d 7748 77be bf61 90bd b55c 283e
000003f0: e356 483e e8cb f7bb 9f36 07be ca9c 6abe

encoder.lnXc.0.bias f4 [32]
-0.24213392 -0.10075541 0.25774026 -0.21271893 -0.31393605 0.06382871 0.24636139 -0.2351822
0.057529535 -0.061194982 -0.24040535 0.21159165 0.08064421 -0.10360717 -0.12245583 -0.0655424
0.20066315 -0.17215836 0.08068247 0.080792055 0.035185345 0.047029745 -0.1836112 -0.23622388
0.26148665 0.035224862 -0.05511572 0.2788136 -0.08344153 0.083484985 0.11769229 0.14670315
00000000: f4f1 77be da58 cebd 88f6 833e fed2 59be
00000010: 3abc a0be a0b8 823d 2946 7c3e 9ad3 70be
00000020: 17a4 6b3d 97a7 7abd d22c 76be 7bab 583e
00000030: cb28 a53d ff2f d4bd 1fca fabd 183b 86bd
00000040: a47a 4d3e 484a 30be da3c a53d 4e76 a53d
00000050: 821e 103d 43a2 403d 9304 3cbe ace4 71be
00000060: 94e1 853e f247 103d 05c1 61bd a8c0 8e3e
00000070: 65e3 aabd 2dfa aa3d a808 f13d 5a39 163e

encoder.lnXc.2.weight f4 [32, 32]
0.04982733 -0.38949737 0.07567983 -0.15720229 -0.33115023 0.24667715 0.10985219 -0.23334013
-0.19297528 -0.004775054 -0.24805893 -0.027011832 -0.18020484 -0.2124493 0.21647185 0.15908882
-0.4049138 0.030981088 -0.14595798 -0.35381794 -0.30874807 -0.52915436 -0.18758424 0.08236897
0.1459469 -0.25649625 -0.032243166 0.016369142 0.17776613 -0.41941348 0.05828821 -0.2643016
-0.09562616 -0.08719614 -0.16077667 0.2003554 -0.09691047 -0.02732588 0.03739422 -0.089286886
0.26804256 0.22496119 -0.17678039 -0.1725189 -0.03555839 0.040870152 0.04772969 0.07020801
-0.20002106 -0.12623501 -0.059559673 0.07895571 -0.16123201 -0.19922154 -0.041017476 -0.101787314
-0.14755729 0.050241664 0.2770177 -0.18360072 -0.24075402 0.08025585 -0.04512568 0.0977849
0.2715088 0.2596401 0.1611337 -0.10781428 -0.27011308 0.25059307 -0.07695255 -0.12689705
-0.107656874 0.08774213 -0.01979317 0.21244547 0.25132972 0.19315119 -0.17137091 0.16897112
-0.13486008 -0.21639137 0.1583998 0.020072319 -0.19034165 -0.18068337 -0.26589054 0.15819742
0.2798894 0.06987729 -0.1269754 0.24544722 -0.119514085 0.0032597308 -0.20547757 0.33405688
0.060972832 0.28476936 -0.00573865 0.013478851 0.21113977 0.14587897 0.16597325 -0.22084293
-0.06523709 0.019816045 -0.29052138 0.20449416 -0.2863723 -0.1627689 -0.08344711 0.018815773
-0.06440648 -0.21259126 0.2613928 -0.09465805 -0.05357651 -0.22895566 -0.12463508 0.19458556
-0.022177069 0.020341739 -0.16519955 0.15073483 0.25405654 -0.19447714 -0.13641222 0.15171698
-0.17320535 0.2856976 0.38607213 -0.21452978 -0.19720319 0.45942467 0.45004812 0.23275414
0.21457992 -0.03248224 -0.22587503 -0.027217055 0.11870861 0.06441365 0.10622965 0.061084382
0.3429876 0.28324366 -0.24617276 0.22276573 0.43322876 0.1402992 0.04721131 -0.090085484
0.016996073 0.3827015 0.35215607 0.31938958 -0.12057776 -0.15305628 0.0032679602 0.37786174
0.23378147 -0.13676943 -0.002594655 -0.19838652 0.2593666 0.17928822 -0.05607046 0.3186458
-0.080748126 -0.1662351 -0.20919845 0.029735437 -0.28481507 0.26346755 0.28034288 -0.069906056
0.05895618 0.11876927 0.16567577 -0.050042942 0.17528327 -0.29824838 -0.17491935 -0.18994598
0.2583127 -0.29219356 -0.30429658 -0.07722034 -0.24024832 0.09119422 0.16871192 0.19570321
-0.20400442 0.11851249 0.41132164 0.14413552 0.04347229 0.25161356 0.095443204 -0.009999279
-0.18911026 -0.08708148 -0.0038543162 0.051281407 -0.06833933 0.2338075 -0.008086483 0.26636347
0.23789619 -0.1246289 -0.21909752 -0.07261279 0.010789511 -0.18239951 0.24622746 -0.007342133
0.36548328 0.042348642 0.21941538 0.08861494 0.010185031 -0.06435704 0.12522335 0.013285274
-0.0056946455 0.19376138 -0.23238696 0.16463861 -0.18099636 -0.098173074 -0.15810391 -0.06112547
0.06429392 0.034156658 -0.052448586 -0.17437324 0.28236187 -0.17183818 -0.16037743 0.14947553
0.018817432 0.19023627 0.117468074 0.098711744 0.077453375 0.11547597 0.1444112 0.032914568
-0.32167515 0.029512942 0.15755115 -0.16783005 -0.05669868 -0.025422012 0.011716549 -0.053809658
00000000: be17 4c3d 336c c7be 07fe 9a3d a3f9 20be
00000010: 868c a9be ef98 7c3e 2ffa e03d b7f0 6ebe
00000020: 509b 45be 0e78 9cbb 2903 7ebe eb47 ddbc
00000030: 9e87 38be 4f8c 59be ccaa 5d3e 2ee8 223e
00000040: dd50 cfbe 0dcc fd3c 0276 15be a027 b5be
00000050: 3a14 9ebe a976 07bf 1516 40be 10b1 a83d
00000060: 1b73 153e 7a53 83be 6911 04bd 9418 863c
00000070: 5308 363e 5dbd d6be 9ebf 6e3d 8a52 87be
00000080: a6d7 c3bd e493 b2bd a4a2 24be f729 4d3e
00000090: ff78 c6bd 86da dfbc ae2a 193d 0bdc b6bd
000000a0: e03c 893e 3a5c 663e eb05 35be cba8 30be
000000b0: ada5 11bd 7667 273d 3580 433d 38c9 8f3d
000000c0: 52d2 4cbe c043 01be d8f4 73bd 88b3 a13d
000000d0: 011a 25be bb00 4cbe f101 28bd de75 d0bd
000000e0: 4219 17be 34ca 4d3d 44d5 8d3e d401 3cbe
000000f0: 3988 76be 2e5d a43d b4d5 38bd 7343 c83d
00000100: 3403 8b3e 8cef 843e 3c00 253e bccd dcbd
00000110: 434c 8abe bc4d 803e 4c99 9dbd 4df1 01be
00000120: 357b dcbd 25b2 b33d 4925 a2bc 4e8b 593e
00000130: 4aae 803e 6dc9 453e db7b 2fbe c406 2d3e
00000140: c318 0abe b395 5dbe 8f33 223e b46e a43c
00000150: ece8 42be 1005 39be ce22 88be 81fe 213e
00000160: aa4d 8f3e d31b 8f3d d705 02be 8456 7b3e
00000170: cdc3 f4bd 35a1 553b b668 52be 8109 ab3e
00000180: a6be 793d 4acd 913e 490b bcbb 66d6 5c3c
00000190: 0635 583e 4c61 153e e4f4 293e a624 62be
000001a0: 069b 85bd 4255 a23c 38bf 94be eb66 513e
000001b0: 649f 92be e4ac 26be 52e6 aabd 8923 9a3c
000001c0: 8be7 83bd 86b1 59be 47d5 853e 14dc c1bd
000001d0: 0b73 5bbd 5a73 6abe ad40 ffbd 7041 473e
000001e0: afac b5bc b8a3 a63c 122a 29be 3b5a 1a3e
000001f0: b313 823e 0425 47be a5af 0bbe b25b 1b3e
00000200: be5c 31be f546 923e 3fab c53e b2ad 5bbe
00000210: a2ef 49be b639 eb3e b56c e63e 1a57 6e3e
00000220: d7ba 5b3e 190c 05bd c94b 67be 4df6 debc
00000230: 801d f33d 4eeb 833d ee8e d93d 9e33 7a3d
00000240: 129c af3e 5005 913e b614 7cbe b31c 643e
00000250: 29d0 dd3e 98aa 0f3e a660 413d bd7e b8bd
00000260: 593b 8b3c 73f1 c33e cd4d b43e 0887 a33e
00000270: 79f1 f6bd c9ba 1cbe 462b 563b 1877 c13e
00000280: 6964 6f3e 490d 0cbe 160b 2abb d625 4bbe
00000290: b3cb 843e 5597 373e 23aa 65bd 8b25 a33e
000002a0: 465f a5bd 8939 2abe 1e38 56be bb97 f33c
000002b0: 48d3 91be 38e5 863e 1a89 8f3e e82a 8fbd
000002c0: 097c 713d 4e3d f33d e9a6 293e d4f9 4cbd
000002d0: 757d 333e 03b4 98be 0f1e 33be 3381 42be
000002e0: 9041 843e 659a 95be c3cc 9bbe b325 9ebd
000002f0: a803 76be 09c4 ba3d d1c2 2c3e 6c66 483e
00000300: 89e6 50be adb6 f23d c098 d23e 4398 133e
00000310: 0010 323d 7ed3 803e ba77 c33d 04d4 23bc
00000320: 1fa6 41be c657 b2bd b298 7cbb 740c 523d
00000330: 7ef5 8bbd 3c6b 6f3e 2b7d 04bc cb60 883e
00000340: 0f9b 733e 703d ffbd 1a5b 60be 04b6 94bd
00000350: 7dc6 303c f0c6 3abe 0d23 7c3e 4796 f0bb
00000360: a020 bb3e c575 2d3d 6dae 603e c07b b53d
00000370: 1edf 263c a0cd 83bd 8d3a 003e 7aaa 593c
00000380: 269a babb 6269 463e d9f6 6dbe 0697 283e
00000390: 1c57 39be f70e c9bd fee5 21be b35e 7abd
000003a0: 88ac 833d dae7 0b3d 54d4 56bd e68e 32be
000003b0: bc91 903e 59f6 2fbe fb39 24be 1d10 193e
000003c0: 0427 9a3c 4ccd 423e 1a93 f03d 6229 ca3d
000003d0: e09f 9e3d aa7e ec3d 88e0 133e 6dd1 063d
000003e0: 9bb2 a4be 20c5 f13c 1755 213e a4db 2bbe
000003f0: e03c 68bd d341 d0bc c5f6 3f3c 8467 5cbd

encoder.lnXc.2.bias f4 [32]
-0.19831839 0.14639057 0.033621773 -0.02308564 0.22379707 -0.061828624 -0.048634183 0.02634862
-0.18437292 0.014434767 -0.23655817 -0.10889872 0.06106436 0.19231813 0.16534418 -0.1799999
0.114486784 0.1286961 -0.24088466 -0.0763755 -0.03869802 -0.14766172 -0.036477856 -0.19064954
0.24557747 0.03998569 -0.0865961 0.16564085 0.21059692 0.1376485 0.18971281 -0.011742071
00000000: fa13 4bbe 69e7 153e fcb6 093d 191e bdbc
00000010: 0f2b 653e 0340 7dbd a334 47bd 10d9 d73c
00000020: 41cc 3cbe cd7f 6c3c 4e3c 72be 4b06 dfbd
00000030: 9f1e 7a3d 0bef 443e fc4f 293e e551 38be
00000040: 0c78 ea3d e9c8 033e 78aa 76be c26a 9cbd
00000050: d181 1ebd a234 17be ce69 15bd a239 43be
00000060: a978 7b3e 09c8 233d 4c59 b1bd c19d 293e
00000070: b8a6 573e baf3 0c3e 1344 423e d161 40bc

encoder.lnLst.0.0.weight f4 [32, 3]
0.18312185 -0.038216613 -0.1453642 -0.42935926 -0.31038624 0.12133082 -0.37426886 -0.24008729
0.32701746 0.34248623 -0.0293961 -0.061944816 0.07928258 -0.068834476 -0.37365326 -0.120707326
-0.38457832 -0.24246246 0.3649951 -0.25195584 -0.0067535643 0.03929303 0.0948645 -0.25434935
-0.25128916 -0.2952563 -0.108409196 0.11299332 -0.42963174 -0.09249388 0.14870575 -0.23519482
-0.013800212 -0.3671005 -0.32774463 0.03874509 -0.08532469 0.4384371 0.15366346 0.2631411
-0.32281706 -0.13161144 -0.24179962 0.25431108 -0.11267647 -0.122518025 -0.25405255 0.054951165
-0.11796231 -0.15482612 0.082430944 -0.3513901 0.23840679 -0.09398287 -0.30150506 0.16670744
-0.374447 0.116136566 -0.16165265 0.06733642 0.32125077 -0.26364616 0.096488506 0.17552017
-0.29673856 -0.018417196 0.22644138 0.0997686 -0.012425953 -0.11670127 0.28052384 0.22543055
0.23812774 -0.24226592 0.12142289 0.1078368 0.21781918 0.24817042 0.28920013 0.32602885
-0.07817981 0.17423767 -0.21734276 -0.33953696 -0.08035523 -0.08691072 0.27207446 -0.01868886
-0.31318378 -0.39465567 -0.26781046 0.12188734 -0.3595812 0.2341831 0.12109939 0.19759315
00000000: 4b84 3b3e 0689 1cbd 5ada 14be fad4 dbbe
00000010: f2ea 9ebe 4b7c f83d 2ba0 bfbe 71d9 75be
00000020: d56e a73e 5b5a af3e 17d0 f0bc d9b9 7dbd
00000030: e85e a23d 17f9 8cbd 7b4f bfbe 6735 f7bd
00000040: 73e7 c4be 1448 78be a3e0 ba3e 5b00 81be
00000050: 014d ddbb baf1 203d 5248 c23d 143a 82be
00000060: f9a8 80be d52b 97be a405 debd 0b69 e73d
00000070: b1f8 dbbe 6e6d bdbd 5246 183e e9d6 70be
00000080: 491a 62bc 99f4 bbbe 25ce a7be 2cb3 1e3d
00000090: b6be aebd d47a e03e f459 1d3e 6eba 863e
000000a0: 4748 a5be 26c5 06be 529a 77be 1035 823e
000000b0: ecc2 e6bd bbea fabd 2d13 82be 7914 613d
000000c0: 3996 f1bd bd8a 1ebe 8ed1 a83d 67e9 b3be
000000d0: e920 743e 177a c0bd df5e 9abe 5bb5 2a3e
000000e0: 84b7 bfbe 02d9 ed3d 4688 25be ade7 893d
000000f0: fb7a a43e a1fc 86be c49b c53d 8fbb 333e
00000100: 1eee 97be a9df 96bc 40e0 673e 7b53 cc3d
00000110: 3996 4bbc 1301 efbd d2a0 8f3e 44d7 663e
00000120: c2d7 733e 8f14 78be 90ac f83d 8ad9 dc3d
00000130: fe0b 5f3e 6320 7e3e 0a12 943e 41ed a63e
00000140: bc1c a0bd 5c6b 323e 1a8f 5ebe cad7 adbe
00000150: 4891 a4bd 3ffe b1bd 584d 8b3e 6119 99bc
00000160: a059 a0be 4f10 cabe 741e 89be 12a0 f93d
00000170: 071b b8be b2cd 6f3e f502 f83d dc55 4a3e

encoder.lnLst.0.0.bias f4 [32]
-0.1804733 0.25285465 0.25698036 0.39057693 0.60308933 0.089676395 -0.28603402 -0.29130363
-0.19450517 0.4641391 -0.113320455 0.2055803 -0.124112576 0.52307 0.58711714 0.36311245
-0.3870426 0.038212653 0.38226542 0.4695373 -0.22903238 -0.330507 0.022798967 -0.26861608
0.40403318 -0.63111645 -0.16385195 -0.115019344 -0.31522077 0.014079498 0.15851483 -0.12782785
00000000: fecd 38be 2a76 813e ee92 833e b3f9 c73e
00000010: 1064 1a3f 42a8 b73d 0d73 92be c025 95be
00000020: 5d2c 47be a4a3 ed3e 8e14 e8bd a483 523e
00000030: bc2e febd eae7 053f 4f4d 163f e0e9 b93e
00000040: 732a c6be df84 1c3d 4bb8 c33e 3167 f03e
00000050: 7787 6abe 3738 a9be e6c4 ba3c 0c88 89be
00000060: 70dd ce3e d990 21bf cec8 27be 438f ebbd
00000070: 9e64 a1be b2ad 663c b651 223e 4ee5 02be

encoder.lnLst.0.2.weight f4 [32, 32]
-0.13206194 0.12522565 -0.19845963 -0.011932283 -0.11129673 0.42513412 0.20176879 0.23413585
0.1807887 0.103871584 -0.2821786 0.3293135 0.33163068 -0.1312951 0.23637594 0.081249125
-0.027416427 0.08449131 0.009613875 -0.08957004 -0.25792366 0.30242062 0.0073617073 -0.04704
0.241143 0.022863586 0.09691508 0.04926496 -0.2078214 -0.20159486 -0.07926735 0.08386581
-0.046131704 0.022872793 0.21238157 -0.24654055 0.03816597 -0.3538005 -0.15483731 -0.012372816
-0.16300385 -0.17630503 0.05164591 -0.103317454 -0.006960947 -0.18002999 0.16516316 0.25673914
0.13878812 -0.006454691 0.16455802 -0.1697327 -0.30344948 -0.039836694 0.11802282 -0.059158333
-0.030245675 0.32398602 -0.14833017 -0.21296479 -0.3016406 -0.26026243 -0.18644968 0.22949477
-0.2711266 -0.07667714 0.3489605 -0.09320493 -0.07213812 -0.11223924 -0.15903258 0.2646729
-0.24651946 0.17134684 0.090496294 0.08188574 0.22033638 0.11013055 0.1780117 0.12038886
0.13446952 0.33280137 0.051941585 -0.03968184 0.23059985 0.09300072 -0.07224667 -0.11468366
0.020349054 0.08786514 0.24008936 0.17169371 -0.14725658 0.03443641 -0.19859432 -0.08284213
0.30015492 0.21717362 -0.31022024 0.34604883 0.3224161 0.6656353 0.2102906 -0.3039231
-0.12970303 -0.045725808 0.061909378 0.66236943 0.30788115 -0.009412685 -0.23721139 -0.24943238
-0.018403204 -0.28412622 0.2799391 -0.16718213 0.19667813 0.092506036 -0.02888355 -0.10990633
0.0074125393 0.03806624 0.36342108 -0.29962656 -0.20436613 0.0037506556 -0.16751625 0.32624966
0.0873302 0.09765037 -0.34824678 0.15883373 -0.010892971 -0.16274902 -0.055599142 -0.11640767
-0.11010083 0.11932006 -0.09111673 0.7797332 -0.29133335 0.24251348 -0.0333469 0.20617376
-0.26492554 0.15601449 -0.23824084 0.026476137 0.12918057 -0.2515827 -0.10921041 -0.22326246
0.031258732 -0.04094185 -0.092858836 -0.0037213457 -0.12709816 0.17606921 -0.066741645 0.046533965
-0.009935851 -0.1912162 0.12669338 -0.07965236 -0.06166794 0.3071228 0.06183433 -0.025533745
-0.18987124 0.18078986 -0.22218242 -0.21076906 0.18619837 -0.16129275 -0.024390183 -0.05131155
0.034031037 -0.19293657 -0.2885408 0.007129119 -0.014635758 -0.0705569 0.04212646 -0.02876149
-0.015903601 -0.32876807 0.3269168 -0.2999158 -0.21161461 0.15193748 -0.039303955 0.07929129
0.03399995 0.3969415 0.1838657 0.40185544 0.22418356 -0.31102154 0.195782 0.052974883
0.06876314 -0.17785339 0.2461226 -0.0014685772 0.39092296 0.38088706 0.17475756 0.1848456
-0.18201339 -0.095234424 -0.1384569 0.2929785 0.03812848 0.1522344 0.11333821 0.19522028
0.31618667 0.052663304 0.16071628 -0.1543619 0.11619392 0.054268304 -0.0297932 0.33413365
-0.30122256 0.10566951 0.14707455 0.14496584 0.01843715 -0.07083066 0.24930198 0.2187983
0.2158129 -0.024885057 0.19335756 0.3510868 0.26477084 -0.026059475 0.41741315 0.1797585
0.19629973 0.13353723 0.01703903 0.014152328 -0.10177961 -0.034361657 -0.0014266466 0.16680318
0.3715742 0.06433224 0.0058536003 0.25102246 0.025833266 -0.2783972 -0.011754328 0.19407018
00000000: 3f3b 07be 273b 003e 0039 4bbe 9f7f 43bc
00000010: 8aef e3bd 2eab d93e 7a9c 4e3e 4fc1 6f3e
00000020: ac20 393e a0ba d43d b779 90be c79b a83e
00000030: 7fcb a93e 3972 06be 890c 723e f165 a63d
00000040: 6a98 e0bc c809 ad3d 8483 1d3c 7f70 b7bd
00000050: 920e 84be e0d6 9a3e 7a3a f13b 04ad 40bd
00000060: 31ee 763e 6a4c bb3c 6a7b c63d 0eca 493d
00000070: 22cf 54be e26e 4ebe ec56 a2bd d6c1 ab3d
00000080: 99f4 3cbd b95f bb3c 8e7a 593e 2075 7cbe
00000090: ec53 1c3d 5725 b5be ac8d 1ebe 5ab7 4abc
000000a0: 7bea 26be 4e89 34be a98a 533d 1a98 d3bd
000000b0: a818 e4bb c859 38be 8820 293e 5073 833e
000000c0: 791e 0e3e df81 d3bb e681 283e 69ce 2dbe
000000d0: bb5d 9bbe cd2b 23bd f3b5 f13d 0250 72bd
000000e0: c7c5 f7bc 7fe1 a53e dde3 17be 7113 5abe
000000f0: a370 9abe 1e41 85be aaec 3ebe ad00 6b3e
00000100: 1bd1 8abe e808 9dbd f3aa b23e 3ae2 bebd
00000110: 27bd 93bd b0dd e5bd 70d9 22be 3583 873e
00000120: 996f 7cbe 8c75 2f3e 1f56 b93d b6b3 a73d
00000130: dc9f 613e 208c e13d b348 363e 6f8e f63d
00000140: 61b2 093e f164 aa3e b3c0 543d 6d89 22bd
00000150: 5e22 6c3e 2977 be3d 10f6 93bd 44df eabd
00000160: 0fb3 a63c a3f2 b33d fcd9 753e 7ad0 2f3e
00000170: 6eca 16be 310d 0d3d 4f5c 4bbe 22a9 a9bd
00000180: e8ad 993e c362 5e3e 30d5 9ebe 502d b13e
00000190: b913 a53e 1367 2a3f 6b56 573e cf9b 9bbe
000001a0: dfd0 04be fc4a 3bbd b094 7d3d 0b91 293f
000001b0: 99a2 9d3e aa37 1abc 8be7 72be 346b 7fbe
000001c0: 51c2 96bc fe78 91be 2d54 8f3e cb31 2bbe
000001d0: fe65 493e ce73 bd3d 329d ecbc 9216 e1bd
000001e0: e3e4 f23b 58eb 1b3d 5412 ba3e a768 99be
000001f0: 5b45 51be 8fcd 753b 6189 2bbe 320a a73e
00000200: 2dda b23d ebfc c73d 674d b2be 4fa5 223e
00000210: 6f78 32bc aea7 26be edbb 63bd 2567 eebd
00000220: 8b7c e1bd 135e f43d 689b babd 989c 473f
00000230: a529 95be 7455 783e c296 08bd 371f 533e
00000240: 52a4 87be 43c2 1f3e 68f5 73be 7ce4 d83c
00000250: e947 043e 73cf 80be b5a9 dfbd ea9e 64be
00000260: 2809 003d a4b2 27bd c62c bebd d2e1 73bb
00000270: 0526 02be 7d4b 343e d8af 88bd 669a 3e3d
00000280: fbc9 22bc 2ece 43be e9bb 013e c720 a3bd
00000290: 8697 7cbd 333f 9d3e ff45 7d3d 252c d1bc
000002a0: 9b6d 42be fa20 393e ca83 63be d8d3 57be
000002b0: c9aa 3e3e ed29 25be eccd c7bc 0f2c 52bd
000002c0: 2164 0b3d 2a91 45be 9fbb 93be 629b e93b
000002d0: d1ca 6fbc 2380 90bd cb8c 2c3d 379d ebbc
000002e0: 4548 82bc 4a54 a8be a461 a73e 908e 99be
000002f0: 80b1 58be 8095 1b3e 2ffd 20bd 7963 a23d
00000300: 8843 0b3d eb3b cb3e 4a47 3c3e ffbf cd3e
00000310: 6090 653e 373e 9fbe 147b 483e 31fc 583d
00000320: b0d3 8c3d 331f 36be 9007 7c3e 467d c0ba
00000330: 0e27 c83e a103 c33e a5f3 323e 2a48 3d3e
00000340: b861 3abe 440a c3bd a5c7 0dbe 4701 963e
00000350: 9c2c 1c3d 56e3 1b3e dd1d e83d d3e7 473e
00000360: 38e3 a13e 7ab5 573d cf92 243e 0c11 1ebe
00000370: 14f7 ed3d 7148 5e3d de10 f4bc 9113 ab3e
00000380: d839 9abe 4269 d83d b69a 163e ed71 143e
00000390: 8209 973c aa0f 91bd 0549 7f3e a90c 603e
000003a0: 0ffe 5c3e bfdb cbbc 86ff 453e a6c1 b33e
000003b0: 0b90 873e ae7a d5bc 2db7 d53e 9d12 383e
000003c0: cc02 493e fcbd 083e 7095 8b3c 2adf 673c
000003d0: d471 d0bd cfbe 0cbd 51fe baba 74ce 2a3e
000003e0: f93e be3e 9fc0 833d 8fcf bf3b 0486 803e
000003f0: 49a0 d33c 148a 8ebe 3a95 40bc 55ba 463e

encoder.lnLst.0.2.bias f4 [32]
0.06512719 0.02081559 0.038257666 0.07662759 -0.1781746 -0.08206854 0.13622737 0.13278605
-0.24420078 0.02892663 -0.008083796 -0.1412386 0.066977724 -0.059649147 -0.035129488 -0.10077057
-0.047087956 -0.09100715 0.015474511 -0.13711675 -0.069264166 0.14892456 -0.1724592 -0.17718382
-0.06270607 -0.09891504 0.21043341 -0.182416 -0.004742124 -0.13742419 0.03252939 -0.07998304
00000000: 6761 853d 7585 aa3c 12b4 1c3d edee 9c3d
00000010: 6773 36be 8d13 a8bd 307f 0b3e 11f9 073e
00000020: c50f 7abe 8af7 ec3c e671 04bc daa0 10be
00000030: 9e2b 893d aa52 74bd f0e3 0fbd cd60 cebd
00000040: 4ddf 40bd f561 babd ce88 7d3c 5568 0cbe
00000050: 5fda 8dbd ae7f 183e 2599 30be ad6f 35be
00000060: 0a6c 80bd f893 cabd db7b 573e 43cb 3abe
00000070: d263 9bbb edb8 0cbe 8a3d 053d 26ce a3bd

encoder.lnLst.1.0.weight f4 [32, 8]
0.03552896 0.053480897 -0.19988166 0.35721815 0.0371808 -0.31977183 -0.33694324 -0.3152717
-0.34709522 -0.16092142 -0.014490923 -0.3258674 -0.2961049 0.120766886 -0.16567603 -0.16740167
-0.32208997 -0.26399526 0.32879606 -0.07954364 -0.22417286 -0.010591343 0.43458503 0.16549796
-0.31965402 0.310643 -0.057541445 0.3117009 -0.1010263 0.09482074 -0.14904504 -0.23475702
0.30277845 -0.056630604 0.2723226 0.39676803 -0.356888 0.50848615 0.15725878 -0.023025576
-0.268577 -0.02239967 0.010185513 -0.3518127 -0.20814088 0.0030552708 -0.19956234 0.22245902
0.16133359 -0.055045757 -0.099374995 -0.06387354 0.22071359 0.19216777 -0.209251 -0.4399153
-0.11739225 -0.29008368 -0.14317107 0.09301925 0.12529416 -0.07350079 -0.11916142 0.20428516
0.105552435 -0.016461216 0.41280967 -0.069536164 -0.17066246 0.23509169 0.25009406 0.0037773545
-0.07556084 0.32987148 -0.22736089 0.045174345 -0.39358297 0.45529434 0.14528269 0.5957397
0.13825752 0.08331631 -0.27810392 0.20763233 -0.12151922 0.27971756 0.11827477 0.16253856
-0.17596881 -0.32260284 0.20895359 0.13388005 0.030234203 0.11612315 0.37035808 -0.21316428
-0.025652323 0.3611793 -0.19160426 0.10719577 -0.08277005 0.2191715 0.46212238 0.25175846
0.13069592 0.27521828 -0.21388265 -0.33613217 0.06018893 0.021075213 0.13390197 0.16964005
0.004274655 -0.060425427 -0.27711922 -0.36459446 -0.19942203 -0.20470259 -0.104973055 0.05853894
0.35366115 -0.11954052 -0.06156937 -0.032592848 -0.08975298 -0.14566945 -0.3271632 0.30584684
-0.07416448 0.16626586 -0.3790377 0.17876162 0.12786382 0.121427074 0.10318941 -0.32561257
-0.041229047 0.1899907 -0.2812062 0.34700778 -0.20168582 0.05202506 -0.19673422 0.100203596
-0.29329515 0.014037178 -0.11175511 0.12368503 -0.20791136 0.19948363 0.37443906 -0.068094246
0.16080059 0.17134924 0.31450176 0.35651943 -0.28022122 0.36634928 0.30458227 0.18056391
0.15915775 -0.14429794 0.3127396 0.26984304 -0.007377776 0.10817731 0.504514 0.20130858
0.37296715 -0.048467048 -0.39249447 -0.0759682 -0.05480777 0.3074799 0.2960895 -0.055969894
0.59981227 0.07527423 0.35584122 0.18581574 -0.51658744 -0.06659685 0.21994591 -0.35460994
0.3200895 -0.31800234 -0.24039282 0.19797482 0.061870042 -0.33017302 -0.040460028 0.022096854
0.14247684 -0.31615978 -0.20545083 -0.02109649 -0.36762303 0.040900722 -0.36566547 0.3029706
0.053659216 0.2031447 0.0810684 -0.38828176 0.26885882 -0.26239166 0.28668678 0.06214849
0.3509834 0.13280067 -0.015948607 -0.28171536 -0.07057456 -0.01794161 0.24253091 -0.16279697
-0.33130193 -0.33964655 -0.031377524 0.1645834 0.2822793 -0.17320113 0.16754065 -0.34447086
-0.12481613 0.034390874 0.1428404 -0.25438824 0.0090124365 -0.24235353 0.055039424 0.06636768
-0.35246053 -0.028439606 -0.38024908 0.17865925 -0.29228145 -0.4238579 0.29374775 0.2544805
-0.1616412 -0.43076116 0.2738155 0.07904419 -0.21498932 -0.17166634 -0.12757221 0.31410444
-0.12433754 -0.28513712 0.17802678 0.044169124 0.07666783 -0.36595964 0.3715129 0.17221066
00000000: d186 113d c90e 5b3d c7ad 4cbe 4ce5 b63e
00000010: e54a 183d 22b9 a3be d383 acbe 4b6b a1be
00000020: 77b6 b1be 96c8 24be 566b 6dbc 18d8 a6be
00000030: 109b 97be a154 f73d faa6 29be 586b 2bbe
00000040: fae8 a4be 632a 87be f557 a83e c7e7 a2bd
00000050: 928d 65be 5087 2dbc ee81 de3e 4c78 293e
00000060: b1a9 a3be 990c 9f3e 94b0 6bbd 4397 9f3e
00000070: e0e6 cebd 6031 c23d 439f 18be 2564 70be
00000080: c705 9b3e 7ef5 67bd de6d 8b3e 2e25 cb3e
00000090: 06ba b6be 262c 023f 7208 213e 22a0 bcbc
000000a0: ed82 89be 837f b7bc 23e1 263c cb20 b4be
000000b0: e222 55be f03a 483b 125a 4cbe 4ccc 633e
000000c0: a234 253e a977 61bd 1e85 cbbd 21d0 82bd
000000d0: be02 623e a1c7 443e e545 56be 943c e1be
000000e0: 596b f0bd d985 94be 709b 12be e080 be3d
000000f0: 1d4d 003e 9587 96bd e70a f4bd 2130 513e
00000100: e02b d83d acd9 86bc ca5b d33e fa68 8ebd
00000110: 24c2 2ebe e0bb 703e 540c 803e 7e8d 773b
00000120: a4bf 9abd eae4 a83e 4bd1 68be bc08 393d
00000130: b583 c9be 571c e93e fcc4 143e 6682 183f
00000140: 6193 0d3e bea1 aa3d a363 8ebe 929d 543e
00000150: 12df f8bd 2437 8f3e 0b3a f23d 8270 263e
00000160: 2b31 34be 332c a5be eef7 553e da17 093e
00000170: b8ad f73c f9d1 ed3d 939f bd3e bd47 5abe
00000180: d224 d2bc 7eec b83e e833 44be 7589 db3d
00000190: 5883 a9bd 7e6e 603e 4e9b ec3e 7ce6 803e
000001a0: 27d5 053e 69e9 8c3e 0e04 5bbe 8419 acbe
000001b0: ab88 763d eda5 ac3c 991d 093e 1fb6 2d3e
000001c0: 6812 8c3b a780 77bd 92e2 8dbe 20ac babe
000001d0: 4a35 4cbe 8e9d 51be 1dfc d6bd 87c6 6f3d
000001e0: 1313 b53e a9d1 f4bd 2a30 7cbd 1480 05bd
000001f0: 69d0 b7bd 5f2a 15be ef81 a7be f597 9c3e
00000200: 8ce3 97bd 9941 2a3e 3b11 c2be 490d 373e
00000210: bcee 023e c2ae f83d f854 d33d b1b6 a6be
00000220: cadf 28bd ec8c 423e 42fa 8fbe 01ab b13e
00000230: ba86 4ebe 3b18 553d b274 49be 8b37 cd3d
00000240: c82a 96be 31fc 653c dddf e4bd 944e fd3d
00000250: b7e6 54be 7045 4c3e 7ab6 bf3e ff74 8bbd
00000260: e9a8 243e 2d76 2f3e 6006 a13e b789 b63e
00000270: 2879 8fbe 2292 bb3e 35f2 9b3e bfe5 383e
00000280: 40fa 223e d7c2 13be 681f a03e de28 8a3e
00000290: 45c1 f1bb 118c dd3d d427 013f d623 4e3e
000002a0: 8df5 be3e 6285 46bd 09f5 c8be 3795 9bbd
000002b0: 1d7e 60bd 016e 9d3e 0b99 973e b040 65bd
000002c0: 4c8d 193f 6029 9a3d d230 b63e 7b46 3e3e
000002d0: 133f 04bf ee63 88bd 8039 613e 6f8f b5be
000002e0: c5e2 a33e 34d1 a2be 8929 76be e9b9 4a3e
000002f0: 716b 7d3d 700c a9be 6ab9 25bd 7604 b53c
00000300: 73e5 113e b2df a1be b461 52be 8cd2 acbc
00000310: 1639 bcbe 8487 273d 8138 bbbe f61e 9b3e
00000320: c4c9 5b3d 2a05 503e 3007 a63d decc c6be
00000330: dda7 893e 3358 86be 9cc8 923e 6a8f 7e3d
00000340: 19b4 b33e e6fc 073e a7a6 82bc ff3c 90be
00000350: 6589 90bd 49fa 92bc 065a 783e 40b4 26be
00000360: 68a0 a9be 27e6 adbe b885 00bd 8d88 283e
00000370: ea86 903e a35b 31be c78f 2b3e 7c5e b0be
00000380: 999f ffbd 72dd 0c3d c144 123e 2d3f 82be
00000390: e6a8 133c 862b 78be 0571 613d c7eb 873d
000003a0: b575 b4be 2dfa e8bc 02b0 c2be 73f2 363e
000003b0: eaa5 95be e703 d9be 1b66 963e 454b 823e
000003c0: 4585 25be ba8c dcbe 8c31 8c3e ece1 a13d
000003d0: 2926 5cbe 4dc9 2fbe 4aa2 02be 4cd2 a03e
000003e0: aea4 febd 7efd 91be a74c 363e afea 343d
000003f0: 0604 9d3d 105f bbbe f036 be3e fe57 303e

encoder.lnLst.1.0.bias f4 [32]
-0.119337775 0.2674639 0.18673003 -0.050047696 0.27632344 -0.15597221 -0.2524897 -0.04887791
0.13380325 -0.03175437 0.2804867 0.017239785 0.13680203 0.009158387 -0.2194325 -0.04607974
-0.038229577 -0.10175543 0.33369038 -0.16356963 0.2794281 0.37450907 0.028029587 0.0047621764
0.00740058 -0.4272222 -0.34475148 0.025965072 -0.18948464 -0.15661147 0.016416898 -0.35052824
00000000: 5d67 f4bd 07f1 883e 2836 3f3e d0fe 4cbd
00000010: 447a 8d3e 2eb7 1fbe 5446 81be 3434 48bd
00000020: b803 093e df10 02bd f49b 8f3e 733a 8d3c
00000030: d515 0c3e 0f0d 163c eab2 60be 1cbe 3cbd
00000040: 9e96 1cbd 2765 d0bd 77d9 aa3e cc7e 27be
00000050: 3311 8f3e a7bf bf3e 4e9e e53c 080c 9c3b
00000060: 9180 f23b debc dabe 4483 b0be b4b4 d43c
00000070: 4308 42be c25e 20be bb7c 863c 7078 b3be

encoder.lnLst.1.2.weight f4 [32, 32]
0.026835633 -0.09853293 -4.6220146e-05 -0.27070266 -0.1267225 -0.10772532 -0.09021004 0.022222808
-0.070185475 0.089196436 0.088770986 -0.15383664 -0.11997611 -0.13430332 -0.073865466 0.26934898
0.032610893 -0.12595639 0.14965619 0.30173513 -0.19983557 0.18375742 -0.08077412 -0.09698857
0.073800616 -0.19085069 0.1818335 0.16472659 -0.23898706 0.086318314 0.12067408 -0.26758865
-0.19620457 -0.21080662 -0.050839417 -0.004730906 0.037775744 0.17907694 -0.10254135 -0.211613
-0.27144212 0.05176452 -0.23071569 0.0912257 0.20419343 -0.049292795 -0.107448064 -0.30498263
0.28036144 -0.10126835 -0.13856104 0.017791232 0.015049129 0.0211086 0.12257494 -0.25939846
-0.24837106 0.3084618 0.0008454591 0.1603459 0.09032638 0.20111668 0.06940431 0.22380409
-0.0041727233 0.19393708 0.22592469 0.11317805 0.19508778 0.004679039 -0.07689582 -0.23551844
0.3311805 0.511165 0.30268574 0.2821782 0.28355384 0.063637435 0.28360733 0.14901881
-0.050481576 0.19885014 0.2995972 0.2991506 0.32621327 0.1895788 -0.08717111 0.26849926
0.08024309 0.011829477 0.16712543 -0.22901121 -0.18930861 0.15143093 0.18579066 -0.17793912
-0.24143447 0.21931979 -0.022827351 0.23705232 -0.26582652 -0.13838345 0.0029899455 -0.102796294
-0.18509999 -0.21317326 -0.10430907 0.08497391 -0.0014166406 -0.18296002 0.1707649 -0.15404417
-0.22484292 0.25040904 -0.24575871 -0.07353637 -0.3213702 0.057458736 0.2057745 -0.32551062
0.2013178 0.1654359 0.22567226 0.05648803 0.22455983 -0.14253694 0.17265314 -0.13128193
-0.08632725 -0.3369283 -0.19253777 -0.29517356 0.19474645 0.04889339 0.12548216 -0.15233088
0.027670916 -0.23336068 0.26958004 -0.19488369 0.2911037 -0.19762342 0.1804356 -0.11721823
0.020939773 0.1568614 0.16323179 -0.26423803 -0.07606338 0.047212105 0.08224739 0.1245862
0.083200656 -0.1725428 0.053128604 -0.07868284 0.15825559 0.09605802 -0.08131184 -0.27888966
0.15178129 -0.2517591 -0.121767834 0.09978374 0.158889 -0.25808978 0.22434235 -0.055738572
0.09656265 0.36604118 -0.043063622 0.04255299 0.25616226 -0.13244776 0.14459363 0.07860951
0.21275645 -0.2293372 0.07848768 0.113792524 0.10011116 -0.063394755 -0.21409163 0.210472
0.15561329 -0.30301067 -0.054973323 0.13211574 0.19077246 -0.16218434 -0.07634492 -0.009150866
0.07166781 -0.3050258 -0.048453677 0.2500658 -0.14886186 0.010271096 0.095918 -0.28737798
-0.13100785 -0.48724073 -0.37172422 -0.25507972 -0.38508597 -0.32090187 -0.059748232 -0.0125034135
-0.04476622 -0.17449802 -0.26911217 -0.43811697 -0.17088225 -0.3598799 -0.45975962 -0.011680986
-0.015567129 -0.22936472 -0.08948207 0.23261784 0.26212093 0.023723522 -0.19212808 0.27864456
-0.038304124 -0.19247985 0.12591219 0.10302299 0.39224687 -0.06980215 0.07790613 0.2831458
0.059740197 0.3459489 0.4989223 0.08829505 0.30924225 0.15099287 0.17689613 0.09028667
-0.12347062 0.10270442 0.4168927 0.36293796 0.36301163 0.15265436 0.06406833 0.19370206
-0.13553594 0.32613862 0.30424353 0.13026659 -0.28561816 -0.2894473 -0.089642644 -0.28272954
00000000: 67d6 db3c a2cb c9bd 81dc 41b8 8a99 8abe
00000010: 8bc3 01be 189f dcbd 0bc0 b8bd 9b0c b63c
00000020: 67bd 8fbd 9fac b63d 90cd b53d 5a87 1dbe
00000030: 09b6 f5bd cf86 09be c746 97bd 1ce8 893e
00000040: 0093 053d b6fa 00be 793f 193e 077d 9a3e
00000050: b2a1 4cbe e82a 3c3e e76c a5bd f2a1 c6bd
00000060: c724 973d 5d6e 43be 9032 3a3e 16ae 283e
00000070: 06b9 74be a8c7 b03d f923 f73d 6101 89be
00000080: dae9 48be b1dd 57be fe3c 50bd b705 9bbb
00000090: bdba 1a3d f25f 373e 3301 d2bd 14b1 58be
000000a0: 76fa 8abe 0907 543d bc40 6cbe 8ad4 ba3d
000000b0: 1518 513e 3ee7 49bd bb0d dcbd af26 9cbe
000000c0: 898b 8f3e c865 cfbd f2e2 0dbe ebbe 913c
000000d0: 9f90 763c f1eb ac3c 9208 fb3d e0cf 84be
000000e0: fc54 7ebe b4ee 9d3e cda1 5d3a b731 243e
000000f0: 0afd b83d 88f1 4d3e d923 8e3d e62c 653e
00000100: 57bb 88bb 7197 463e cd58 673e e5c9 e73d
00000110: 17c5 473e a052 993b 8e7b 9dbd bf2b 71be
00000120: 7e90 a93e b6db 023f a0f9 9a3e a979 903e
00000130: f82d 913e 5854 823d fb34 913e 6398 183e
00000140: c5c5 4ebd 5f9f 4b3e ce64 993e 442a 993e
00000150: 6d05 a73e f220 423e c486 b2bd bc78 893e
00000160: 7d56 a43d 6cd0 413c ee22 2b3e ea81 6abe
00000170: 1eda 41be b610 1b3e e83f 3e3e ac35 36be
00000180: 993a 77be 5e95 603e 6d00 bbbc d8bd 723e
00000190: 6a1a 88be 64b4 0dbe f6f2 433b dd86 d2bd
000001a0: da8a 3dbe 174a 5abe fe9f d5bd cd06 ae3d
000001b0: 92ae b9ba df59 3bbe fedc 2e3e c1bd 1dbe
000001c0: 393d 66be 9d35 803e 2ca8 7bbe 3d9a 96bd
000001d0: a38a a4be da59 6b3d 8db6 523e 54a9 a6be
000001e0: 4126 4e3e 0768 293e a116 673e fe5f 673d
000001f0: 03f3 653e 34f5 11be fccb 303e c56e 06be
00000200: 57cc b0bd de81 acbe 9f28 45be fd20 97be
00000210: 9d6b 473e 6f44 483d 657e 003e a0fc 1bbe
00000220: 1eae e23c 1af6 6ebe 6506 8a3e 978f 47be
00000230: 8b0b 953e cb5d 4abe 1cc4 383e 1d10 f0bd
00000240: e389 ab3c 46a0 203e 3c26 273e 354a 87be
00000250: 1ec7 9bbd 7b61 413d 5271 a83d 0d27 ff3d
00000260: 1b65 aa3d 0faf 30be 619d 593d 7824 a1bd
00000270: c10d 223e 11ba c43d d286 a6bd a0ca 8ebe
00000280: 8e6c 1b3e 92e6 80be 6a61 f9bd 6b5b cc3d
00000290: ccb3 223e 5824 84be 00ba 653e 214e 64bd
000002a0: a3c2 c53d c069 bb3e 7b63 30bd 0b4c 2e3d
000002b0: b327 833e 63a0 07be 5a10 143e 06fe a03d
000002c0: d4dc 593e 5fd7 6abe 26be a03d 0e0c e93d
000002d0: 1407 cd3d 1cd5 81bd d63a 5bbe f985 573e
000002e0: 1759 1f3e 3724 9bbe b52b 61bd 5949 073e
000002f0: db59 433e a713 26be ba5a 9cbd 84ed 15bc
00000300: 93c6 923d 572c 9cbe 5d77 46bd a008 803e
00000310: 3e6f 18be 1948 283c a870 c43d 3523 93be
00000320: ec26 06be 9e77 f9be a352 bebe cf99 82be
00000330: fd29 c5be 404d a4be 90ba 74bd 1edb 4cbc
00000340: c95c 37bd 9caf 32be 12c9 89be de50 e0be
00000350: c2fb 2ebe 2e42 b8be 9d65 ebbe 9b61 3fbc
00000360: 450d 7fbc 96de 6abe 6042 b7bd 5f33 6e3e
00000370: b734 863e d557 c23c 39bd 44be 80aa 8e3e
00000380: c9e4 1cbd 7019 45be 20ef 003e b8fd d23d
00000390: 95d4 c83e 6ef4 8ebd 408d 9f3d 7cf8 903e
000003a0: 23b2 743d 3720 b13e be72 ff3e 09d4 b43d
000003b0: 0055 9e3e e09d 1a3e 4224 353e 38e8 b83d
000003c0: 2ade fcbd b256 d23d f672 d53e 01d3 b93e
000003d0: a9dc b93e 6d51 1c3e 4236 833d d559 463e
000003e0: efc9 0abe a4fb a63e cfc5 9b3e 9b64 053e
000003f0: 8b3c 92be 7032 94be 9096 b7bd edc1 90be

encoder.lnLst.1.2.bias f4 [32]
0.0491926 -0.10820873 0.2404899 0.08336394 0.1417194 0.124865346 0.107066736 0.10806862
0.07333288 -0.17129944 -0.18154204 -0.23178925 -0.050980303 -0.08649379 0.15961327 0.2054822
0.043572225 0.01004072 -0.03614388 0.062265024 -0.021811245 0.062677994 0.076607615 -0.08657218
-0.1390858 -0.114955276 -0.19323677 -0.13867758 0.19572754 -0.06789858 -0.11551654 0.0005738622
00000000: 2e7e 493d 8a9c ddbd fc42 763e b7ba aa3d
00000010: e41e 113e 67b9 ff3d ce45 db3d 1553 dd3d
00000020: 8d2f 963d 1f69 2fbe 28e6 39be 295a 6dbe
00000030: b9d0 50bd a823 b1bd a971 233e ed69 523e
00000040: ca78 323d d581 243c 9b0b 14bd 9c09 7f3d
00000050: 7fad b2bc 525d 803d 74e4 9c3d c14c b1bd
00000060: 826c 0ebe ac6d ebbd dcdf 45be 7f01 0ebe
00000070: cd6c 483e 690e 8bbd f093 ecbd 3e6f 163a

encoder.lnLst.2.0.weight f4 [32, 7]
0.13396324 0.36454183 0.3248508 -0.0332548 -0.2579139 -0.20334974 -0.048162956 -0.19176203
0.3351067 -0.35002673 -0.4044287 0.11175104 0.23129034 -0.056960255 -0.29502472 -0.3110702
-0.22958413 -0.10187284 -0.1646945 -0.46440768 0.099897064 0.26160917 -0.1872694 -0.37267354
0.2725576 -0.2801803 -0.23131566 -0.17774187 0.20056495 -0.2512946 -0.27371466 -0.17895325
-0.20246041 -0.1833207 0.06468179 -0.023778176 0.10185919 -0.32604843 -0.12339267 -0.10688728
0.2111948 -0.14253627 0.0724871 0.47647247 -0.14890033 0.07130933 0.36812928 0.14099929
0.07227558 0.27730682 -0.40688512 0.29673406 0.23410434 -0.14352192 -0.37167692 -0.20057306
0.2735041 -0.324524 0.31550756 -0.351366 0.35573304 0.15970108 -0.3369164 0.07908294
0.4988586 0.15930882 0.26448035 0.40134892 0.16082594 -0.27919024 0.14971207 0.32504025
-0.0529868 -0.29031676 -0.0665776 -0.27010104 0.25260168 0.190926 -0.23692594 -0.1169671
0.23190208 -0.33652747 0.06815369 0.1737834 -0.3067017 0.23461418 0.35017413 -0.24350573
0.36950055 -0.30161828 -0.24430351 -0.3895693 0.08380061 0.24748474 -0.07784821 -0.03355087
-0.22626738 -0.054451153 -0.17386483 0.624948 0.08429009 0.40358442 0.4148772 0.07934035
-0.24230163 0.4366859 0.5335461 0.51992667 0.24593475 0.10807297 0.27669346 -0.09367985
0.12364221 -0.21063586 -0.10171887 -0.1416302 -0.01818854 0.028321218 -0.40052065 0.002640409
0.0950615 -0.06385909 -0.15028547 -0.041818056 -0.16649553 0.044187035 -0.32701245 -0.3268933
0.11914122 0.1699195 -0.28283843 0.122750916 0.11561929 -0.20238265 0.020615097 0.25029355
0.3130585 -0.30393344 0.2955413 0.08264701 -0.39774832 0.9164516 0.71754974 0.1855286
0.20706974 -0.51597774 -0.7193372 0.32972443 -0.03128298 -0.19859494 -0.3015405 -0.2065714
-0.35104576 0.16742353 -0.23507524 0.21114384 -0.012960448 -0.20097716 -0.12800157 -0.33502966
-0.19530606 -0.13744046 0.22504671 -0.031960182 -0.18829156 0.2174811 0.02369749 -0.03853315
0.1424886 0.13863279 0.33395463 -0.2595991 -0.17232874 -0.32507953 -0.14759256 0.40791598
0.2205833 -0.15019543 -0.03813347 -0.2757475 0.24287929 0.24662559 0.2552399 -0.23984963
0.2870736 -0.43138137 -0.38024577 -0.14197972 -0.021005148 -0.38697314 0.08922243 0.2832823
0.13342169 0.074603386 -0.046393987 0.31122762 0.08963672 -0.10130752 0.2805318 0.08774681
-0.11685591 -0.09598722 -0.29200336 0.63175416 0.32776967 1.2402971 0.6778686 -0.08639119
0.4753491 0.08492607 -0.3526317 0.035756104 0.117999494 0.36205685 0.16617674 -0.3065016
-0.3850961 0.07772023 -0.20589365 -0.15048863 -0.14256492 0.0545767 -0.05631959 -0.30090347
00000000: a92d 093e 3aa5 ba3e d852 a63e 2f36 08bd
00000010: 4a0d 84be ea3a 50be 8546 45bd 445d 44be
00000020: 1b93 ab3e b436 b3be 4711 cfbe bbdd e43d
00000030: 60d7 6c3e 284f 69bd 7b0d 97be 9844 9fbe
00000040: 1a18 6bbe b5a2 d0bd ada5 28be d8c6 edbe
00000050: d596 cc3d a3f1 853e 8dc3 3fbe 11cf bebe
00000060: ab8c 8b3e cb73 8fbe 03de 6cbe f701 36be
00000070: e660 4d3e b0a9 80be 5424 8cbe 853f 37be
00000080: c851 4fbe 6cb8 3bbe e377 843d 73ca c2bc
00000090: 8d9b d03d d2ef a6be 4cb5 fcbd b8e7 dabd
000000a0: 7343 583e 07f5 11be 1e74 943d 33f4 f33e
000000b0: 5479 18be a00a 923d 717b bc3e 1e62 103e
000000c0: 3805 943d 29fb 8d3e 3f53 d0be 87ed 973e
000000d0: 0cb9 6f3e 69f7 12be 704c bebe 0663 4dbe
000000e0: bb08 8c3e 0228 a6be 358a a13e 3fe6 b3be
000000f0: a422 b63e ae88 233e 4e80 acbe 3df6 a13d
00000100: 656a ff3e da21 233e f869 873e 9b7d cd3e
00000110: 8eaf 243e 06f2 8ebe 1f4e 193e ad6b a63e
00000120: b008 59bd 66a4 94be d659 88bd af4a 8abe
00000130: 0255 813e 1b82 433e b79c 72be 728c efbd
00000140: bd77 6d3e 544d acbe 2994 8b3d 47f4 313e
00000150: 0108 9dbe b33e 703e 064a b33e 9159 79be
00000160: 2d2f bd3e b66d 9abe b32a 7abe a175 c7be
00000170: a79f ab3d a46c 7d3e e26e 9fbd a36c 09bd
00000180: a3b2 67be 2c08 5fbd 9f09 32be 98fc 1f3f
00000190: 48a0 ac3d 9ea2 ce3e c96a d43e 327d a23d
000001a0: eb1d 78be 4b95 df3e 7a96 083f ea19 053f
000001b0: 52d6 7b3e 5c55 dd3d c4aa 8d3e 39db bfbd
000001c0: 2138 fd3d edb0 57be fc51 d0bd 8207 11be
000001d0: 2200 95bc e601 e83c 0b11 cdbe b60a 2d3b
000001e0: 9baf c23d 8ec8 82bd 6fe4 19be 6949 2bbd
000001f0: ce7d 2abe 77fd 343d 2d6e a7be 8f5e a7be
00000200: 5000 f43d 61ff 2d3e 33d0 90be d564 fb3d
00000210: cec9 ec3d 663d 4fbe fee0 a83c 7a26 803e
00000220: 3449 a03e 2a9d 9bbe 3051 973e d642 a93d
00000230: aba5 cbbe 929c 6a3f 57b1 373f 36fb 3d3e
00000240: 170a 543e 1e17 04bf 7c26 38bf a4d1 a83e
00000250: 9522 00bd 795c 4bbe 8463 9abe 7487 53be
00000260: 45bc b3be 1371 2b3e 90b7 70be 1736 583e
00000270: 0f58 54bc f5cc 4dbe d812 03be 0289 abbe
00000280: 50fe 47be 31bd 0cbe a572 663e aee8 02bd
00000290: 81cf 40be 5eb3 5e3e 3d21 c23c f0d4 1dbd
000002a0: 88e8 113e c1f5 0d3e 1afc aa3e 2cea 84be
000002b0: f276 30be d370 a6be 8122 17be 5dda d03e
000002c0: 97e0 613e d5cc 19be d731 1cbd c72e 8dbe
000002d0: 59b5 783e 6b8b 7c3e ceae 823e 249b 75be
000002e0: 50fb 923e 05de dcbe 93af c2be 2263 11be
000002f0: fd12 acbc 5821 c6be 40ba b63d 610a 913e
00000300: b29f 083e a9c9 983d 9f07 3ebd 3a59 9f3e
00000310: 7593 b73d 517a cfbd dda1 8f3e 99b4 b33d
00000320: 2752 efbd f394 c4bd 7781 95be a4ba 213f
00000330: 6dd1 a73e 0ec2 9e3f cc88 2d3f dded b0bd
00000340: f560 f33e b8ed ad3d 248c b4be fe74 123d
00000350: b8a9 f13d 845f b93e 3c2a 2a3e c7ed 9cbe
00000360: 512b c5be c92b 9f3d c9d5 52be b119 1abe
00000370: 8afc 11be d18b 5f3d 5faf 66bd 0510 9abe

encoder.lnLst.2.0.bias f4 [32]
-0.22285202 -0.30361924 0.1298524 0.17682388 -0.06330099 -0.17420232 0.101315096 -0.097071365
-0.2928673 -0.06065208 -0.08925006 -0.1470155 0.37529713 -0.10736626 -0.11299672 -0.23524013
-0.02354456 -0.12492163 -0.28156322 0.34557045 0.21928476 -0.36270282 -0.03366285 0.12464078
-0.014938991 0.35849258 0.110672645 -0.27891973 -0.21905978 0.12037532 -0.3250836 -0.08348935
00000000: 5233 64be fb73 9bbe 07f8 043e 5211 353e
00000010: f3a3 81bd 1862 32be 4a7e cf3d 5acd c6bd
00000020: b4f2 95be 516e 78bd bcc8 b6bd 3b8b 16be
00000030: f226 c03e d7e2 dbbd d36a e7bd cae2 70be
00000040: 85e0 c0bc e9d6 ffbd 0e29 90be 9cee b03e
00000050: 2f8c 603e 2fb4 b9be 0ee2 09bd aa43 ff3d
00000060: abc2 74bc 578c b73e 57a8 e23d 91ce 8ebe
00000070: 3551 60be 5687 f63d 5c71 a6be 77fc aabd

encoder.lnLst.2.2.weight f4 [32, 32]
-0.27145842 0.14293887 0.22730671 0.24291632 -0.17356154 0.12179339 0.0046904497 -0.13999118
0.15949029 -0.16693865 -0.1923109 -0.07480371 0.22910786 -0.04479985 0.1539565 -0.25802833
-0.03246015 0.19312717 0.03595938 0.060713463 -0.14443053 0.037158087 0.08159866 -0.26980674
-0.2097072 0.24448428 -0.201758 0.08952617 -0.2120479 0.18942514 0.25084782 -0.012038182
-0.23224625 0.1715215 0.2581026 0.2607045 -0.14843835 0.12487193 -0.21466577 0.27266556
0.07439075 -0.29642728 0.14928757 0.29565555 0.056496534 0.15680239 0.060535483 -0.20534527
0.29707605 0.034574818 -0.21364672 0.20797671 -0.94729805 -0.20871788 -0.14432257 -0.17953724
-0.31482723 0.15163822 0.22224985 0.09350286 -0.11221797 0.1995237 -0.07101396 0.108393095
0.03914849 -0.047528338 -0.11342403 0.22351411 0.013947655 0.298499 0.25269997 -0.13050394
0.2749848 -0.1703387 0.0060540787 -0.055438355 0.09918074 -0.09416314 -0.26493186 0.2569328
0.040305663 -0.004719591 0.27865005 -0.10626827 -0.1168476 -0.2236048 0.2990517 -0.10762707
0.24605174 0.22513182 -0.20645332 -0.31544936 -0.28266582 -0.115779676 -0.052894548 0.13965847
-0.29496533 0.19150881 -0.25772375 0.13364817 0.23335765 0.0725973 0.15994449 -0.08158705
-0.022154115 0.15025398 0.02784967 -0.11318406 -0.33045715 0.26174 -0.09322607 0.1920171
0.017673464 -0.119865924 -0.038022924 -0.17914027 0.768137 -0.25479952 0.23505394 0.09480141
0.042855803 -0.033264562 0.0046842904 0.35574883 -0.07218663 0.24619044 -0.23420128 -0.16942792
-0.2969571 0.1405233 0.20689149 -0.13592872 0.26499692 0.21006338 0.16577204 -0.17489262
-0.21734847 -0.13728806 -0.31522483 -0.045535117 -0.25677025 0.020506421 -0.013745965 0.1433491
-0.2671952 0.23724876 -0.2893436 -0.15704674 0.27606228 -0.14574046 0.26324224 -0.32778427
-0.21009746 -0.10451492 0.019229848 -0.25277913 0.17999786 0.2720703 -0.0914073 -0.14756125
0.070856094 -0.30283532 0.24606945 0.12300963 0.28302017 -0.0014731133 -0.35327303 0.047978397
-0.06806007 -0.3245218 0.110460505 -0.1296874 -0.36778364 -0.2951696 -0.57128644 0.19231798
-0.24201986 0.20818074 -0.07729642 -0.23268516 -0.6988767 -0.05118396 -0.2944467 -0.2831219
0.26453397 -0.3346081 0.13022155 -0.34760252 -0.028868714 -0.078982614 -0.008867734 0.24889717
0.017816968 0.05328315 -0.05803697 0.19699751 0.1731353 -0.2261989 -0.1862946 0.24936123
0.16503146 0.2085555 -0.14241832 -0.22409935 0.29390684 0.116745956 0.5040126 0.48948327
-0.15322255 -0.1568936 -0.20985545 0.17844948 1.2238908 0.214258 -0.30190527 0.18453166
-0.08106677 -0.04347605 -0.06391402 0.23772256 -0.103488415 0.10991132 0.26173076 -0.035188314
0.3678181 0.0042086635 -0.09137386 0.24700513 0.15746431 -0.14024536 0.37650898 -0.15553145
0.0379389 0.1648513 0.20844364 0.20704888 -0.19885027 -0.024258353 0.13483118 0.42007482
0.061787184 -0.26783013 0.0014791358 0.17215791 -0.23220016 0.0019061887 0.0937378 -0.04932008
0.377868 0.35456562 -0.089162104 0.011034037 0.0059643486 0.4224749 0.00017385065 -0.29523736
00000000: 99fc 8abe 915e 123e 17c3 683e 0ebf 783e
00000010: 1eba 31be d06e f93d 58b2 993b d959 0fbe
00000020: 6c51 233e f7f1 2abe 26ed 44be b032 99bd
00000030: 409b 6a3e 0c80 37bd c6a6 1d3e 4a1c 84be
00000040: eff4 04bd 21c3 453e 254a 133d aeae 783d
00000050: 99e5 13be 1433 183d 331d a73d 1c24 8abe
00000060: 7cbd 56be 165a 7a3e a699 4ebe 7f59 b73d
00000070: 1623 59be aaf8 413e 206f 803e cb3b 45bc
00000080: f6d1 6dbe 55a3 2f3e 0626 843e 0f7b 853e
00000090: 3900 18be dbbc ff3d 58d1 5bbe d29a 8b3e
000000a0: 2d5a 983d 51c5 97be d7de 183e 2a60 973e
000000b0: e968 673d ce90 203e 0ef4 773d 0846 52be
000000c0: 5a1a 983e 539e 0d3d 35c6 5abe d9f7 543e
000000d0: 2082 72bf 24ba 55be 4cc9 13be 9cd8 37be
000000e0: 0931 a1be 0d47 1b3e 7795 633e 6d7e bf3d
000000f0: 89d2 e5bd f14f 4c3e c46f 91bd 33fd dd3d
00000100: 2b5a 203d 13ad 42bd dc4a e8bd e2e0 643e
00000110: b584 643c dcd4 983e e461 813e d3a2 05be
00000120: cfca 8c3e 456d 2ebe 4b61 c63b 5413 63bd
00000130: 461f cb3d 9bd8 c0bd 26a5 87be b28c 833e
00000140: 8d17 253d cca6 9abb 38ab 8e3e 2ea3 d9bd
00000150: cb4d efbd a8f8 64be 4e1d 993e 956b dcbd
00000160: fdf4 7b3e f588 663e 8068 53be 9482 a1be
00000170: 93b9 90be e51d edbd f4a7 58bd a102 0f3e
00000180: b205 97be e31a 443e 5ef4 83be 11db 083e
00000190: 4ff5 6e3e e5ad 943d 7dc8 233e 1c17 a7bd
000001a0: 8c7c b5bc 2edc 193e fe24 e43c 0bcd e7bd
000001b0: ae31 a9be c902 863e 4fed bebd 21a0 443e
000001c0: f1c7 903c 447c f5bd edbd 1bbd 8c70 37be
000001d0: a0a4 443f 1575 82be fbb1 703e 3e27 c23d
000001e0: 9189 2f3d 6c40 08bd ad7e 993b b624 b63e
000001f0: 95d6 93bd 5919 7c3e 76d2 6fbe 837e 2dbe
00000200: c30a 98be 57e5 0f3e 5ddb 533e e630 0bbe
00000210: adad 873e db1a 573e 25c0 293e 0d17 33be
00000220: 9990 5ebe 3e95 0cbe 2665 a1be 0883 3abd
00000230: 6477 83be 15fd a73c c236 61bc 1bca 123e
00000240: cfcd 88be 57f1 723e d824 94be dcd0 20be
00000250: 0958 8d3e fd3c 15be b0c7 863e 57d3 a7be
00000260: ca23 57be eb0b d6bd ea87 9d3c 446c 81be
00000270: 5c51 383e cc4c 8b3e c033 bbbd 4c1a 17be
00000280: 001d 913d 3b0d 9bbe a1f9 7b3e 79ec fb3d
00000290: 05e8 903e 7b15 c1ba 34e0 b4be ff84 443d
000002a0: 1463 8bbd b927 a6be 1e39 e23d c6cc 04be
000002b0: 234e bcbe 7820 97be d43f 12bf 01ef 443e
000002c0: 0ed4 77be 552d 553e 964d 9ebd 0545 6ebe
000002d0: 95e9 32bf 46a6 51bd b8c1 96be 5bf5 90be
000002e0: ff70 873e c151 abbe cc58 053e f5f8 b1be
000002f0: 157e ecbc a3c1 a1bd f949 11bc e6de 7e3e
00000300: e4f4 913c 6f3f 5a3d 2db8 6dbd b7b9 493e
00000310: 614a 313e afa0 67be 03c4 3ebe 8d58 7f3e
00000320: 02fe 283e 938f 553e 1cd6 11be 4d7a 65be
00000330: f57a 963e 8118 ef3d f806 013f 8d9d fa3e
00000340: 5fe6 1cbe b7a8 20be 59e4 56be 76bb 363e
00000350: 74a8 9c3f 7366 5b3e 5493 9abe def5 3c3e
00000360: 5606 a6bd f113 32bd 5be5 82bd 8b6d 733e
00000370: bcf1 d3bd 3019 e13d 9301 863e 9f21 10bd
00000380: a752 bc3e d4e8 893b 3822 bbbd eaee 7c3e
00000390: 533e 213e 7b9c 0fbe c9c5 c03e a343 1fbe
000003a0: d265 1b3d c7ce 283e 4072 553e 9f04 543e
000003b0: 689f 4bbe 74b9 c6bc 2f11 0a3e 0c14 d73e
000003c0: 8f14 7d3d 0821 89be 90df c13a 2a4a 303e
000003d0: e1c5 6dbe 14d9 f93a 9bf9 bf3d da03 4abd
000003e0: ea77 c13e a089 b53e 9f9a b6bd 1bc8 343c
000003f0: 9570 c33b a14e d83e ae4b 3639 5a29 97be
