app/vegetation/attention/andy/src/best_model.pth (torch, 55490 bytes, 27 tensors)

encoder.lnXc.0.weight f4 [32, 15]
-0.22813153 0.29882804 -0.033331525 0.27973726 0.19200508 0.07125376 -0.063664444 0.08117432
-0.14561485 0.019708056 -0.22242416 0.029388135 0.33051875 -0.008130082 0.20079304 -0.25313425
-0.350209 0.061105963 -0.2889193 -0.053899933 0.32009336 -0.28649405 -0.15615633 0.17186402
-0.19344902 -0.29097435 0.15381844 0.3390677 -0.02490511 -0.13195123 0.2558833 0.016054407
0.19539158 0.12584981 0.26637137 -0.33919603 0.0299927 -0.28956562 0.3090401 0.058906905
0.028766748 -0.031942345 -0.26465368 -0.29633713 0.10536553 -0.12187099 -0.3138138 -0.32418337
-0.32751554 -0.044060394 -0.01532555 0.1410009 0.09860243 -0.114816934 -0.193276 -0.34813443
0.069642305 0.09744475 -0.054697707 -0.31652662 -0.26594743 0.20700423 0.11257219 0.38850027
-0.047935333 0.37529606 -0.20082329 -0.19502316 0.12356304 0.32298324 -0.19546054 0.34229043
0.008796916 -0.31137696 0.31498745 0.054821026 0.06619961 -0.2957508 0.2841367 0.18439788
0.0071785324 -0.0036161763 0.29551548 0.204334 -0.31122497 0.25147402 0.16195369 -0.34051803
-0.19330692 -0.05701872 0.37468198 0.23331171 0.19022772 0.18093479 0.37699142 0.03936934
-0.15382428 -0.30524206 0.049385354 -0.28824872 0.06493946 -0.2122757 0.21646602 -0.11117767
0.08425247 0.034572087 0.23276868 0.10316463 -0.0011781938 -0.30805662 0.04000048 0.08605968
-0.27294302 -0.22755414 -0.0917868 0.0425771 -0.21043693 -0.3002602 -0.10262268 -0.3375209
-0.24157162 -0.24206212 -0.20098819 0.120382845 0.32211575 -0.21446103 0.25339445 0.21911713
-0.28824678 0.018537946 -0.15410063 0.02481081 -0.23992473 0.24588147 0.2695478 -0.12515478
-0.114714764 -0.11244186 0.048100423 -0.29410547 0.10638697 0.029768234 0.08439251 0.004561312
-0.192331 0.27011988 -0.2470925 -0.2813755 -0.1851138 0.016480284 0.26993412 0.2779608
0.1666437 0.26579747 -0.035183713 0.33288726 0.0771257 0.28329214 -0.3048061 0.008978063
0.04314567 -0.2119551 -0.31361145 -0.34509313 -0.036106605 0.0060644713 -0.26152664 0.29766032
-0.090303086 0.1468493 0.1375769 0.29453218 -0.32162237 0.15850468 0.09829303 0.11681062
0.07778734 0.25076574 -0.01712676 -0.14421827 -0.14407963 -0.26926976 0.03223826 -0.33696577
0.18635942 -0.055807643 0.026179148 0.03594654 0.24027684 -0.29385588 -0.08200633 -0.17026716
0.3161925 -0.055844605 0.34401336 0.18224469 -0.22628729 0.10719265 -0.015710576 0.21362948
0.12727974 0.0019843588 0.052934233 0.29181334 -0.045773268 0.2872563 0.09064928 -0.15124162
-0.30793846 -0.15556966 0.13264424 -0.16318059 -0.024448508 0.23161574 0.40928918 0.0313398
0.05512172 0.095667265 -0.11332269 0.08490418 0.17418954 0.045796692 -0.19481778 -0.19130152
-0.12265968 -0.27945375 -0.35709107 0.0497448 -0.0053468947 -0.33106083 -0.34857404 -0.03831151
-0.12382928 0.060024712 0.2894931 0.085245565 -0.050927516 0.17130098 0.31366053 -0.20588076
-0.37701175 0.24269696 0.14889243 -0.18204166 -0.20608476 0.26121518 -0.3522767 -0.12634179
-0.34053597 -0.3192948 -0.08072514 0.2372958 0.18027414 -0.12598035 -0.3267928 0.17272678
00000000: 509b 69be fdff 983e a386 08bd b939 8f3e
00000010: fb9c 443e 7eed 913d 8162 82bd b93e a63d
00000020: 0f1c 15be ca72 a13c 29c3 63be 63bf f03c
00000030: c139 a93e 0934 05bc b19c 4d3e d09a 81be
00000040: 984e b3be 3f4a 7a3d 3bed 93be 2dc6 5cbd
00000050: 47e3 a33e 59af 92be 72e7 1fbe 1ffd 2f3e
00000060: 8017 46be 97fa 94be 9582 1d3e 489a ad3e
00000070: cd05 ccbc 391e 07be 2303 833e 8884 833c
00000080: bb14 483e c6de 003e d461 883e 1aab adbe
00000090: 40b3 f53c f241 94be 813a 9e3e 5e48 713d
000000a0: 3ea8 eb3c fad5 02bd b080 87be 80b9 97be
000000b0: e2c9 d73d 7f97 f9bd 34ac a0be 5dfb a5be
000000c0: 1eb0 a7be ac78 34bd 0418 7bbc 8a62 103e
000000d0: 12f0 c93d 2425 ebbd 25ea 45be ad3e b2be
000000e0: a0a0 8e3d 1d91 c73d b40a 60bd c70f a2be
000000f0: 432a 88be ebf8 533e 408c e63d 82e9 c63e
00000100: d757 44bd ce26 c03e 9fa4 4dbe 27b4 47be
00000110: 9e0e fd3d 0f5e a53e cf26 48be b140 af3e
00000120: f120 103c cd6c 9fbe 0946 a13e 038c 603d
00000130: a993 873d a66c 97be 5e7a 913e ccd2 3c3e
00000140: e539 eb3b 5ffd 6cbb ce4d 973e ef3c 513e
00000150: e158 9fbe 34c1 803e 30d7 253e 6158 aebe
00000160: 40f2 45be 768c 69bd 51d6 bf3e 44e9 6e3e
00000170: 0ecb 423e f846 393e 0505 c13e bf41 213d
00000180: 1d84 1dbe b048 9cbe 4c48 4a3d 5695 93be
00000190: fbfe 843d cd5e 59be 45a9 5d3e 1eb1 e3bd
000001a0: 8f8c ac3d 769b 0d3d ea5a 6e3e fa47 d33d
000001b0: a06d 9aba 99b9 9dbe 8bd7 233d 0f40 b03d
000001c0: 30bf 8bbe f403 69be b8fa bbbd 5365 2e3d
000001d0: c77c 57be b4bb 99be d72b d2bd 8acf acbe
000001e0: 8d5e 77be 22df 77be d9cf 4dbe 488b f63d
000001f0: 5bec a43e ac9b 5bbe ebbc 813e 3e60 603e
00000200: 1595 93be e4dc 973c 8ecc 1dbe 0a40 cb3c
00000210: d4ae 75be 5ac8 7b3e 2b02 8a3e 9328 00be
00000220: 93ef eabd eb47 e6bd f304 453d fe94 96be
00000230: 69e1 d93d 83dc f33c fbd5 ac3d 0f77 953b
00000240: 6bf2 44be 274d 8a3e d105 7dbe 7310 90be
00000250: 798e 3dbe a901 873c ce34 8a3e e150 8e3e
00000260: a5a4 2a3e 9b16 883e cc1c 10bd 3370 aa3e
00000270: 14f4 9d3d ab0b 913e 8c0f 9cbe ba18 133c
00000280: 84b9 303d c20a 59be ae91 a0be 0cb0 b0be
00000290: 85e4 13bd 79b8 c63b d2e6 85be ef66 983e
000002a0: d3f0 b8bd aa5f 163e f5e0 0c3e eccc 963e
000002b0: b0ab a4be 0d4f 223e db4d c93d 683a ef3d
000002c0: f84e 9f3d 5e64 803e 6b4d 8cbc f4ad 13be
000002d0: 9c89 13be badd 89be 440c 043d c786 acbe
000002e0: 01d5 3e3e 8e96 64bd a775 d63c ae3c 133d
000002f0: 220b 763e 4774 96be eff2 a7bd 845a 2ebe
00000300: fce3 a13e 50bd 64bd 8522 b03e 5a9e 3a3e
00000310: dbb7 67be d287 db3d 77b3 80bc b0c1 5a3e
00000320: 9f55 023e 040c 023b 91d1 583d 8f68 953e
00000330: c07c 3bbd 4213 933e 54a6 b93d 15df 1abe
00000340: 1caa 9dbe a74d 1fbe e4d3 073e d018 27be
00000350: 3d48 c8bc ad2c 6d3e 5a8e d13e 2a5e 003d
00000360: 50c7 613d 33ed c33d ba15 e8bd 3ee2 ad3d
00000370: be5e 323e 5095 3b3d 507e 47be 8ce4 43be
00000380: 0035 fbbd 9014 8fbe a4d4 b6be 34c1 4b3d
00000390: 0135 afbb ce80 a9be 4c78 b2be 88ec 1cbd
000003a0: 359a fdbd 79dc 753d 7138 943e 3a95 ae3d
000003b0: 5f99 50bd 8669 2f3e 1d98 a03e 68d2 52be
000003c0: af07 c1be 8d85 783e 4277 183e 2169 3abe
000003d0: e207 53be ffbd 853e 9d5d b4be be5f 01be
000003e0: bb5a aebe 9c7a a3be 3953 a5bd acfd 723e
000003f0: c999 383e fe00 01be 6351 a7be 4adf 303e

encoder.lnXc.0.bias f4 [32]
0.013881326 0.158307 0.17520422 -0.22750211 0.23195936 0.14334966 0.12480321 0.19189419
0.28941116 -0.03230256 0.19339798 -0.08198885 0.16633481 -0.1321284 0.21507064 0.055579152
-0.18088637 -0.25293615 0.24527346 -0.22892994 -0.09288682 0.14389743 -0.23883162 -0.028863976
-0.30581805 -0.21691215 -0.19165872 -0.09429138 0.14141461 -0.017034376 0.17673533 0.01836818
00000000: 806e 633c 3b1b 223e bc68 333e 50f6 68be
00000010: c186 6d3e 41ca 123e d398 ff3d e97f 443e
00000020: b32d 943e b04f 04bd 1f0a 463e c5e9 a7bd
00000030: ac53 2a3e ab4c 07be 7a3b 5c3e f7a6 633d
00000040: 473a 39be d980 81be f728 7b3e 9c6c 6abe
00000050: 723b bebd d959 133e 4790 74be 2574 ecbc
00000060: 2f94 9cbe 381e 5ebe 2f42 44be d71b c1bd
00000070: fece 103e ad8b 8bbc 1bfa 343e de78 963c

encoder.lnXc.2.weight f4 [32, 32]
0.10646889 0.16602288 -0.08328309 -0.23968841 0.28682452 0.24359797 0.10379887 0.21902004
0.09512377 -0.044207104 0.27761495 -0.009890286 0.105605215 0.33905935 0.3111509 -0.20729738
0.18787237 -0.167758 0.01692995 0.3877828 0.36082917 0.12548275 -0.2905503 0.26182884
0.0012014903 -0.034449626 0.2674209 0.1918924 -0.02809325 -0.098442204 0.16767298 0.24298036
0.02493808 -0.109946914 -0.13996173 -0.088509806 -0.2514623 -0.33609423 -0.29073572 0.19615026
-0.26943776 0.23285577 -0.18611248 0.17494796 -0.1363271 -0.31196123 -0.17994887 -0.23738086
-0.06929741 0.016540632 -0.26069817 -0.1618901 -0.15642673 0.02962071 -0.098385386 0.08488929
-0.2007281 -0.27190697 -0.036625467 0.18994287 -0.06571988 -0.3651825 0.24983816 0.27494586
-0.13050199 -0.21833086 -0.2569659 -0.23579201 0.004252258 -0.14587197 0.13224009 0.005704809
-0.2746096 -0.2926214 0.13911025 0.096558854 -0.31385323 0.104097374 -0.29720673 -0.24353473
-0.12539017 -0.07241294 0.069577076 -0.34891376 -0.2832115 0.2001451 -0.22227922 -0.005602473
0.09946563 0.17768304 0.043646593 -0.25067958 -0.14269075 -0.12602788 -0.061115585 -0.2200981
-0.07892885 0.16605812 0.29472533 -0.26867697 -0.1310826 0.16902865 0.40344208 -0.16066165
0.25176403 -0.095215075 0.2966003 0.22807847 0.3571719 0.33347383 -0.0964296 0.33290857
-0.20009947 -0.10312698 0.29027385 0.15951101 -0.16596311 0.014486839 0.18074304 0.13616626
-0.0013083931 -0.18555172 -0.043441046 0.05524057 -0.08845038 0.36113194 0.14693578 -0.21036208
0.13806319 0.16742855 -0.10390336 0.16877516 -0.10066391 0.1624258 0.0359143 0.21231903
-0.1571204 -0.1323397 0.19493975 -0.15530777 -0.0710227 -0.0797524 0.25651494 -0.06464338
0.26298636 0.0866738 0.20658898 0.052886866 -0.0825698 -0.036681984 -0.17961 0.17631556
-0.22937992 0.043410778 -0.046292063 0.14319168 0.24531533 -0.1449177 0.1652463 0.19023502
0.06770881 0.09799003 -0.20220844 0.16612089 -0.20850529 0.13336304 -0.023274604 0.091542974
-0.13704464 0.07393212 0.04107557 -0.1140536 -0.02406146 0.34515497 0.10662544 0.10348563
0.23150122 0.11544837 -0.06322683 0.15906109 -0.15840328 0.25386634 -0.28713152 0.37318063
-0.14492585 0.101824164 0.029139379 0.08602141 -0.12685491 0.21174031 -0.09086217 0.14213654
0.012473446 0.25053734 0.16305433 -0.19844192 0.014686101 0.3883701 0.2359194 0.3602752
0.07348201 -0.21018243 -0.18858089 0.06748059 -0.09714856 0.14692883 0.02892816 0.2956648
0.26434517 -0.17811269 0.18578169 -0.0013497415 -0.12261847 0.3641719 0.10720111 0.082521215
0.08949028 -0.042937618 -0.07575473 0.331423 -0.14939144 0.12107517 0.11340234 0.13046223
0.032921944 -0.20279917 0.21975295 -0.2839384 -0.26212242 -0.06844688 -0.119612545 -0.16378294
0.17620324 -0.024131382 0.24347566 0.21684411 0.21257018 -0.003524208 -0.17861539 -0.12355963
-0.08139401 0.15483122 -0.16590422 0.26794785 -0.1660274 -0.25960457 -0.08573071 -0.081762254
-0.20823531 -0.11717317 -0.1265511 -0.0054879272 -0.14738579 -0.07489978 -0.048299264 -0.27994812
00000000: 5d0c da3d e701 2a3e 5390 aabd e170 75be
00000010: aada 923e bf71 793e 8194 d43d ca46 603e
00000020: 40d0 c23d 8212 35bd 8c23 8e3e de0a 22bc
00000030: 8c47 d83d 3099 ad3e 2c4f 9f3e c445 54be
00000040: 9d61 403e c1c8 2bbe aeb0 8a3c 788b c63e
00000050: 9abe b83e 8d7e 003e 02c3 94be 6e0e 863e
00000060: 537b 9d3a 0d1b 0dbd 64eb 883e 717f 443e
00000070: d123 e6bc 119c c9bd 77b2 2b3e d8cf 783e
00000080: f24a cc3c d92b e1bd 2152 0fbe a144 b5bd
00000090: abbf 80be 8b14 acbe 50db 94be 9ddb 483e
000000a0: bff3 89be be71 6e3e 4594 3ebe 8f25 333e
000000b0: 5599 0bbe 62b9 9fbe 8444 38be f813 73be
000000c0: cdeb 8dbd 3880 873c 3b7a 85be 85c6 25be
000000d0: 542e 20be 22a7 f23c 477e c9bd 70da ad3d
000000e0: ab8b 4dbe 6437 8bbe 9604 16bd 6280 423e
000000f0: 2598 86bd 33f9 babe 93d5 7f3e b4c5 8c3e
00000100: 50a2 05be 2092 5fbe 0991 83be 7673 71be
00000110: 8756 8b3b 765f 15be f269 073e 68ef ba3b
00000120: a199 8cbe 79d2 95be eb72 0e3e a6c0 c53d
00000130: 5fb1 a0be 0131 d53d 7b2b 98be 2b61 79be
00000140: 4866 00be 3c4d 94bd 6d7e 8e3d d3a4 b2be
00000150: 1901 91be d6f2 4c3e 2a9d 63be f394 b7bb
00000160: a3b4 cb3d 8bf2 353e c5c6 323d 1359 80be
00000170: 861d 12be 740d 01be 5654 7abd 6561 61be
00000180: 73a5 a1bd 240b 2a3e 3de6 963e 0790 89be
00000190: 843a 06be d915 2d3e f68f ce3e 7d84 24be
000001a0: 37e7 803e 1f00 c3bd ffdb 973e 678d 693e
000001b0: 3cdf b63e 15bd aa3e e27c c5bd fe72 aa3e
000001c0: e0e6 4cbe 3d34 d3bd c69e 943e db56 233e
000001d0: 3cf2 29be 355a 6d3c b414 393e 2b6f 0b3e
000001e0: 637e abba 4501 3ebe 3def 31bd f043 623d
000001f0: 7925 b5bd 49e6 b83e 5576 163e 2869 57be
00000200: 7060 0d3e 6472 2b3e 49cb d4bd 65d3 2c3e
00000210: e128 cebd f352 263e df1a 133d 296a 593e
00000220: 2ce4 20be 0f84 07be 499e 473e 0009 1fbe
00000230: 5974 91bd 3a55 a3bd ed55 833e c063 84bd
00000240: 26a6 863e 0982 b13d 108c 533e e69f 583d
00000250: 5b1a a9bd d93f 16bd afeb 37be 118c 343e
00000260: 92e2 6abe 80cf 313d bf9c 3dbd d7a0 123e
00000270: f133 7b3e 4e65 14be 5336 293e f8cc 423e
00000280: ebaa 8a3d ffae c83d bb0f 4fbe 981b 2a3e
00000290: 6982 55be 5290 083e 62aa bebc e27a bb3d
000002a0: 6e55 0cbe b969 973d db3e 283d ef94 e9bd
000002b0: 8a1c c5bc 27b8 b03e 705e da3d 46f0 d33d
000002c0: a80e 6d3e 3270 ec3d 117d 81bd e9e0 223e
000002d0: 7834 22be c5fa 813e e702 93be 8811 bf3e
000002e0: 7167 14be 3089 d03d b5b5 ee3c fe2b b03d
000002f0: 41e6 01be 74d2 583e f215 babd 3e8c 113e
00000300: 6d5d 4c3c 6e46 803e b7f7 263e 5c34 4bbe
00000310: f99d 703c 72d8 c63e db94 713e fe75 b83e
00000320: bc7d 963d 103a 57be 591b 41be 4333 8a3d
00000330: d3f5 c6bd 8374 163e c0fa ec3c 6061 973e
00000340: 4058 873e 2c63 36be 8e3d 3e3e cfe9 b0ba
00000350: 641f fbbd bd74 ba3e 418c db3d e200 a93d
00000360: ae46 b73d 5bdf 2fbd 4c25 9bbd 47b0 a93e
00000370: 12fa 18be 42f6 f73d 7c3f e83d e497 053e
00000380: 29d9 063d 96aa 4fbe eb06 613e 6060 91be
00000390: e934 86be e12d 8cbd 6cf7 f4bd b7b6 27be
000003a0: 9f6e 343e 2daf c5bc af51 793e 620c 5e3e
000003b0: ffab 593e 66f6 66bb f4e6 36be d50c fdbd
000003c0: e7b1 a6bd 138c 1e3e cce2 29be 7630 893e
000003d0: 1603 2abe e4ea 84be 9593 afbd f872 a7bd
000003e0: a33b 55be 7df8 efbd 9d96 01be 12d4 b3bb
000003f0: 4dec 16be 0e65 99bd 73d5 45bd 5c55 8fbe

encoder.lnXc.2.bias f4 [32]
0.20553921 -0.07402709 -0.15666535 0.13575786 0.052036677 -0.07039723 0.22703773 0.120088086
0.05238447 0.10014897 0.15444735 0.032670554 0.108403474 -0.0737125 0.104549855 -0.18400528
-0.023049489 -0.0017463804 0.13665374 -0.14164154 0.3184453 -0.24516918 -0.2046882 0.09043808
0.05413572 -0.11490537 -0.06588295 -0.18787338 -0.06751479 -0.088925034 0.031475857 0.1012413
00000000: df78 523e 849b 97bd e26c 20be 1c04 0b3e
00000010: 6924 553d 6c2c 90bd 947c 683e bef0 f53d
00000020: 1991 563d e71a cd3d 7227 1e3e 8fd1 053d
00000030: a402 de3d 94f6 96bd 3c1e d63d e16b 3cbe
00000040: 48d2 bcbc cde6 e4ba f5ee 0b3e 7b0a 11be
00000050: 430b a33e a10d 7bbe c999 51be 9a37 b93d
00000060: 6bbd 5d3d 8253 ebbd a4ed 86bd e161 40be
00000070: 3245 8abd 541e b6bd d4ec 003d 9957 cf3d

encoder.lnLst.0.0.weight f4 [32, 3]
-0.12542869 -0.13146968 -0.17429146 -0.2288531 0.12329428 -0.4406946 -0.22887747 -0.15505
-0.20965737 0.2769652 0.30283245 -0.054619294 0.29667738 -0.21000455 0.21186084 -0.18033674
-0.110452145 0.14080715 0.32119066 -0.22073598 0.38312083 0.17318884 0.3394004 0.12835222
-0.47191536 -0.36633092 -0.07289573 0.30832803 0.13599795 0.25844446 -0.31445664 0.2495416
-0.09377875 -0.13816822 -0.41230497 0.3787521 0.2630886 0.23522078 -0.156157 -0.02634364
0.3359367 0.24447705 0.37625492 -0.16040078 -0.3124262 -0.23151606 0.32882163 -0.22317448
0.3076205 0.37674934 -0.2610119 -0.2213605 -0.3953138 0.0226509 0.3154385 -0.21375506
-0.009320415 -0.2877414 0.13866885 -0.20138402 0.2837214 0.094052106 0.034004334 0.4644789
0.34469444 0.029471338 -0.26801255 0.12598307 0.13567913 -0.26069835 0.31681404 -0.23665258
0.24729359 0.1537111 -0.23263171 -0.07373799 0.2749398 -0.29607117 0.00940425 -0.32153976
-0.18821521 0.31648496 -0.3373678 -0.16727456 0.40897292 0.19612558 0.21222597 -0.30547127
0.09458016 -0.40153822 -0.04232663 0.3894784 -0.29016235 -0.13210212 -0.4242272 -0.123645976
00000000: 6170 00be fd9f 06be 7679 32be 7858 6abe
00000010: b681 fc3d b9a2 e1be db5e 6abe 6dc5 1ebe
00000020: 6cb0 56be 62ce 8d3e db0c 9b3e 7bb8 5fbd
00000030: 19e6 973e 6f0b 57be 0cf2 583e 32aa 38be
00000040: bc34 e2bd c02f 103e 1a73 a43e 9d08 62be
00000050: 6a28 c43e 6a58 313e e4c5 ad3e c46e 033e
00000060: e49e f1be ba8f bbbe 5b4a 95bd 2cdd 9d3e
00000070: 0c43 0b3e d552 843e 7600 a1be d587 7f3e
00000080: 130f c0bd f87b 0dbe a319 d3be cceb c13e
00000090: 8db3 863e b7dd 703e 9fe7 1fbe 9ece d7bc
000000a0: e5ff ab3e 3158 7a3e 7ca4 c03e 1a40 24be
000000b0: 54f6 9fbe 8c12 6dbe 4f5b a83e da87 64be
000000c0: 6f80 9d3e 4ae5 c03e 5aa3 85be 54ac 62be
000000d0: 9266 cabe 618e b93c 2881 a13e 9be2 5abe
000000e0: a7b4 18bc d752 93be 35ff 0d3e 9d37 4ebe
000000f0: ee43 913e 649e c03d 2148 0b3d 2ed0 ed3e
00000100: ca7b b03e e06d f13c f138 89be b501 013e
00000110: 78ef 0a3e 417a 85be 7335 a23e 0e55 72be
00000120: 883a 7d3e 7166 1d3e 0237 6ebe f103 97bd
00000130: e9c4 8c3e a496 97be 4914 1a3c dca0 a4be
00000140: 7dbb 40be 510a a23e 79bb acbe 064a 2bbe
00000150: e664 d13e 25d5 483e c451 593e bb66 9cbe
00000160: 3eb3 c13d 6b96 cdbe b05e 2dbd b669 c73e
00000170: 2990 94be c745 07be 4f34 d9be 1a3a fdbd

encoder.lnLst.0.0.bias f4 [32]
-0.07218186 0.044364862 -0.37255153 -0.1365646 -0.4276898 -0.47417688 -0.44873658 0.16367781
0.3867064 0.44565004 0.031989794 -0.16293132 -0.09471624 -0.2231545 -0.18662706 -0.15076153
-0.48685798 0.19343488 0.41037184 0.025972333 -0.1115201 0.12331933 -0.09835083 -0.51181054
0.2735156 -0.25451112 -0.10171076 0.11272502 -0.16429245 -0.16481584 -0.30711856 0.08800661
00000000: 15d4 93bd eeb7 353d 13bf bebe 97d7 0bbe
00000010: 28fa dabe 50c7 f2be cdc0 e5be 289b 273e
00000020: 62fe c53e 3e2c e43e bb07 033d 78d7 26be
00000030: 97fa c1bd 9d82 64be 2a1b 3fbe 3b61 1abe
00000040: 7345 f9be cb13 463e 421c d23e eec3 d43c
00000050: a664 e4bd d88e fc3d 296c c9bd 0406 03bf
00000060: 3d0a 8c3e 484f 82be bb4d d0bd 60dc e63d
00000070: 483c 28be 7cc5 28be a53e 9dbe cf3c b43d

encoder.lnLst.0.2.weight f4 [32, 32]
-0.16690554 0.13481264 0.041103434 -0.20647594 0.08911556 -0.03630044 0.08800011 0.004463214
0.0808406 0.25477317 -0.05687763 -0.1281348 -0.09155369 0.057785615 0.28129897 0.28535387
-0.12726551 -0.1009008 -0.23336267 -0.08647057 0.083103634 -0.23048858 -0.25664183 -0.12484276
-0.07999138 0.19782671 -0.010505902 0.27680168 0.06511177 -0.05739988 0.26179802 -0.13018514
0.16898656 0.34724694 -0.075376466 0.00435674 -0.17927934 0.28858158 0.30573374 -0.22139235
-0.33931437 -0.22143656 0.27408168 -0.13091575 -0.09540118 -0.055899434 0.14716522 -0.29219082
-0.013729567 -0.1257538 -0.16844676 -0.059832774 0.012830283 -0.22280805 -0.14948317 -0.28784558
-0.084169924 0.102101035 -0.30227172 0.11075446 0.08354192 0.21223763 -0.078892976 -0.1052053
0.26689792 -0.064021245 0.1800291 0.0859351 0.2092564 0.11912329 0.13713561 0.027438348
-0.19270149 0.058862835 -0.14170977 -0.025572801 0.09744527 -0.043070532 -0.06697032 -0.02440826
0.22770947 -0.055366665 -0.15351562 0.15643603 -0.023179801 -0.017482197 -0.035928868 0.15163428
0.13064082 0.2496525 0.28943664 -0.033357326 0.05145796 -0.28185335 -0.116905056 0.21820962
0.117998205 0.032963075 0.07837113 -0.34227183 -0.2845228 0.0035303035 -0.10112882 -0.33685872
-0.3093104 -0.19332509 0.0051394636 0.24120773 -0.17612737 0.2399965 -0.29469532 -0.24589911
-0.28929505 -0.054772954 -0.32689172 -0.2908645 -0.16768627 -0.33879825 0.24238399 -0.11202169
0.088973634 0.064425774 0.30204165 -0.17746067 -0.16926458 0.14108162 -0.24052572 0.09603843
0.013614371 0.06583538 -0.26916572 0.29655218 0.11904831 0.17234415 0.2917433 -0.21816961
0.1883177 0.18187337 -0.06299934 0.14150152 -0.10281753 0.078613885 0.14339197 0.1900891
-0.19247396 0.08610257 -0.17540428 0.23424302 -0.02500345 0.18046194 -0.25602648 -0.2625873
-0.03865328 0.26728672 -0.14411165 0.20242208 -0.084148325 -0.08200622 0.11888969 -0.14591941
0.17377438 0.09345991 -0.07284138 -0.25433606 0.30161855 0.07334048 -0.068494566 0.016784485
0.078980274 -0.25394142 -0.08357316 -0.20231406 0.114210375 -0.19360204 0.12415551 0.22715743
-0.0962457 -0.077431105 0.11365438 -0.1989322 -0.350175 -0.2535123 0.13540053 0.21186368
0.1428124 -0.023871742 0.058275085 0.22175711 0.18673173 0.26306647 -0.23754464 -0.18072177
0.23369175 0.0025435924 0.17821576 -0.09454509 -0.18660899 -0.07769814 0.25698376 0.044590533
-0.19601682 0.027372649 0.20325194 -0.014083728 0.11279302 -0.17765906 0.029357474 0.29845905
-0.20670193 0.28256923 -0.09921942 0.30291882 -0.21718371 0.021732481 0.27435195 -0.2985378
0.14724728 0.124783486 0.10403131 -0.26615518 0.05350509 -0.038942255 0.22442174 0.3087075
0.23718351 -0.026215231 -0.061184738 -0.2035649 0.09509324 -0.20041499 0.17597635 0.016279845
0.118736275 0.16886054 0.042024296 -0.12741315 0.0797046 0.123577654 0.13623092 0.2815164
0.23282629 0.12628742 0.16584529 -0.202381 -0.06808598 0.25496936 0.09623884 0.07853363
-0.19818935 0.271314 0.11608015 -0.05040251 0.13398123 -0.097370274 -0.06671708 0.11503615
00000000: 49e9 2abe 530c 0a3e 135c 283d 6e6e 53be
00000010: 3882 b63d c5af 14bd 6739 b43d 2740 923b
00000020: c28f a53d a171 823e 85f8 68bd c535 03be
00000030: 8080 bbbd 9cb0 6c3d 6b06 903e e719 923e
00000040: e451 02be 14a5 cebd a0f6 6ebe 7b17 b1bd
00000050: 3d32 aa3d 3305 6cbe 8f66 83be 90ad ffbd
00000060: 85d2 a3bd 1693 4a3e f220 2cbc f3b8 8d3e
00000070: 5259 853d 231c 6bbd 640a 863e 414f 05be
00000080: d00a 2d3e 5aca b13e fa5e 9abd fcc2 8e3b
00000090: 0195 37be f7c0 933e 2289 9c3e adb4 62be
000000a0: 9dba adbe 44c0 62be 6f54 8c3e c70e 06be
000000b0: b261 c3bd cef6 64bd 7bb2 163e 099a 95be
000000c0: faf1 60bc 9bc5 00be 4f7d 2cbe 3613 75bd
000000d0: 1b36 523c cb27 64be 1e12 19be 7f60 93be
000000e0: 4861 acbd 591a d13d 5cc3 9abe 3cd3 e23d
000000f0: 0718 ab3d d254 593e a492 a1bd e075 d7bd
00000100: d8a6 883e 921d 83bd 8c59 383e befe af3d
00000110: 4f47 563e e9f6 f33d 476d 0c3e 63c6 e03c
00000120: 8a53 45be 281a 713d 5e1c 11be 0d7e d1bc
00000130: 6391 c73d ba6a 30bd bc27 89bd d5f3 c7bc
00000140: ac2c 693e 28c8 62bd 3333 1dbe c430 203e
00000150: 91e3 bdbc d336 8fbc 262a 13bd 0446 1b3e
00000160: b5c6 053e e8a4 7f3e 0a31 943e b1a1 08bd
00000170: 95c5 523d 154f 90be eb6b efbd 5872 5f3e
00000180: 0ba9 f13d 4a04 073d 0b81 a03d 413e afbe
00000190: f9ac 91be aa5c 673b a01c cfbd bf78 acbe
000001a0: ef5d 9ebe 03f7 45be f268 a83b 29ff 763e
000001b0: bc5a 34be a4c1 753e 4ee2 96be facc 7bbe
000001c0: 7b1e 94be 9b59 60bd 5a5e a7be 31ec 94be
000001d0: f3b5 2bbe f776 adbe 8233 783e a16b e5bd
000001e0: cf37 b63d a9f1 833d 34a5 9a3e 40b8 35be
000001f0: b253 2dbe b377 103e 604c 76be ccaf c43d
00000200: d00e 5f3c b3d4 863d 17d0 89be b0d5 973e
00000210: 9acf f33d fc7a 303e 615f 953e db67 5fbe
00000220: 5bd6 403e 033d 3a3e cc05 81bd c6e5 103e
00000230: ff91 d2bd 5100 a13d 58d5 123e b8a6 423e
00000240: e517 45be 8b56 b03d 2e9d 33be 67dd 6f3e
00000250: 09d4 ccbc 04cb 383e e715 83be d871 86be
00000260: e752 1ebd ced9 883e 0192 13be bc47 4f3e
00000270: f555 acbd e1f2 a7bd 707c f33d e66b 15be
00000280: e9f1 313e e967 bf3d dd2d 95bd 5638 82be
00000290: bf6d 9a3e 8933 963d e146 8cbd 9e7f 893c
000002a0: 69c0 a13d 9c04 82be 6828 abbd 6b2b 4fbe
000002b0: 21e7 e93d 9d3f 46be 3e45 fe3d f59b 683e
000002c0: 771c c5bd 3394 9ebd a1c3 e83d e2b4 4bbe
000002d0: 234a b3be 5dcc 81be 70a6 0a3e cbf2 583e
000002e0: 6a3d 123e ac8e c3bc dbb1 6e3d 4c14 633e
000002f0: 9a36 3f3e a6b0 863e e73e 73be 210f 39be
00000300: e44c 6f3e 66b2 263b 317e 363e dba0 c1bd
00000310: 6d16 3fbe 3420 9fbd 6093 833e 90a4 363d
00000320: a2b8 48be 9b3c e03c 4721 503e 70bf 66bc
00000330: 0700 e73d 42ec 35be 167f f03c a0cf 983e
00000340: aca9 53be eaac 903e 8d33 cbbd 2d18 9b3e
00000350: 6865 5ebe 5108 b23c dc77 8c3e f2d9 98be
00000360: fec7 163e 7c8e ff3d 5e0e d53d 7e45 88be
00000370: 2728 5b3d ea81 1fbd d0ce 653e e90e 9e3e
00000380: 3ce0 723e 53c1 d6bc d99c 7abd 5173 50be
00000390: 3fc0 c23d 9639 4dbe 2533 343e 4f5d 853c
000003a0: 012c f33d c7e9 2c3e ab21 2c3d 9878 02be
000003b0: 2a3c a33d 4816 fd3d 1e80 0b3e eb22 903e
000003c0: 046a 6e3e 7d51 013e 59d3 293e f73c 4fbe
000003d0: aa70 8bbd 588b 823e de18 c53d 3dd6 a03d
000003e0: 26f2 4abe abe9 8a3e 6ebb ed3d dd72 4ebd
000003f0: 6032 093e 116a c7bd f7a2 88bd 1398 eb3d

encoder.lnLst.0.2.bias f4 [32]
-0.17909856 -0.028764265 -0.0010412476 -0.20700395 -0.06769782 -0.12225952 -0.06237208 -0.00093915797
-0.17545697 0.027362885 0.19144155 0.103446506 -0.16272148 -0.028653132 0.057238407 0.0347093
-0.15815575 0.16788527 0.18575476 0.09302603 0.13415127 0.012077575 0.012821301 -0.020479038
0.18760183 0.06184439 -0.11787353 0.2103395 0.06781527 -0.2022117 -0.14975534 0.05673018
00000000: 9d65 37be 09a3 ebbc 797a 88ba d8f8 53be
00000010: 28a5 8abd 3363 fabd de79 7fbd d331 76ba
00000020: feaa 33be 2128 e03c 4109 443e c3db d33d
00000030: 76a0 26be f9b9 eabc d272 6a3d 572b 0e3d
00000040: 95f3 21be 1eea 2b3e 7f36 3e3e 6e84 be3d
00000050: f35e 093e 05e1 453c 6f10 523c a8c3 a7bc
00000060: b21a 403e 8b50 7d3d ad67 f1bd 3d63 573e
00000070: bbe2 8a3d 9510 4fbe 7759 19be e85d 683d

encoder.lnLst.1.0.weight f4 [32, 7]
0.082558565 0.24398737 -0.06937725 0.08650781 0.0132340295 -0.30874795 -0.117016226 0.11981034
-0.4507666 -0.4529497 0.2528215 -0.37955585 -0.429532 0.046392374 0.13608336 0.12036455
0.30020618 0.37248626 -0.104619466 0.27637693 0.27640978 -0.12688132 0.007748543 0.10260496
-0.39042234 -0.3631089 -0.021668369 0.0120104 0.2522866 0.042287387 0.010271526 -0.26684552
-0.3725856 0.12893736 0.24892664 -0.1729885 0.159545 0.33649176 0.15262851 0.36691868
0.18373477 -0.11516476 0.22610037 0.14532414 0.18796991 -0.15937386 -0.2849483 -0.18735977
-0.15912703 0.40077755 0.055814482 0.12859572 -0.10546481 -0.24053921 -0.34594926 0.12931523
-0.31817308 -0.2949948 -0.38262603 -0.18682495 0.21193689 -0.2830874 -0.36040768 0.041147083
-0.08159285 -0.37914562 -0.31967667 -0.2613514 -0.02367905 -0.33986613 0.35094225 -0.15752403
-0.06313631 -0.36230433 -0.30801496 -0.36135474 0.054273803 0.35644066 0.4180703 0.20410703
0.1858042 0.10573897 -0.24111113 0.18463132 0.27885976 0.39047602 -0.042999998 -0.17854947
0.37590694 0.26770687 0.3147545 0.4124673 -0.09851104 0.3095018 -0.30469164 0.15694107
-0.23264119 0.3518446 0.21480173 -0.002054474 0.26627275 -0.23706415 0.3469977 0.10978048
0.25959015 0.41568455 0.16266908 0.33626407 -0.022284372 0.253063 -0.29651424 0.0108052725
0.40213084 0.39220223 0.42629188 -0.2949172 0.08249231 -0.254266 -0.21758367 0.2830294
0.23217872 -0.3477384 -0.033891328 -0.25302488 -0.39005443 0.16937004 -0.35086995 -0.26861006
-0.320294 -0.37457898 -0.13518909 -0.23677081 -0.26678503 -0.34117404 0.17298831 -0.34997118
0.22949877 -0.11805672 -0.054782197 0.19116618 0.01959952 0.30639648 -0.15410198 0.30573013
0.2965717 -0.3254063 -0.38736466 0.21571869 -0.29340303 -0.27124953 -0.0038161466 0.044462737
0.1282507 0.21947531 0.0067921216 0.35844472 -0.2548163 -0.33382532 0.00893587 -0.3539063
0.36136544 0.1974091 0.35784706 0.35634583 -0.05672367 0.33891502 -0.28089613 0.08746677
-0.093112476 0.22159323 0.20085998 0.074525006 0.3374675 0.3456567 0.47185534 0.38860834
-0.0038049854 0.41507196 -0.03448094 0.06733607 -0.25319254 0.31261784 -0.17280409 -0.30000255
0.15414038 -0.15348953 -0.3181927 -0.063673615 0.20330067 -0.0029703286 0.18859473 0.19071437
-0.27558854 0.392239 0.18955328 -0.29458973 -0.09166623 0.17475781 -0.08598926 0.3374277
-0.02212173 -0.040382814 -0.1346996 0.29765022 0.12597501 0.053570863 0.35135606 -0.20779626
0.031849906 -0.26467285 -0.08067713 0.14304867 -0.13094112 -0.29558644 0.11148619 -0.11907335
-0.15303767 -0.4529128 0.28017223 -0.3683691 0.21667369 0.15847369 0.18271473 -0.100373745
00000000: 7714 a93d d3d7 793e a915 8ebd 022b b13d
00000010: 8bd3 583c 3614 9ebe 34a6 efbd 205f f53d
00000020: e1ca e6be 06e9 e7be d271 813e 2555 c2be
00000030: 9eeb dbbe ee05 3e3d 7059 0b3e b081 f63d
00000040: a0b4 993e 85b6 be3e bb42 d6bd 4781 8d3e
00000050: 9585 8d3e 2ded 01be 7de7 fd3b 8d22 d23d
00000060: 70e5 c7be 69e9 b9be dd81 b1bc 45c7 443c
00000070: b62b 813e 8a35 2d3d e749 283c fa9f 88be
00000080: 8ac3 bebe 2808 043e a0e6 7e3e e623 31be
00000090: c45f 233e a648 ac3e a64a 1c3e c4dc bb3e
000000a0: f824 3c3e 80db ebbd db86 673e dacf 143e
000000b0: 2f7b 403e e732 23be bee4 91be 3ddb 3fbe
000000c0: 32f2 22be b732 cd3e ba9d 643d 99ae 033e
000000d0: effd d7bd e94f 76be 4320 b1be 366b 043e
000000e0: 95e7 a2be 8f09 97be 8fe7 c3be 0a4f 3fbe
000000f0: fc05 593e d5f0 90be 5b87 b8be d889 283d
00000100: 271a a7bd 601f c2be a9ac a3be dacf 85be
00000110: 91fa c1bc ef02 aebe b4ae b33e fb4d 21be
00000120: 9c4d 81bd f47f b9be 23b4 9dbe 7d03 b9be
00000130: 354e 5e3d 647f b63e 4f0d d63e 6f01 513e
00000140: 7543 3e3e ac8d d83d d6e5 76be fe0f 3d3e
00000150: b5c6 8e3e 79ec c73e c420 30bd acd5 36be
00000160: e076 c03e e010 893e 8027 a13e ea2e d33e
00000170: 28c0 c9bd 0577 9e3e 8b00 9cbe 29b5 203e
00000180: 7e39 6ebe fa24 b43e fcf4 5b3e 5ba4 06bb
00000190: e754 883e f2c0 72be afa9 b13e 97d4 e03d
000001a0: 00e9 843e 9bd4 d43e b992 263e ce2a ac3e
000001b0: b78d b6bc 7991 813e b7d0 97be 9908 313c
000001c0: 18e4 cd3e bbce c83e ee42 da3e 63ff 96be
000001d0: baf1 a83d 272f 82be 41ce 5ebe 3be9 903e
000001e0: 42c0 6d3e c40a b2be a2d1 0abd 7a8c 81be
000001f0: 37b5 c7be 576f 2d3e 3aa5 b3be 4287 89be
00000200: 93fd a3be d1c8 bfbe 026f 0abe 0c74 72be
00000210: 0c98 88be 5dae aebe d923 313e 6c2f b3be
00000220: ba01 6b3e b9c7 f1bd 4c63 60bd 11c1 433e
00000230: 2c8f a03c 00e0 9c3e e9cc 1dbe a988 9c3e
00000240: 3fd8 973e a89b a6be a954 c6be 5ce5 5c3e
00000250: ec38 96be 38e1 8abe 5118 7abb 8f1e 363d
00000260: 2754 033e 23be 603e 7290 de3b 1186 b73e
00000270: 4877 82be 27eb aabe c167 123c 3533 b5be
00000280: e404 b93e 9c25 4a3e bb37 b73e f672 b63e
00000290: 1457 68bd 4586 ad3e 9ed1 8fbe c721 b33d
000002a0: c1b1 bebd 56e9 623e 3dae 4d3e 91a0 983d
000002b0: 8ac8 ac3e eaf9 b03e 0697 f13e acf7 c63e
000002c0: 105d 79bb 5084 d43e e33b 0dbd 7ee7 893d
000002d0: 74a2 81be 720f a03e 8ef3 30be ef99 99be
000002e0: fad6 1d3e 5c2c 1dbe 27ea a2be 5067 82bd
000002f0: 0d2e 503e d8a9 42bb fa1e 413e a14a 433e
00000300: f119 8dbe 8dd3 c83e 411a 423e 77d4 96be
00000310: 81bb bbbd b6f3 323e 231b b0bd 53c3 ac3e
00000320: a138 b5bc 7368 25bd b1ee 09be 9c65 983e
00000330: 98ff 003e 1f6d 5b3d f1e4 b33e 8bc8 54be
00000340: 0c75 023d 3383 87be 0d3a a5bd 5a7b 123e
00000350: 6e15 06be 1b57 97be df52 e43d bbdc f3bd
00000360: e8b5 1cbe 30e4 e7be bc72 8f3e e09a bcbe
00000370: b5df 5d3e ed46 223e 9219 3b3e c090 cdbd

encoder.lnLst.1.0.bias f4 [32]
0.18128365 0.017879017 -0.004756239 0.32866907 0.3189379 -0.36489975 -0.3352813 0.32873482
0.24223326 -0.271006 -0.15658075 0.031554233 0.076977625 0.092125885 0.42349157 0.33056438
-0.042216398 -0.052883867 -0.018422224 -0.054752078 -0.011629189 -0.18163162 -0.20461327 0.10483568
0.29653007 0.24657021 0.3107715 0.36186412 0.03800769 0.06752557 0.15819027 -0.1852741
00000000: 6ca2 393e 0477 923c 39da 9bbb 5047 a83e
00000010: d44b a33e 24d4 babe fea9 abbe ee4f a83e
00000020: ff0b 783e 4cc1 8abe b456 20be 033f 013d
00000030: 72a6 9d3d 7fac bc3d e3d3 d83e bc3f a93e
00000040: 1aeb 2cbd c19c 58bd 34ea 96bc b743 60bd
00000050: 5b88 3ebc a4fd 39be 2486 51be 17b4 d63d
00000060: cad2 973e e77c 7c3e 711d 9f3e 4146 b93e
00000070: f4ad 1b3d d94a 8a3d a1fc 213e 7eb8 3dbe

encoder.lnLst.1.2.weight f4 [32, 32]
0.12568697 -0.32771018 0.2230211 0.30584744 0.31999037 0.099347584 0.07071897 0.07767224
0.32864484 -0.07005867 0.30173633 0.12885165 -0.019449148 -0.17907044 0.15103483 0.27406824
0.11964741 0.046814304 0.13520847 0.273865 0.17742082 0.073706456 0.0114647625 0.19596027
0.30276564 -0.20569566 0.27307287 -0.09423731 -0.19479012 -0.1870376 0.1162604 -0.10629588
-0.046055514 -0.047810894 0.053668983 0.2609852 -0.056517016 0.34164542 0.12212368 -0.18825437
0.2281687 -0.19477452 -0.29578987 -0.101680845 -0.12858579 -0.1944124 0.26367855 -0.07416636
-0.28427225 -0.16500567 -0.19286662 -0.069553696 0.030129647 -0.3210804 -0.12078233 -0.10191044
0.09695111 0.11275077 0.18996899 -0.07644423 -0.25031558 -0.04958169 0.22260998 0.16253667
-0.056073 -0.18071924 -0.16264255 -0.057528906 0.05660173 -0.12277841 -0.050046906 -0.015291934
0.19975491 0.09577313 0.28929117 0.157133 0.24455932 -0.109064005 0.10737247 -0.08753763
0.26889926 0.23837325 -0.13670287 0.29706433 -0.051759355 0.28999746 0.28329617 -0.019468324
0.33089072 -0.023577211 -0.07332988 0.19304469 0.3261157 0.3239037 -0.018224383 -0.08610408
-0.048144575 -0.022843864 -0.24298872 -0.25916374 -0.2514293 -0.031409103 0.18512537 0.086908884
-0.2465153 0.13900873 -0.046101484 -0.066001974 0.11835763 0.11000997 -0.012662282 -0.19952771
0.26116186 -0.07416542 -0.1513049 -0.05848934 0.2294302 -0.11146971 0.10878828 -0.054310612
-0.028518546 0.03566392 0.10950546 -0.14280479 -0.048036158 0.073412284 -0.035971683 -0.21990931
-0.10526449 -0.12038759 0.27738297 -0.12050837 0.29277617 0.3102677 0.122150615 0.056286834
-0.02834912 -0.17983663 0.2898626 0.27561015 -0.009752141 -0.1722619 -0.021050783 -0.19236141
0.1815922 -0.047636393 -0.25420988 -0.02240768 -0.19933179 -0.09224932 -0.07282182 -0.04610282
-0.10538254 0.13236058 0.19344191 -0.012335972 -0.01417881 0.31886753 -0.14089867 -0.14258306
-0.06769091 0.106006436 0.17584142 -0.17029981 -0.22483838 0.33563694 0.1103053 -0.15903312
0.0227965 -0.062410012 0.13271028 0.018333586 0.2396716 -0.105666295 0.04080671 0.31426743
0.19077823 0.0070415465 -0.22268835 -0.1692499 -0.14640291 0.36079225 -0.21829313 -0.21255079
0.20010558 0.31163347 0.1342122 0.2803657 0.32582334 -0.18783808 0.18965943 -0.046618737
-0.05837147 0.1973098 0.33252853 0.2302338 0.16585985 0.42224708 -0.19682315 0.33555046
-0.18723105 0.17758317 0.28813738 0.31422418 0.370374 0.20658444 0.31725213 0.0074371733
0.30354947 0.36067057 0.16565596 -0.13281986 0.22686113 -0.16757573 -0.2892316 -0.19651821
0.16510147 0.37386334 -0.08381173 0.103512354 0.3627385 0.03600345 -0.035640165 0.06775891
-0.15408795 0.20357163 0.21322677 -0.18343368 -0.22023825 -0.06902465 -0.27044237 -0.22252144
0.032495767 0.27596644 -0.20592436 -0.034280874 0.03754935 -0.13804185 -0.20533259 -0.12863696
-0.122267835 -0.35188392 0.30034328 0.0035744323 -0.1078202 -0.29108366 0.1007929 -0.17023772
-0.10787282 -0.2261314 -0.017331248 0.20802425 0.3188011 0.24992856 0.24820337 0.19141378
00000000: 16b4 003e a1c9 a7be a55f 643e 0998 9c3e
00000010: c7d5 a33e bf76 cb3d 1bd5 903d a012 9f3d
00000020: 2344 a83e ec7a 8fbd 2f7d 9a3e b0f1 033e
00000030: d253 9fbc 3e5e 37be e0a8 1a3e ac52 8c3e
00000040: b409 f53d 5bc0 3f3d 1774 0a3e 0938 8c3e
00000050: cead 353e 69f3 963d b3d6 3b3c cfa9 483e
00000060: 1904 9b3e e2a1 52be 35d0 8b3e 7eff c0bd
00000070: 1077 47be c986 3fbe ef19 ee3d a8b1 d9bd
00000080: b5a4 3cbd 5bd5 43bd 02d4 5b3d da9f 853e
00000090: 637e 67bd 26ec ae3e fb1b fa3d c1c5 40be
000000a0: 0ea5 693e f972 47be c571 97be 0c3e d0bd
000000b0: feab 03be 0b14 47be e000 873e 88e4 97bd
000000c0: 228c 91be 3ff7 28be d47e 45be 2b72 8ebd
000000d0: 73d2 f63c a664 a4be ba5c f7bd 6cb6 d0bd
000000e0: 4e8e c63d e0e9 e63d 3b87 423e cb8e 9cbd
000000f0: 5d29 80be 2c16 4bbd dff3 633e 0370 263e
00000100: cdac 65bd 770e 39be c58b 26be 6ea3 6bbd
00000110: 37d7 673d 3f73 fbbd fcfd 4cbd 058b 7abc
00000120: 8d8c 4c3e b424 c43d f91d 943e 79e7 203e
00000130: c26d 7a3e f35c dfbd 19e6 db3d ee46 b3bd
00000140: 2aad 893e 1e18 743e d6fb 0bbe d118 983e
00000150: 9e01 54bd 8c7a 943e 320c 913e 097c 9fbc
00000160: 826a a93e ff24 c1bc fa2d 96bd 82ad 453e
00000170: a3f8 a63e b5d6 a53e 4d4b 95bc 5657 b0bd
00000180: 3f33 45bd 0e23 bbbc 09d2 78be 1cb1 84be
00000190: 57bb 80be d5a6 00bd 8191 3d3e 49fd b13d
000001a0: 826e 7cbe 4e58 0e3e e9d4 3cbd 0b2c 87bd
000001b0: 7c65 f23d e84c e13d 7675 4fbc fe50 4cbe
000001c0: 02b7 853e 0ae4 97bd acef 1abe 8592 6fbd
000001d0: c0ef 6a3e 3b4a e4bd 64cc de3d ce74 5ebd
000001e0: ba9f e9bc 5514 123d 6644 e03d 6b3b 12be
000001f0: 90c1 44bd 2e59 963d 0b57 13bd e82f 61be
00000200: e994 d7bd c58d f6bd 2405 8e3e 18cd f6bd
00000210: c2e6 953e 68db 9e3e 1a2a fa3d 068d 663d
00000220: 6a3c e8bc 1827 38be df68 943e c61c 8d3e
00000230: 72c7 1fbc 6c65 30be b172 acbc 64fa 44be
00000240: 4ef3 393e 611e 43bd cc27 82be 5090 b7bc
00000250: a21d 4cbe 36ed bcbd 9b23 95bd 50d6 3cbd
00000260: cdd2 d7bd 8889 073e a315 463e d11c 4abc
00000270: 3d4e 68bc 9b42 a33e be47 10be 4b01 12be
00000280: 88a1 8abd e719 d93d c60f 343e 1363 2ebe
00000290: 083c 66be 9bd8 ab3e bfe7 e13d 94d9 22be
000002a0: babf ba3c a4a1 7fbd 34e5 073e 5130 963c
000002b0: 796c 753e 9267 d8bd f024 273d a9e7 a03e
000002c0: 5e5b 433e c6bc e63b 6a08 64be d94f 2dbe
000002d0: a5ea 15be c3b9 b83e 3c88 5fbe eaa6 59be
000002e0: 7ae8 4c3e 6c8e 9f3e ec6e 093e 188c 8f3e
000002f0: 51d2 a63e a058 40be 1536 423e 4af3 3ebd
00000300: ec16 6fbd 950b 4a3e 2e41 aa3e 69c2 6b3e
00000310: 2ad7 293e c530 d83e 028c 49be 45cd ab3e
00000320: 7fb9 3fbe 5dd8 353e be86 933e fee1 a03e
00000330: a9a1 bd3e df8a 533e df6e a23e 88b3 f33b
00000340: d66a 9b3e d0a9 b83e b7a1 293e ee01 08be
00000350: 494e 683e f998 2bbe 2a16 94be 123c 49be
00000360: 5c10 293e 046b bf3e 7ca5 abbd 49fe d33d
00000370: dcb8 b93e 5b78 133d 6cfb 11bd 2fc5 8a3d
00000380: 3bc9 1dbe 1575 503e 1e58 5a3e 0ad6 3bbe
00000390: 2386 61be cc5c 8dbd 6c77 8abe a9dc 63be
000003a0: 481a 053d 794b 8d3e d6dd 52be 1a6a 0cbd
000003b0: 59cd 193d d85a 0dbe b542 52be 68b9 03be
000003c0: 8f67 fabd 212a b4be 98c6 993e 0641 6a3b
000003d0: d6d0 dcbd eb08 95be 826c ce3d cc52 2ebe
000003e0: 6dec dcbd fd8e 67be 43fa 8dbc 4f04 553e
000003f0: e639 a33e 46ed 7f3e 0629 7e3e f901 443e

encoder.lnLst.1.2.bias f4 [32]
-0.062349774 -0.089747615 -0.09484162 -0.05695439 0.095197916 -0.05657106 -0.025750645 -0.112174354
0.05089959 -0.19228256 0.17628722 0.20992693 0.04841105 -0.10514609 0.03113044 -0.019828616
-0.09700288 -0.20280601 -0.045839224 0.044531073 -0.12675565 -0.08492561 0.06683701 0.19521116
-0.06759722 -0.027509596 -0.038475167 0.15523323 0.06809058 0.085533515 0.08018358 -0.013929773
00000000: 7a62 7fbd 99cd b7bd 533c c2bd 0249 69bd
00000010: 20f7 c23d 0eb7 67bd 04f3 d2bc abbb e5bd
00000020: 177c 503d b8e5 44be a384 343e 16f7 563e
00000030: aa4a 463d d556 d7bd 4405 ff3c 9f6f a2bc
00000040: 72a9 c6bd 61ac 4fbe e9c1 3bbd 3766 363d
00000050: 3ccc 01be 7aed adbd d8e1 883d 6fe5 473e
00000060: 6970 8abd ce5b e1bc 2398 1dbd 76f5 1e3e
00000070: 1373 8b3d 322c af3d 4a37 a43d b439 64bc

atten.W_k.weight f4 [32, 32]
0.020355877 -0.30237225 0.15772589 -0.1263586 -0.18833034 0.08651503 -0.37107173 0.014628784
0.0070562772 0.18258978 0.10995488 -0.0326689 -0.2831473 -0.10259056 0.13637394 -0.085872166
-0.31737652 0.21653362 0.0598036 0.026361573 0.30728248 0.3805724 -0.18505573 -0.07455454
-0.12531967 0.009388972 0.044729076 0.44150767 0.14345858 0.15081784 -0.30060664 0.44275913
-0.13159545 0.029793674 0.19973293 -0.081784144 0.22272353 0.058838032 -0.26915026 0.1829002
-0.27858236 -0.114336304 -0.26440847 -0.0050144917 -0.22428969 0.038731698 -0.1533714 0.13976109
-0.010666999 0.20937298 -0.019662622 -0.3175115 0.2860301 0.23274589 -0.2847406 0.24059856
-0.2602309 -0.32106 0.28275472 -0.3179126 -0.04367208 -0.027340844 0.14240001 0.23557582
-0.07055954 -0.20493346 -0.067736074 -0.13423952 -0.07103229 0.11071702 0.2770512 -0.22358802
-0.24262154 0.33093753 -0.12221779 0.020291695 0.18486197 0.34857345 0.25585848 -0.16535655
-0.21813414 0.11772744 0.20738943 -0.14661388 -0.015680896 0.3057207 0.2658048 0.1153375
0.004664934 0.15926929 -0.30639696 -0.17818147 0.29109138 -0.0120449355 -0.17119457 0.048964463
0.24119109 -0.073183976 0.16034956 0.17715433 0.008735745 -0.24525711 -0.15931883 0.15344346
0.075096525 0.19705315 -0.102349736 -0.1429137 -0.11066727 0.06923128 0.18935432 -0.11347739
0.22740652 0.19173665 -0.045001384 -0.11677332 0.014130901 0.05027474 -0.12942556 0.18402334
0.1848692 -0.062291972 -0.06311378 -0.25043646 -0.050107103 0.09867477 0.0151783675 -0.051456667
-0.2804624 -0.071286075 -0.071432285 -0.20140131 0.08066316 0.34985283 -0.21471712 0.062036764
-0.3773409 0.18309177 -0.1373777 0.3136721 0.16269122 -0.2138406 0.13613911 -0.057315215
0.24115743 -0.0736886 -0.2453624 -0.14146924 -0.048198022 0.24586588 -0.19415228 -0.12925176
0.06690967 0.17260942 -0.0140311355 0.07544936 -0.15314008 0.21134302 0.21057263 -0.17056823
0.11772503 0.34348053 0.010637096 0.099901535 -0.32489678 0.08210971 0.072115295 -0.3230807
-0.13220245 0.1905125 -0.25341862 0.16583599 -0.080618076 -0.257615 -0.2854866 0.119886056
-0.09370356 0.052951477 -0.11668682 -0.08721493 0.21864587 0.051843394 0.019806502 -0.29426277
0.08572672 -0.17555279 -0.09491158 -0.08696651 0.15066403 -0.037280723 0.071483284 0.14810689
0.16678432 -0.16463383 -0.05955277 -0.1671279 0.17663544 -0.07891743 0.08850953 0.11062777
-0.24335892 0.0099006565 0.255216 0.27544343 0.22483683 -0.22441937 0.15836193 0.15299673
-0.18637203 -0.24181478 -0.036562156 0.1087431 -0.23166642 0.32777375 -0.00046252945 0.034062315
-0.16373959 -0.2112071 0.21951017 -0.24664594 0.3045254 0.12079331 -0.07707761 0.077525795
0.2421633 0.1118331 0.045847353 -0.23251218 0.12107968 -0.08814528 -0.21786392 0.008509099
0.2686 -0.28275052 -0.17453724 0.08626621 -0.28386167 -0.15517652 -0.21070862 -0.022029007
-0.28718403 0.040643983 -0.00596442 -0.19759423 -0.2860007 0.15862875 0.36466646 -0.25117078
-0.22800468 -0.23821586 0.014922169 -0.18518317 -0.0907256 -0.007423275 -0.1402407 0.00516581
00000000: 5ec1 a63c 89d0 9abe e582 213e 2664 01be
00000010: abd9 40be cb2e b13d 1dfd bdbe 91ad 6f3c
00000020: 5838 e73b d1f8 3a3e 0630 e13d d3cf 05bd
00000030: aff8 90be 001b d2bd 9ca5 0b3e bfdd afbd
00000040: 2d7f a2be fdba 5d3e 9ff4 743d 3af4 d73c
00000050: 2154 9d3e 63da c23e 407f 3dbe 0db0 98bd
00000060: cd53 00be 34d4 193c d635 373d 4b0d e23e
00000070: cee6 123e fe6f 1a3e 1de9 99be 53b1 e23e
00000080: f5c0 06be dd11 f43c ca86 4c3e 727e a7bd
00000090: a311 643e 2600 713d 10ce 89be 314a 3b3e
000000a0: 59a2 8ebe 2729 eabd 8c60 87be 9b50 a4bb
000000b0: 32ac 65be 21a5 1e3d 640d 1dbe 881d 0f3e
000000c0: a3c4 2ebc df65 563e 8213 a1bc de90 a2be
000000d0: 8a72 923e f054 6e3e 85c9 91be 785f 763e
000000e0: fc3c 85be fa61 a4be 3ac5 903e 71c5 a2be
000000f0: 7fe1 32bd e8f9 dfbc 4fd1 113e ca3a 713e
00000100: 8581 90bd 14da 51be 36b9 8abd 1676 09be
00000110: 6179 91bd 9bbf e23d a8d9 8d3e 42f4 64be
00000120: c871 78be a570 a93e 524d fabd c53a a63c
00000130: 754c 3d3e 3878 b23e e2ff 823e 3a53 29be
00000140: 8e5e 5fbe 161b f13d e55d 543e f321 16be
00000150: 3975 80bc 6c87 9c3e 9117 883e 1136 ec3d
00000160: 4ddc 983b 7d17 233e 10e0 9cbe 3475 36be
00000170: ee09 953e 1f58 45bc a14d 2fbe f68e 483d
00000180: ccfa 763e 7be1 95bd ad32 243e f267 353e
00000190: 5f20 0f3c ae24 7bbe 7a24 23be 4820 1d3e
000001a0: 35cc 993d 4dc8 493e bd9c d1bd f857 12be
000001b0: 86a5 e2bd 21c9 8d3d 19e6 413e d566 e8bd
000001c0: 41dd 683e 9d56 443e 5f53 38bd da26 efbd
000001d0: 4b85 673c e3ec 4d3d 2288 04be 9d70 3c3e
000001e0: 5a4e 3d3e de25 7fbd cc41 81bd 3539 80be
000001f0: 1b3d 4dbd ff15 ca3d b0ae 783c 3ac4 52bd
00000200: c598 8fbe 6ffe 91bd 174b 92bd 253c 4ebe
00000210: ba32 a53d e91f b33e cede 5bbe 431a 7e3d
00000220: d432 c1be 697c 3b3e bdac 0cbe a199 a03e
00000230: 8798 263e 08f9 5abe 0d68 0b3e 5cc3 6abd
00000240: f9f1 763e 0cea 96bd 4840 7bbe 50dd 10be
00000250: 4a6b 45bd 44c4 7b3e dbcf 46be 935a 04be
00000260: f007 893d 86c0 303e d9e2 65bc 3285 9a3d
00000270: c1d0 1cbe 4e6a 583e 5aa0 573e 70a9 2ebe
00000280: d219 f13d aedc af3e 3747 2e3c 2d99 cc3d
00000290: df58 a6be 2329 a83d 2fb1 933d d56a a5be
000002a0: 1460 07be b515 433e 16c0 81be e9d0 293e
000002b0: 171b a5bd 1de6 83be 4d2b 92be d286 f53d
000002c0: a7e7 bfbd a6e3 583d 80f9 eebd be9d b2bd
000002d0: b4e4 5f3e bd59 543d 3f41 a23c 9ca9 96be
000002e0: 7e91 af3d 1cc4 33be 0161 c2bd 7f1b b2bd
000002f0: ac47 1a3e acb3 18bd d465 923d 55a9 173e
00000300: 82c9 2a3e c595 28be 9bed 73bd 9423 2bbe
00000310: ecdf 343e 769f a1bd 7c44 b53d d090 e23d
00000320: 1533 79be 5d36 223c acab 823e ec06 8d3e
00000330: a03b 663e 31ce 65be a129 223e 2dab 1c3e
00000340: 4fd8 3ebe 4b9e 77be 33c2 15bd b4b4 de3d
00000350: f639 6dbe f6d1 a73e a77f f2b9 ed84 0b3d
00000360: 5aab 27be ad46 58be 46c7 603e c190 7cbe
00000370: c1ea 9b3e 7c62 f73d deda 9dbd d8c5 9e3d
00000380: a8f9 773e c108 e53d 6fca 3b3d ac17 6ebe
00000390: a0f8 f73d 8385 b4bd b817 5fbe bf69 0b3c
000003a0: f085 893e adc4 90be e4b9 32be 57ac b03d
000003b0: 5156 91be 98e6 1ebe 00c4 57be 2d76 b4bc
000003c0: c909 93be 4e7a 263d 2e71 c3bb 2456 4abe
000003d0: af6e 92be 936f 223e 90b5 ba3e 7599 80be
000003e0: 0f7a 69be dcee 73be 1d7c 743c a8a0 3dbe
000003f0: 58ce b9bd f23e f3bb 429b 0fbe f545 a93b

atten.W_q.weight f4 [32, 32]
0.24404852 0.11455949 -0.2710232 -0.197013 0.19187477 -0.33650872 -0.18033104 0.23039305
0.1178154 -0.08248818 -0.25676548 -0.3181197 -0.17646778 -0.17937668 0.15606618 0.10751585
-0.2913178 -0.25709763 0.061668728 -0.066252775 -0.19049808 -0.30601966 0.21356562 -0.059840716
-0.3339292 -0.015974624 -0.32785738 0.11845438 0.17493336 -0.26294267 -0.30399045 -0.12180111
-0.016265895 -0.14152966 -0.20178612 0.19919103 -0.05091014 -0.034083735 0.34225884 -0.25781992
0.2976262 0.2856269 0.14548142 -0.09112005 0.076650456 0.24426161 0.00769612 0.09171563
0.1399561 -0.08202443 -0.13946281 -0.098975904 0.09139664 0.23646867 0.26546532 -0.13552807
0.265829 -0.023461904 0.10824719 0.32400104 0.12970784 0.10553997 -0.16868138 -0.11216838
0.07502905 -0.28364208 -0.11390461 0.39174765 0.14427695 0.10491727 0.30069268 -0.077152416
0.3219922 -0.040603593 0.10515006 0.2914501 -0.2002609 0.10951179 -0.21057068 -0.046946317
-0.03818817 0.116467394 0.29852766 0.36852264 0.1638561 0.38094938 -0.14568052 0.13589434
-0.18682477 -0.1347271 -0.08808634 0.35567713 -0.12039739 0.3758758 -0.13961121 -0.17502297
0.31650883 -0.3500373 -0.10761427 0.20416352 0.19473927 0.0051645525 -0.00786737 0.14920707
-0.20104557 0.1098404 0.23487227 0.13355823 0.07619538 -0.18189637 -0.21028545 -0.16781102
-0.12830746 0.046150435 0.10223303 -0.11424378 0.12265659 0.0432844 -0.16065013 0.04429242
0.07673306 0.20782779 -0.24881248 0.08363772 0.077702984 0.25472376 0.2673128 0.2874617
-0.21502113 0.10461238 0.1001971 -0.28025678 0.009351359 -0.10956098 0.109939545 -0.31937546
0.1535514 -0.30809104 0.16616899 -0.18764171 -0.32374087 0.07915377 0.11175165 -0.22957109
0.19147561 -0.28027666 0.086895294 -0.29040834 -0.08734139 0.106482856 -0.23103541 -0.28490296
-0.38908237 -0.3528474 -0.24624093 -0.27090582 -0.1293719 -0.32039997 0.14416602 -0.30485335
0.2538192 -0.283213 0.18144268 0.1643532 0.2255556 0.1554483 0.119905666 -0.26268116
-0.27216578 -0.24624684 -0.06415128 -0.20610783 -0.10862395 0.032789834 0.2310676 -0.3213533
0.2043663 0.18125777 -0.023221161 -0.08019041 -0.23425531 -0.175671 -0.11412192 -0.24662735
0.21371125 -0.21761642 0.20764595 0.03055269 -0.21459457 0.057498325 -0.18848914 0.04843481
0.1635046 0.29756814 -0.31808364 -0.10164653 -0.07364229 -0.20991684 0.070826426 0.25494874
-0.06458075 0.25216502 0.042269472 0.21752526 0.0025976126 -0.31722704 0.20892379 0.17031771
-0.08351175 0.08907791 -0.00011283245 -0.11429032 0.14890599 -0.16779219 -0.099979006 0.11146758
-0.077395946 0.034427375 0.05933918 0.15739879 -0.28960142 -0.14152898 0.12731321 0.13480525
0.1364503 -0.003272354 -0.2252328 0.012819765 0.12761414 -0.23482575 0.24217284 -0.051491044
-0.2549211 0.24353504 -0.22387116 -0.1147396 -0.051025335 0.09343607 -0.03767923 -0.25432712
-0.20640138 0.09404174 0.11790392 0.17209087 -0.18118736 -0.30349472 -0.09956776 0.14975536
-0.20906536 -0.03312334 -0.0132886525 -0.1645466 -0.28916955 0.21583326 0.19289921 -0.14353655
00000000: dbe7 793e 2a9e ea3d 8ec3 8abe c7bd 49be
00000010: d27a 443e df4a acbe b3a8 38be 28ec 6b3e
00000020: 3349 f13d 90ef a8bd c476 83be 96e0 a2be
00000030: f8b3 34be 85ae 37be d0cf 1f3e 4531 dc3d
00000040: 9b27 95be 4da2 83be 5998 7c3d 89af 87bd
00000050: ee11 43be 9cae 9cbe f2b0 5a3e 8a1b 75bd
00000060: c5f8 aabe 37dd 82bc ecdc a7be 3698 f23d
00000070: bb21 333e 6ca0 86be a3a4 9bbe dc72 f9bd
00000080: 0e40 85bc 27ed 10be 05a1 4ebe bcf8 4b3e
00000090: 2787 50bd 639b 0bbd 8d3c af3e f900 84be
000000a0: 7662 983e b03d 923e 15f9 143e 269d babd
000000b0: eafa 9c3d b71f 7a3e bc2f fc3b 67d5 bb3d
000000c0: a750 0f3e 6dfc a7bd 57cf 0ebe e1b3 cabd
000000d0: 292e bb3d d824 723e 12eb 873e dfc7 0abe
000000e0: bd1a 883e 2e33 c0bc b4b0 dd3d 77e3 a53e
000000f0: 22d2 043e 5725 d83d d0ba 2cbe 89b8 e5bd
00000100: d5a8 993d 8939 91be d246 e9bd 2693 c83e
00000110: 56bd 133e dede d63d 64f4 993e 1602 9ebd
00000120: 29dc a43e f44f 26bd ea58 d73d f338 953e
00000130: 3211 4dbe b847 e03d d79f 57be c84a 40bd
00000140: 336b 1cbd 7586 ee3d 9ed8 983e 00af bc3e
00000150: e5c9 273e cc0b c33e 462d 15be e327 0b3e
00000160: fe4e 3fbe e7f5 09be 9c66 b4bd 501b b63e
00000170: e892 f6bd cb72 c03e 3ef6 0ebe 3939 33be
00000180: 720d a23e 1738 b3be df64 dcbd 3e10 513e
00000190: bb69 473e 683b a93b 24e6 00bc bdc9 183e
000001a0: e4de 4dbe 01f4 e03d 5b82 703e 7dc3 083e
000001b0: 530c 9c3d 0b43 3abe 1255 57be a7d6 2bbe
000001c0: 0863 03be 3d08 3d3d 8d5f d13d a5f8 e9bd
000001d0: 6133 fb3d fc4a 313d 7881 24be f86b 353d
000001e0: 3926 9d3d cfd0 543e b3c8 7ebe 414a ab3d
000001f0: be22 9f3d 276b 823e 39dd 883e 2e2e 933e
00000200: 802e 5cbe 043f d63d 2334 cd3d d17d 8fbe
00000210: 7136 193c 8261 e0bd fc27 e13d 2e85 a3be
00000220: 943c 1d3e 1cbe 9dbe 3428 2a3e 2625 40be
00000230: 5dc1 a5be 5f1b a23d 0dde e43d af14 6bbe
00000240: 2f12 443e 6c80 8fbe 29f6 b13d 67b0 94be
00000250: 0be0 b2bd af13 da3d 8c94 6cbe cdde 91be
00000260: ce35 c7be 6aa8 b4be 9526 7cbe 2bb4 8abe
00000270: 117a 04be 770b a4be 42a0 133e bd15 9cbe
00000280: 97f4 813e 4b01 91be 1ccc 393e 354c 283e
00000290: 0cf8 663e d72d 1f3e 1a91 f53d 257e 86be
000002a0: 5059 8bbe 2228 7cbe bf61 83bd ee0d 53be
000002b0: 3c76 debd a24e 063d fc9c 6c3e 6b88 a4be
000002c0: 6645 513e a39b 393e 4e3a bebc df3a a4bd
000002d0: a0e0 6fbe 19e3 33be c1b8 e9bd e18b 7cbe
000002e0: 1fd7 5a3e d7d6 5ebe 24a1 543e a349 fa3c
000002f0: aebe 5bbe 5d83 6b3d 4c03 41be 9463 463d
00000300: c06d 273e da5a 983e dcdb a2be 0e2c d0bd
00000310: c5d1 96bd 71f4 56be 720d 913d a488 823e
00000320: ea42 84bd c61b 813e c122 2d3d f1be 5e3e
00000330: b53c 2a3b 956b a2be 1ef0 553e c467 2e3e
00000340: 3508 abbd 7b6e b63d 76a0 ecb8 0b11 eabd
00000350: d07a 183e b7d1 2bbe cbc1 ccbd 1d49 e43d
00000360: c481 9ebd b803 0d3d a40d 733d 262d 213e
00000370: a346 94be f9ec 10be 655e 023e 630a 0a3e
00000380: a1b9 0b3e fd74 56bb 6da3 66be fe09 523c
00000390: 48ad 023e 2976 70be 28fc 773e 46e8 52bd
000003a0: 0585 82be 4061 793e 7b3e 65be 98fc eabd
000003b0: f1ff 50bd 695b bf3d 8955 1abd 2a37 82be
000003c0: e25a 53be f598 c03d 9c77 f13d 9738 303e
000003d0: 2e89 39be a963 9bbe 2fea cbbd 7859 193e
000003e0: 3b15 56be 57ac 07bd a6b8 59bc e77e 28be
000003f0: 080e 94be 6503 5d3e 5f87 453e 3ffb 12be
