app/vegetation/attention/andy/src/model_ep3.pth (torch, 55490 bytes, 27 tensors)

encoder.lnXc.0.weight f4 [32, 15]
000000 eb 6f 66 be 9d 61 97 3e f4 e6 db bc fc 4c 8f 3e
       -0.22503631 0.2956666 -0.026843525 0.27988422
000010 56 8b 44 3e 06 e6 91 3d 81 62 82 bd b9 3e a6 3d
       0.19193777 0.071239516 -0.063664444 0.08117432
000020 0f 1c 15 be ca 72 a1 3c 29 c3 63 be 63 bf f0 3c
       -0.14561485 0.019708056 -0.22242416 0.029388135
000030 c1 39 a9 3e 09 34 05 bc b1 9c 4d 3e 32 79 83 be
       0.33051875 -0.008130082 0.20079304 -0.25678402
000040 8a 7c b3 be 4f 97 6c 3d 89 ee 94 be 23 a2 64 bd
       -0.35055953 0.057761487 -0.29088238 -0.055818688
000050 5e e2 a2 3e 59 af 92 be 72 e7 1f be 1f fd 2f 3e
       0.3181333 -0.28649405 -0.15615633 0.17186402
000060 80 17 46 be 97 fa 94 be 95 82 1d 3e 48 9a ad 3e
       -0.19344902 -0.29097435 0.15381844 0.3390677
000070 cd 05 cc bc 39 1e 07 be 6c 86 82 3e 75 b1 8e 3c
       -0.02490511 -0.13195123 0.2549318 0.017418602
000080 d5 9d 45 3e d8 ca 00 3e bd 63 88 3e 17 ac ad be
       0.1929849 0.12577379 0.26638594 -0.33920357
000090 40 b3 f5 3c f2 41 94 be 81 3a 9e 3e 5e 48 71 3d
       0.0299927 -0.28956562 0.3090401 0.058906905
0000a0 3e a8 eb 3c fa d5 02 bd b0 80 87 be 80 b9 97 be
       0.028766748 -0.031942345 -0.26465368 -0.29633713
0000b0 e2 c9 d7 3d 7f 97 f9 bd 34 ac a0 be 5d fb a5 be
       0.10536553 -0.12187099 -0.3138138 -0.32418337
0000c0 1e b0 a7 be ac 78 34 bd 04 18 7b bc 8a 62 10 3e
       -0.32751554 -0.044060394 -0.01532555 0.1410009
0000d0 12 f0 c9 3d 24 25 eb bd 25 ea 45 be ad 3e b2 be
       0.09860243 -0.114816934 -0.193276 -0.34813443
0000e0 a0 a0 8e 3d 1d 91 c7 3d b4 0a 60 bd c7 0f a2 be
       0.069642305 0.09744475 -0.054697707 -0.31652662
0000f0 82 a4 87 be a0 03 52 3e 1c 2c ed 3d 6d e8 c6 3e
       -0.26492697 0.20509195 0.11580679 0.38849202
000100 ba d7 44 bd 67 1a c0 3e 9f a4 4d be 27 b4 47 be
       -0.048057295 0.37520143 -0.20082329 -0.19502316
000110 9e 0e fd 3d 0f 5e a5 3e cf 26 48 be b1 40 af 3e
       0.12356304 0.32298324 -0.19546054 0.34229043
000120 f1 20 10 3c cd 6c 9f be 09 46 a1 3e 1e a5 68 3d
       0.008796916 -0.31137696 0.31498745 0.056798093
000130 be 7c 81 3d 55 d3 94 be 26 6b 91 3e d6 85 3c 3e
       0.06322621 -0.29067484 0.2840206 0.1841043
000140 97 fc e2 3b 5f fd 6c bb ce 4d 97 3e ef 3c 51 3e
       0.0069270837 -0.0036161763 0.29551548 0.204334
000150 e1 58 9f be 34 c1 80 3e 30 d7 25 3e 61 58 ae be
       -0.31122497 0.25147402 0.16195369 -0.34051803
000160 40 f2 45 be 76 8c 69 bd ff 9f c0 3e 18 32 6b 3e
       -0.19330692 -0.05701872 0.37622067 0.22968328
000170 02 bb 48 3e 28 48 39 3e 5b ea c0 3e d3 a1 20 3d
       0.19602588 0.18093932 0.376788 0.039216828
000180 1d 84 1d be b0 48 9c be 4c 48 4a 3d 56 95 93 be
       -0.15382428 -0.30524206 0.049385354 -0.28824872
000190 fb fe 84 3d cd 5e 59 be 45 a9 5d 3e 1e b1 e3 bd
       0.06493946 -0.2122757 0.21646602 -0.11117767
0001a0 8f 8c ac 3d b2 5c 17 3d 8f 92 6a 3e 4b 71 e3 3d
       0.08425247 0.036953636 0.2290747 0.11105593
0001b0 23 ad af 39 86 0f 9d be f5 3b 29 3d 0f 40 b0 3d
       0.00033507598 -0.30675906 0.041316945 0.08605968
0001c0 30 bf 8b be f4 03 69 be b8 fa bb bd 53 65 2e 3d
       -0.27294302 -0.22755414 -0.0917868 0.0425771
0001d0 c7 7c 57 be b4 bb 99 be d7 2b d2 bd 8a cf ac be
       -0.21043693 -0.3002602 -0.10262268 -0.3375209
0001e0 a1 b8 76 be 15 9f 78 be 52 fc 4b be 5b 88 f6 3d
       -0.24093868 -0.24279435 -0.19920471 0.120377265
0001f0 08 e6 a4 3e 4d a5 5b be eb bc 81 3e 3e 60 60 3e
       0.3220675 -0.21449776 0.25339445 0.21911713
000200 15 95 93 be e4 dc 97 3c 8e cc 1d be 0a 40 cb 3c
       -0.28824678 0.018537946 -0.15410063 0.02481081
000210 d4 ae 75 be 5a c8 7b 3e 2b 02 8a 3e 7b 21 00 be
       -0.23992473 0.24588147 0.2695478 -0.12512772
000220 75 e1 ea bd a4 38 e6 bd 51 21 45 3d 72 91 96 be
       -0.11468784 -0.11241272 0.048127476 -0.2940784
000230 92 ef d9 3d 83 dc f3 3c fb d5 ac 3d 0f 77 95 3b
       0.106413975 0.029768234 0.08439251 0.004561312
000240 6b f2 44 be 27 4d 8a 3e d1 05 7d be 73 10 90 be
       -0.192331 0.27011988 -0.2470925 -0.2813755
000250 79 8e 3d be a9 01 87 3c e2 86 8a 3e 77 b1 8d 3e
       -0.1851138 0.016480284 0.27056032 0.27674457
000260 1b da 2c 3e 58 17 88 3e e7 60 10 bd f5 69 aa 3e
       0.16880076 0.2658031 -0.035248663 0.33283964
000270 14 f4 9d 3d ab 0b 91 3e 8c 0f 9c be ba 18 13 3c
       0.0771257 0.28329214 -0.3048061 0.008978063
000280 84 b9 30 3d c2 0a 59 be ae 91 a0 be 0c b0 b0 be
       0.04314567 -0.2119551 -0.31361145 -0.34509313
000290 85 e4 13 bd e5 b2 86 3b aa a3 85 be 3a 8f 97 3e
       -0.036106605 0.0041106814 -0.26101428 0.2960146
0002a0 2d 36 bb bd 72 4a 15 3e 7b c7 0b 3e ec cc 96 3e
       -0.091411926 0.1457918 0.13650315 0.29453218
0002b0 b0 ab a4 be 0d 4f 22 3e db 4d c9 3d 68 3a ef 3d
       -0.32162237 0.15850468 0.09829303 0.11681062
0002c0 f8 4e 9f 3d 5e 64 80 3e 6b 4d 8c bc f4 ad 13 be
       0.07778734 0.25076574 -0.01712676 -0.14421827
0002d0 9a 1d 19 be 9c 55 8a be 1d 1f fd 3c 5b 82 ac be
       -0.14952698 -0.2701844 0.030898625 -0.33693203
0002e0 d3 dd 3e 3e 2b 73 64 bd a7 75 d6 3c ae 3c 13 3d
       0.18639307 -0.055773895 0.026179148 0.03594654
0002f0 22 0b 76 3e 47 74 96 be ef f2 a7 bd 84 5a 2e be
       0.24027684 -0.29385588 -0.08200633 -0.17026716
000300 fc e3 a1 3e 50 bd 64 bd 85 22 b0 3e dd 4d 3c 3e
       0.3161925 -0.055844605 0.34401336 0.18389077
000310 43 34 6d be 28 34 e9 3d 5c e7 80 bc 48 72 5a 3e
       -0.23164468 0.11386901 -0.01573532 0.21332657
000320 d0 17 02 3e 04 0c 02 3b 91 d1 58 3d 8f 68 95 3e
       0.12704396 0.0019843588 0.052934233 0.29181334
000330 c0 7c 3b bd 42 13 93 3e 54 a6 b9 3d 15 df 1a be
       -0.045773268 0.2872563 0.09064928 -0.15124162
000340 1c aa 9d be a7 4d 1f be 83 a3 08 3e f9 fa 28 be
       -0.30793846 -0.15556966 0.13343625 -0.16501988
000350 9a 31 b3 bc 91 e8 6c 3e 10 60 d1 3e aa 03 fe 3c
       -0.021874238 0.23135592 0.40893602 0.031007607
000360 50 c7 61 3d 33 ed c3 3d ba 15 e8 bd 3e e2 ad 3d
       0.05512172 0.095667265 -0.11332269 0.08490418
000370 be 5e 32 3e 50 95 3b 3d 50 7e 47 be 8c e4 43 be
       0.17418954 0.045796692 -0.19481778 -0.19130152
000380 00 35 fb bd 73 13 90 be 15 73 b7 be a1 18 3c 3d
       -0.12265968 -0.2813984 -0.35829988 0.045921925
000390 01 35 af bb ce 80 a9 be 4c 78 b2 be 88 ec 1c bd
       -0.0053468947 -0.33106083 -0.34857404 -0.03831151
0003a0 35 9a fd bd 79 dc 75 3d 71 38 94 3e 3a 95 ae 3d
       -0.12382928 0.060024712 0.2894931 0.085245565
0003b0 5f 99 50 bd 86 69 2f 3e 1d 98 a0 3e 68 d2 52 be
       -0.050927516 0.17130098 0.31366053 -0.20588076
0003c0 58 02 c1 be 3f 8f 78 3e e7 80 18 3e 57 5f 3a be
       -0.376971 0.24273394 0.14892922 -0.18200432
0003d0 15 fe 52 be e6 c2 85 3e 9d 5d b4 be be 5f 01 be
       -0.20604737 0.26125258 -0.3522767 -0.12634179
0003e0 bb 5a ae be 9c 7a a3 be 39 53 a5 bd ac fd 72 3e
       -0.34053597 -0.3192948 -0.08072514 0.2372958
0003f0 c9 99 38 3e fe 00 01 be 63 51 a7 be 4a df 30 3e
       0.18027414 -0.12598035 -0.3267928 0.17272678

encoder.lnXc.0.bias f4 [32]
000000 de 77 63 3c f1 31 20 3e d6 71 33 3e 50 f6 68 be
       0.013883559 0.15644051 0.17523894 -0.22750211
000010 be 63 6d 3e 21 8e 12 3e 35 0d ff 3d a9 b4 45 3e
       0.2318258 0.1431203 0.12453691 0.19307198
000020 ae 2d 94 3e f7 32 04 bd 3f f5 45 3e 03 dd a9 bd
       0.289411 -0.032275166 0.19331835 -0.08294108
000030 4d 7e 29 3e 78 0e 08 be be e6 5b 3e aa 19 54 3d
       0.16552086 -0.1328677 0.2147474 0.051782288
000040 58 30 39 be d9 80 81 be 86 ee 7a 3e fc 69 6a be
       -0.18084848 -0.25293615 0.24505052 -0.22891992
000050 c5 4b be bd 80 59 13 3e 47 90 74 be d6 0b fa bc
       -0.09291796 0.1438961 -0.23883162 -0.030523222
000060 e1 90 9c be 2b 15 5e be df 39 44 be 15 81 c1 bd
       -0.30579284 -0.21687762 -0.19162701 -0.094484486
000070 93 95 10 3e 5f e8 dc bc 8b ee 34 3e 82 5f 93 3c
       0.14119558 -0.026966272 0.17669122 0.017989878

encoder.lnXc.2.weight f4 [32, 32]
000000 22 4b d7 3d e8 8a 2b 3e ac ca a7 bd e1 70 75 be
       0.10512377 0.16752207 -0.081929535 -0.23968841
000010 5a a3 92 3e 46 54 78 3e 40 03 d5 3d 9b b0 5f 3e
       0.28640252 0.24250898 0.104010105 0.21844713
000020 e2 cf b8 3d 76 30 35 bd 4b 1e 8e 3e 23 71 01 3c
       0.090240255 -0.04423567 0.27757487 0.007900509
000030 69 f1 da 3d 6b 94 ae 3e 01 7b 9f 3e 98 8a 50 be
       0.106905766 0.3409761 0.31148532 -0.2036537
000040 98 58 40 3e c1 c8 2b be c2 c6 7c 3c f4 95 c6 3e
       0.18783796 -0.167758 0.015428247 0.3878628
000050 7a 7a b6 3e ed 00 01 3e 02 c3 94 be 07 c5 83 3e
       0.35640317 0.1259801 -0.2905503 0.25736257
000060 75 cd 99 3a 90 3a 0d bd a1 e7 88 3e 06 73 42 3e
       0.0011734205 -0.034479678 0.2673922 0.1898919
000070 03 5d 0b bd ec fc f6 bd 5b 6a 29 3e dd f9 7e 3e
       -0.03402425 -0.1205996 0.16544478 0.24900003
000080 a2 4b d1 3c 81 f0 e2 bd a9 3f 10 be a1 44 b5 bd
       0.02554876 -0.11081029 -0.14086784 -0.088509806
000090 03 bd 80 be 81 cd ab be e2 05 95 be ba 18 49 3e
       -0.25144204 -0.33555225 -0.2910605 0.19638339
0000a0 ac bb 88 be b1 73 6e 3e 89 b6 3e be c4 cf 29 3e
       -0.26705682 0.2328632 -0.18624319 0.16583163
0000b0 e3 80 0c be f8 49 a0 be 15 ac 38 be 0b f7 76 be
       -0.13721041 -0.31306434 -0.18034394 -0.24117677
0000c0 90 e2 8d bd 38 80 87 3c fe 22 85 be b1 d4 25 be
       -0.06927979 0.016540632 -0.2600326 -0.16194417
0000d0 77 d1 1d be 14 24 ef 3c 47 7e c9 bd cc 4f b3 3d
       -0.15411936 0.029192008 -0.098385386 0.087554544
0000e0 5b 8e 4d be 1d 34 8b be 9b e6 15 bd d0 b1 43 3e
       -0.20073836 -0.27188197 -0.036596876 0.19110799
0000f0 34 4d 7e bd 5a 37 b3 be 0e 8a 80 3e a7 a8 8a 3e
       -0.062085345 -0.35003167 0.25105327 0.27081797
000100 bd a6 06 be 59 41 5d be 14 a4 82 be 76 73 71 be
       -0.13149543 -0.2160696 -0.25515807 -0.23579201
000110 86 96 89 3b b0 68 16 be 47 f4 07 3e 1b 0e af 3b
       0.004198852 -0.14688373 0.13276778 0.0053422577
000120 43 75 8e be 09 d0 95 be 40 a9 0e 3e 2d 66 dd 3d
       -0.2782384 -0.2926028 0.13931751 0.10810504
000130 d9 d6 9f be ea 2d d9 3d 24 d3 97 be 57 ea 75 be
       -0.31218603 0.106044605 -0.29653275 -0.24015175
000140 be 62 00 be 3c 4d 94 bd b6 9b 8b 3d e2 8d b2 be
       -0.12537667 -0.07241294 0.06816809 -0.34873873
000150 cd 9a 92 be 80 c4 4d 3e 2a 9d 63 be 8c f3 13 bc
       -0.2863373 0.2009449 -0.22227922 -0.009030234
000160 d4 bd cb 3d 40 f6 35 3e 1f d4 32 3d 64 95 81 be
       0.09948316 0.17769718 0.043659326 -0.25309289
000170 2b 75 18 be 28 73 1b be 13 e5 81 bd 7d 63 5d be
       -0.14888446 -0.15180647 -0.063425206 -0.21619983
000180 d5 32 a3 bd 46 4e 2b 3e 6e 43 97 3e 07 90 89 be
       -0.0796868 0.16729078 0.29543632 -0.26867697
000190 aa 82 06 be a7 5b 2c 3e 46 93 ce 3e 07 df 24 be
       -0.13135782 0.16831838 0.40346736 -0.16100703
0001a0 3f 10 80 3e d2 0c c3 bd aa cf 97 3e f8 2a 6f 3e
       0.25012395 -0.0952393 0.29650623 0.23356235
0001b0 43 b7 b7 3e 69 3f ab 3e 41 3c c5 bd 0a e1 ab 3e
       0.35882005 0.33446816 -0.09630633 0.3357013
0001c0 b5 ef 4c be 3d 34 d3 bd 5a 1b 94 3e 70 63 23 3e
       -0.20013316 -0.10312698 0.28927118 0.15955901
0001d0 3f ff 2b be 13 6f 70 3c b4 14 39 3e 5e 2f 09 3e
       -0.16796587 0.01467492 0.18074304 0.13396975
0001e0 7d 24 ae ba 85 05 3e be 7b 0c 32 bd c2 55 5c 3d
       -0.0013286021 -0.18556793 -0.043468934 0.053792723
0001f0 ad 5d ba bd 6a 4a b4 3e 22 f8 14 3e 1a 01 56 be
       -0.090998985 0.35213023 0.1454778 -0.20898858
000200 67 ce 0e 3e e2 9b 28 3e 44 22 da bd 65 d3 2c 3e
       0.13945924 0.16465715 -0.10651067 0.16877516
000210 7b 6f ce bd e7 c0 27 3e 5d 1b 0f 3d 2e ea 59 3e
       -0.10079857 0.1638218 0.034938205 0.21280739
000220 d2 2c 1c be f0 87 07 be 46 27 47 3e 1f f0 2e be
       -0.15251473 -0.1323545 0.19448575 -0.17083786
000230 13 5d 98 bd e4 1f a9 bd f2 b4 82 3e eb 38 8f bd
       -0.074396275 -0.08258036 0.25528675 -0.06993278
000240 bf a4 86 3e 09 82 b1 3d 26 75 55 3e 7e c8 57 3d
       0.26297566 0.0866738 0.2084547 0.05268144
000250 22 08 9f bd 54 96 1b bd af eb 37 be 6f 63 3a 3e
       -0.07765223 -0.03798516 -0.17961 0.18201993
000260 c8 e6 6a be dd d7 31 3d 1c 99 3d bd 37 25 16 3e
       -0.22939599 0.043418754 -0.046288595 0.14662634
000270 ad fc 80 3e fb 98 ef bd e2 a7 2c 3e 72 20 3c 3e
       0.25192776 -0.116991006 0.16860917 0.18371752
000280 55 1d 8b 3d 1d 58 c8 3d e1 31 4f be 98 1b 2a 3e
       0.06792704 0.09782431 -0.20233871 0.16612089
000290 71 64 55 be 8c b9 08 3e 1d 62 be bc 26 a0 bb 3d
       -0.20839097 0.1335203 -0.023240143 0.09161405
0002a0 0b 38 0b be 8a 57 97 3d 29 6a 28 3d 5f 7c ed bd
       -0.13595597 0.073897436 0.041116867 -0.115959875
0002b0 40 ce c6 bc a5 9b b0 3e ad 6a da 3d 33 f9 d2 3d
       -0.02426827 0.34493747 0.10664878 0.10301437
0002c0 39 08 6d 3e 32 70 ec 3d a6 03 81 bd 6c d7 22 3e
       0.23147668 0.11544837 -0.06299524 0.1590249
0002d0 f5 6a 21 be ae f7 81 3e e7 02 93 be 33 67 bf 3e
       -0.15763457 0.25384277 -0.28713152 0.37383422
0002e0 37 6f 14 be 51 8d d0 3d 35 6f ee 3c e6 b8 b0 3d
       -0.1449555 0.10183204 0.029105762 0.086290166
0002f0 50 b6 01 be 87 2b 5a 3e 95 6e b9 bd 7d d7 10 3e
       -0.12667203 0.21305667 -0.09054295 0.14144702
000300 a1 fc 4b 3c f7 33 80 3e fc c4 26 3e 5c 34 4b be
       0.012450368 0.25039646 0.16286081 -0.19844192
000310 6c 99 6e 3c e0 d7 c6 3e 60 6c 71 3e 7c 73 b8 3e
       0.014562946 0.38836575 0.23576498 0.36025608
000320 cd a4 96 3d 5a 42 57 be 9b 36 41 be 4e d2 87 3d
       0.07355652 -0.21021405 -0.18868487 0.06631909
000330 16 e2 c6 bd e6 45 16 3e 0f 8a eb 3c 07 f4 96 3e
       -0.09711091 0.14675102 0.028752355 0.29483053
000340 a7 54 87 3e 2c 63 36 be a5 38 3e 3e fb 3d b5 ba
       0.26431772 -0.17811269 0.18576296 -0.0013827676
000350 39 da fa bd 37 62 ba 3e 41 8c db 3d f6 79 a9 3d
       -0.12248654 0.36403057 0.10720111 0.08275215
000360 3e 39 b7 3d fb fa 2f bd d0 34 9b bd e2 bb a9 3e
       0.08946465 -0.042963963 -0.075784326 0.33151156
000370 7e c9 17 be c5 27 00 3e f5 62 e8 3d 9e 7d 04 3e
       -0.14822957 0.12515171 0.113469996 0.12938544
000380 51 dd 08 3d 2b 9c 4f be 17 31 61 3e 60 60 91 be
       0.03341419 -0.20274417 0.21991383 -0.2839384
000390 7e f1 85 be 63 74 8b bd 37 22 f4 bd 38 8c 27 be
       -0.26160806 -0.068093084 -0.119205885 -0.16362083
0003a0 a0 66 36 3e d7 a9 c5 bc 5b a4 79 3e 9a e1 5c 3e
       0.17812586 -0.024128838 0.24379103 0.21570435
0003b0 5b 46 5a 3e 67 ae 69 bb 55 70 36 be 20 6a fa bd
       0.21315901 -0.003565693 -0.17816289 -0.12227273
0003c0 5a aa a6 bd 13 8c 1e 3e ba 62 29 be e7 2f 89 3e
       -0.08137961 0.15483122 -0.16541567 0.2679436
0003d0 38 f0 28 be a6 c9 84 be 95 93 af bd 6d ec a5 bd
       -0.16497886 -0.25935096 -0.08573071 -0.08101735
0003e0 f3 3d 55 be 18 04 f0 bd 45 95 01 be a2 8c a8 bb
       -0.20824413 -0.11719531 -0.12654598 -0.005143718
0003f0 ef 18 17 be 2d 2f 9e bd ab cb 43 bd 75 dd 8e be
       -0.14755605 -0.07723842 -0.047801655 -0.27903333

encoder.lnXc.2.bias f4 [32]
000000 ad 32 52 3e 0a 95 97 bd 58 76 20 be ea cf 0a 3e
       0.20527144 -0.07401474 -0.15670145 0.13555875
000010 b2 ba 54 3d e5 0f 90 bd c3 67 68 3e 59 9c f6 3d
       0.05193586 -0.07034282 0.22695832 0.1204154
000020 be b4 56 3d ab a9 cc 3d 47 2b 1e 3e 52 3f 05 3d
       0.052418463 0.09993299 0.15446196 0.03253109
000030 8e 83 dd 3d 7b 20 97 bd e0 47 d6 3d 89 5c 3c be
       0.10816108 -0.07379242 0.10462928 -0.18394674
000040 9f 9a bd bc 47 73 dc ba 71 f2 0b 3e da 04 11 be
       -0.023145018 -0.0016819023 0.13666703 -0.14162007
000050 57 fa a2 3e ce f7 7a be 35 67 51 be df 55 b9 3d
       0.3183162 -0.24508592 -0.20449527 0.09049582
000060 d5 d5 5e 3d de 31 eb bd 78 ee 86 bd f5 58 40 be
       0.054403145 -0.11484121 -0.06588453 -0.18783934
000070 b3 07 8a bd a2 d8 b5 bd af da 00 3d 9a 72 cf 3d
       -0.0673975 -0.0887921 0.031458553 0.101292804

encoder.lnLst.0.0.weight f4 [32, 3]
000000 61 70 00 be fd 9f 06 be 76 79 32 be b0 53 6a be
       -0.12542869 -0.13146968 -0.17429146 -0.22883487
000010 2f 8b fc 3d 66 a0 e1 be db 5e 6a be 6d c5 1e be
       0.12331235 -0.44067687 -0.22887747 -0.15505
000020 6c b0 56 be 0b e0 8d 3e 95 f2 9a 3e f9 98 61 bd
       -0.20965737 0.27709994 0.302632 -0.055077527
000030 19 e6 97 3e 6f 0b 57 be 0c f2 58 3e 32 aa 38 be
       0.29667738 -0.21000455 0.21186084 -0.18033674
000040 bc 34 e2 bd c0 2f 10 3e 1a 73 a4 3e 9d 08 62 be
       -0.110452145 0.14080715 0.32119066 -0.22073598
000050 6a 28 c4 3e 28 b6 31 3e 42 2c ae 3e f8 78 04 3e
       0.38312083 0.17354643 0.3401814 0.12936771
000060 40 9a f1 be f8 8a bb be 79 17 95 bd 07 ed 9d 3e
       -0.47187996 -0.36629462 -0.07279868 0.308449
000070 0a 44 0b 3e 48 39 84 3e 6e fc a0 be e5 8f 7f 3e
       0.13600174 0.25824952 -0.3144259 0.24957235
000080 08 ff bf bd f8 7b 0d be a3 19 d3 be cc eb c1 3e
       -0.09374815 -0.13816822 -0.41230497 0.3787521
000090 79 2f 87 3e 2d b2 72 3e f5 69 1d be 59 8b da bc
       0.26403406 0.23700781 -0.1537245 -0.026677774
0000a0 bf d0 ab 3e db e6 79 3e 7c a4 c0 3e 1a 40 24 be
       0.33557698 0.2440447 0.37625492 -0.16040078
0000b0 54 f6 9f be 8c 12 6d be 4f 5b a8 3e da 87 64 be
       -0.3124262 -0.23151606 0.32882163 -0.22317448
0000c0 6f 80 9d 3e 4a e5 c0 3e 5a a3 85 be d0 e1 62 be
       0.3076205 0.37674934 -0.2610119 -0.22156453
0000d0 2e 76 ca be 68 d9 b4 3c bc 77 a1 3e cd 24 5b be
       -0.3954329 0.022076324 0.31536663 -0.21400757
0000e0 05 52 1f bc 8e 4e 93 be c9 07 0e 3e 09 2f 4e be
       -0.009724145 -0.2877087 0.13870157 -0.2013513
0000f0 41 6c 91 3e ee 84 c1 3d 41 7b 0d 3d 98 81 ed 3e
       0.28402904 0.094491825 0.034541372 0.46387935
000100 be 25 b0 3e b2 39 eb 3c f1 38 89 be b5 01 01 3e
       0.34403795 0.028714035 -0.26801255 0.12598307
000110 78 ef 0a 3e 41 7a 85 be 73 35 a2 3e 0e 55 72 be
       0.13567913 -0.26069835 0.31681404 -0.23665258
000120 a5 61 7d 3e 92 90 1d 3e af 13 6e be f1 03 97 bd
       0.2474428 0.1538718 -0.23249696 -0.07373799
000130 e9 c4 8c 3e a4 96 97 be 49 14 1a 3c dc a0 a4 be
       0.2749398 -0.29607117 0.00940425 -0.32153976
000140 7d bb 40 be f4 ab a1 3e 65 10 ad be 94 e9 2b be
       -0.18821521 0.31576502 -0.3380157 -0.16788322
000150 4b ab d1 3e 22 1f 49 3e 4c 88 59 3e bb 66 9c be
       0.40951 0.19640782 0.212434 -0.30547127
000160 3e b3 c1 3d 6b 96 cd be b0 5e 2d bd b6 69 c7 3e
       0.09458016 -0.40153822 -0.04232663 0.3894784
000170 29 90 94 be 4b 3d 07 be 18 30 d9 be 54 32 fd bd
       -0.29016235 -0.13206975 -0.42419505 -0.12363115

encoder.lnLst.0.0.bias f4 [32]
000000 15 d4 93 bd 10 cb 35 3d 13 bf be be 2d c9 0b be
       -0.07218186 0.04438311 -0.37255153 -0.13650961
000010 28 fa da be 50 c7 f2 be cd c0 e5 be e5 fa 27 3e
       -0.4276898 -0.47417688 -0.44873658 0.16404302
000020 ba 0a c6 3e 6b 29 e4 3e e8 27 03 3d 78 d7 26 be
       0.3868006 0.4456285 0.03202048 -0.16293132
000030 8e a3 bf bd 80 ea 64 be 2a 1b 3f be 3b 61 1a be
       -0.093573675 -0.2235508 -0.18662706 -0.15076153
000040 73 45 f9 be 3f 6f 45 3e 8d 0b d2 3e a0 08 d5 3c
       -0.48685798 0.19280718 0.41024438 0.02600509
000050 e6 b5 e3 bd b0 2d fb 3d 29 6c c9 bd 04 06 03 bf
       -0.11118679 0.122645736 -0.09835083 -0.51181054
000060 58 19 8c 3e 48 4f 82 be bb 4d d0 bd 0d 63 e5 3d
       0.27363086 -0.25451112 -0.10171076 0.11200533
000070 b1 9d 27 be 7c c5 28 be a5 3e 9d be ed 4c b4 3d
       -0.16368748 -0.16481584 -0.30711856 0.08803735

encoder.lnLst.0.2.weight f4 [32, 32]
000000 49 e9 2a be 7a 0e 0a 3e 13 5c 28 3d eb 07 53 be
       -0.16690554 0.13482085 0.041103434 -0.20608489
000010 38 82 b6 3d c5 af 14 bd 67 39 b4 3d 43 7e a5 3b
       0.08911556 -0.03630044 0.08800011 0.005050452
000020 48 42 aa 3d 7f c4 82 3e ce fc 68 bd c5 35 03 be
       0.083134234 0.2554054 -0.05688172 -0.1281348
000030 36 a8 ba bd 8f ef 71 3d 6b 06 90 3e e7 19 92 3e
       -0.09114115 0.05906635 0.28129897 0.28535387
000040 e4 51 02 be 9a 6d a1 bd bf 4e 6e be 2e 12 b1 bd
       -0.12726551 -0.07882233 -0.23272227 -0.086460456
000050 c9 76 ab 3d 92 55 6b be 8f 66 83 be 90 ad ff bd
       0.08372266 -0.22981861 -0.25664183 -0.12484276
000060 68 07 a3 bd 16 93 4a 3e f2 20 2c bc 4a a2 8d 3e
       -0.07960397 0.19782671 -0.010505902 0.2766288
000070 e7 d0 86 3d 23 1c 6b bd 64 0a 86 3e 8e 4c 05 be
       0.06582814 -0.05739988 0.26179802 -0.13017485
000080 d0 0a 2d 3e fd c8 b1 3e fa 5e 9a bd 16 9b 9e 3b
       0.16898656 0.34723654 -0.075376466 0.004840265
000090 01 95 37 be f7 c0 93 3e 22 89 9c 3e 70 e6 61 be
       -0.17927934 0.28858158 0.30573374 -0.22060561
0000a0 00 f7 ad be ee e3 61 be df 55 8c 3e c7 0e 06 be
       -0.3397751 -0.22059605 0.27409264 -0.13091575
0000b0 b3 a7 c1 bd a6 02 5d bd 7b b2 16 3e 09 9a 95 be
       -0.09455814 -0.053957604 0.14716522 -0.29219082
0000c0 fa f1 60 bc 6c 9d 0d be 32 86 2b be bd 15 75 bd
       -0.013729567 -0.13829583 -0.1675041 -0.059835184
0000d0 3b 40 61 3c ba 29 63 be 1e 12 19 be 7f 60 93 be
       0.013748224 -0.22183886 -0.14948317 -0.28784558
0000e0 c8 49 ab bd 59 1a d1 3d 5c c3 9a be ad 99 e2 3d
       -0.08363682 0.102101035 -0.30227172 0.110644676
0000f0 4f 29 ad 3d d2 54 59 3e a4 92 a1 bd 09 7a d7 bd
       0.084551446 0.21223763 -0.078892976 -0.10521323
000100 d8 a6 88 3e 05 1a 83 bd 8c 59 38 3e 6c 99 b0 3d
       0.26689792 -0.06401447 0.1800291 0.08623013
000110 4f 47 56 3e e9 f6 f3 3d 47 6d 0c 3e 3b 22 e4 3c
       0.2092564 0.11912329 0.13713561 0.027848354
000120 2a 18 46 be 02 f6 72 3d f0 22 11 be 0d 7e d1 bc
       -0.19345155 0.059316643 -0.14173484 -0.025572801
000130 4a 75 c8 3d 62 02 2e bd bc 27 89 bd d5 f3 c7 bc
       0.09787996 -0.04248274 -0.06697032 -0.02440826
000140 ac 2c 69 3e 42 e1 8b bd ce a1 1c be 78 27 20 3e
       0.22770947 -0.06830074 -0.15296099 0.15640056
000150 b2 d5 b9 bc 8b 15 8b bc 26 2a 13 bd 04 46 1b 3e
       -0.022684906 -0.016978046 -0.035928868 0.15163428
000160 69 25 06 3e e8 a4 7f 3e 0a 31 94 3e 27 a0 08 bd
       0.13100208 0.2496525 0.28943664 -0.03335586
000170 d1 ce 54 3d 15 4f 90 be eb 6b ef bd a6 6f 5f 3e
       0.051955048 -0.28185335 -0.116905056 0.21819934
000180 0b a9 f1 3d dc 0d 07 3d 0b 81 a0 3d 93 20 af be
       0.117998205 0.0329722 0.07837113 -0.3420454
000190 f9 ac 91 be aa 5c 67 3b a0 1c cf bd 9c 3f ac be
       -0.2845228 0.0035303035 -0.10112882 -0.3364228
0001a0 f1 19 9f be f1 9a 45 be d8 dc a8 3b 29 ff 76 3e
       -0.3107448 -0.19297387 0.0051532798 0.24120773
0001b0 b4 f4 33 be bb b2 77 3e 4e e2 96 be fa cc 7b be
       -0.17573816 0.24189274 -0.29469532 -0.24589911
0001c0 7b 1e 94 be 66 43 80 bd 23 59 a7 be f4 e9 94 be
       -0.28929505 -0.06262855 -0.32685193 -0.29084742
0001d0 7a 45 2b be 9f 46 ad be 82 33 78 3e a1 6b e5 bd
       -0.16725722 -0.33842942 0.24238399 -0.11202169
0001e0 44 49 b6 3d a9 f1 83 3d 34 a5 9a 3e c7 54 36 be
       0.08900693 0.064425774 0.30204165 -0.17805777
0001f0 e7 c6 2c be b3 77 10 3e 60 4c 76 be 5c b6 c4 3d
       -0.1687275 0.14108162 -0.24052572 0.09605095
000200 d0 0e 5f 3c 23 d2 86 3d 17 d0 89 be 29 aa 97 3e
       0.013614371 0.06583049 -0.26916572 0.2962201
000210 9a cf f3 3d fc 7a 30 3e 61 5f 95 3e d7 f6 5f be
       0.11904831 0.17234415 0.2917433 -0.21871506
000220 ed a7 42 3e 38 9d 39 3e c9 ff 80 bd c6 e5 10 3e
       0.19009371 0.1812638 -0.06298787 0.14150152
000230 1c 53 d3 bd 3e 6e 9f 3d 58 d5 12 3e b8 a6 42 3e
       -0.10318586 0.07784699 0.14339197 0.1900891
000240 e5 17 45 be c6 d6 d3 3d 57 56 34 be 8b dc 6f 3e
       -0.19247396 0.10343699 -0.17611061 0.23423974
000250 ae 28 d1 bc 47 28 38 3e e7 15 83 be d8 71 86 be
       -0.025532093 0.17984115 -0.25602648 -0.2625873
000260 88 21 20 bd ce d9 88 3e 01 92 13 be 96 49 4f 3e
       -0.039094478 0.26728672 -0.14411165 0.20242915
000270 c9 8e ad bd e1 f2 a7 bd 70 7c f3 3d c2 6c 15 be
       -0.084745 -0.08200622 0.11888969 -0.14592269
000280 e9 f1 31 3e 12 6c bf 3d dd 2d 95 bd 8c fc 81 be
       0.17377438 0.09346785 -0.07284138 -0.2538799
000290 bf 6d 9a 3e 89 33 96 3d e1 46 8c bd 70 b1 8f 3c
       0.30161855 0.07334048 -0.068494566 0.017540663
0002a0 fb c1 97 3d 54 a8 81 be 6c 1d ab bd 6b 2b 4f be
       0.07410046 -0.25323737 -0.08355221 -0.20231406
0002b0 32 52 eb 3d 57 26 44 be 3e 45 fe 3d f5 9b 68 3e
       0.11490287 -0.1915525 0.12415551 0.22715743
0002c0 77 1c c5 bd 68 95 c1 bd 66 bb e9 3d f7 ad 4b be
       -0.0962457 -0.09452325 0.114126965 -0.19890581
0002d0 29 e5 b2 be 9c 6c 81 be 70 a6 0a 3e cb f2 58 3e
       -0.3494046 -0.25278175 0.13540053 0.21186368
0002e0 33 93 12 3e ac 8e c3 bc db b1 6e 3d 91 8a 62 3e
       0.14313965 -0.023871742 0.058275085 0.22123171
0002f0 ee 19 40 3e a6 b0 86 3e e7 3e 73 be 3a 08 39 be
       0.18759891 0.26306647 -0.23754464 -0.18069544
000300 e4 4c 6f 3e 01 46 26 3b 31 7e 36 3e 60 e4 bf bd
       0.23369175 0.0025371315 0.17821576 -0.09369731
000310 6d 16 3f be 34 20 9f bd 60 93 83 3e d4 66 3c 3d
       -0.18660899 -0.07769814 0.25698376 0.045996502
000320 b3 84 48 be 0f c8 ee 3c 83 20 50 3e 70 bf 66 bc
       -0.1958187 0.02914813 0.20324902 -0.014083728
000330 f7 a9 e8 3d e1 21 35 be 16 7f f0 3c a0 cf 98 3e
       0.11360543 -0.17688705 0.029357474 0.29845905
000340 ac a9 53 be 49 31 91 3e af d7 c5 bd 3c 17 9b 3e
       -0.20670193 0.28357914 -0.09660279 0.30291164
000350 6a fc 5c be cb 1f c1 3c dc 77 8c 3e f2 d9 98 be
       -0.21580663 0.02357473 0.27435195 -0.2985378
000360 14 48 18 3e 7c 8e ff 3d 5e 0e d5 3d 63 f8 87 be
       0.14871246 0.124783486 0.10403131 -0.26556692
000370 d4 b1 61 3d ea 81 1f bd d0 ce 65 3e 2d 0d 9e 3e
       0.05510123 -0.038942255 0.22442174 0.30869427
000380 3c e0 72 3e 5e d0 d6 bc d9 9c 7a bd bb 24 50 be
       0.23718351 -0.026222404 -0.061184738 -0.20326512
000390 3f c0 c2 3d 96 39 4d be 25 33 34 3e 5c 8c 88 3c
       0.09509324 -0.20041499 0.17597635 0.016668491
0003a0 97 a1 f4 3d 09 7d 2d 3e a3 0a 2c 3d 98 78 02 be
       0.11944883 0.16942228 0.04200233 -0.12741315
0003b0 84 df a3 3d 40 30 fc 3d 1e 80 0b 3e eb 22 90 3e
       0.080016166 0.123138905 0.13623092 0.2815164
0003c0 04 6a 6e 3e de cb 0c 3e 9a e1 2a 3e 5f 43 4f be
       0.23282629 0.13749644 0.16687623 -0.20240544
0003d0 37 75 8a bd 61 dc 82 3e de 18 c5 3d 3d d6 a0 3d
       -0.06760638 0.2555876 0.09623884 0.07853363
0003e0 17 5a 4a be ab e9 8a 3e 6e bb ed 3d a3 b5 4c bd
       -0.19760929 0.271314 0.11608015 -0.04997791
0003f0 a0 b0 09 3e 11 6a c7 bd f7 a2 88 bd 55 87 eb 3d
       0.13446283 -0.097370274 -0.06671708 0.11500422

encoder.lnLst.0.2.bias f4 [32]
000000 6d cc 36 be bb 61 e5 bc 7c c2 1b ba d5 c6 53 be
       -0.1785142 -0.028000703 -0.0005941761 -0.20681317
000010 f8 ed 8b bd b8 3d f9 bd b8 41 77 bd 76 45 83 b9
       -0.06832498 -0.12169975 -0.06036541 -0.0002503802
000020 a8 10 34 be d5 62 d5 3c 03 35 43 3e 37 f4 d2 3d
       -0.17584479 0.026048103 0.19063191 0.103004865
000030 ee 44 25 be 69 96 ec bc 85 59 6a 3d 24 57 0d 3d
       -0.16139576 -0.028880315 0.05721428 0.034506932
000040 eb 65 22 be 17 18 2c 3e c3 5f 3e 3e 65 8c bf 3d
       -0.15859191 0.16806065 0.18591218 0.0935295
000050 83 d1 08 3e d3 a4 46 3c ae df 4d 3c 69 1d a3 bc
       0.13361172 0.012124258 0.012565536 -0.019911485
000060 a1 22 40 3e 14 6b 7c 3d 9c cb f0 bd 9f 9c 56 3e
       0.1876321 0.061625555 -0.117575854 0.20958184
000070 8e bb 8b 3d 2b 86 4e be fe 1c 19 be 21 23 65 3d
       0.068228826 -0.20168369 -0.14952466 0.055941705

encoder.lnLst.1.0.weight f4 [32, 7]
000000 13 4f a4 3d 78 da 76 3e 6f 8a 97 bd d2 76 a9 3d
       0.08022895 0.24106777 -0.07399451 0.08274616
000010 3d 23 49 3c b9 96 9d be 2c 45 ec bd b9 84 f5 3d
       0.012276468 -0.30779055 -0.11536631 0.119882055
000020 6b c6 e6 be e5 df e7 be fa 7b 81 3e 67 4d c2 be
       -0.45073256 -0.45288005 0.252899 -0.37949678
000030 6f e3 db be 79 41 3e 3d 92 bc 0b 3e 4b f4 f7 3d
       -0.42946956 0.04644916 0.13646153 0.12107142
000040 02 9d 99 3e 42 bb be 3e 26 bf d3 bd f3 32 8e 3e
       0.300026 0.3725224 -0.10339193 0.27773246
000050 22 2c 8e 3e 49 35 02 be ce be 2f 3c 6d 56 d3 3d
       0.27768046 -0.12715639 0.010726644 0.10319219
000060 e3 a9 c7 be b6 fd b8 be 82 42 b4 bc 68 86 2d 3c
       -0.389968 -0.36131066 -0.02200437 0.010591127
000070 6f 1d 80 3e e6 ba 45 3d 46 c1 3c 3c 84 3a 88 be
       0.25022456 0.048273943 0.011520689 -0.26607144
000080 e6 7f bd be f2 ac ff 3d 8f 81 77 3e 98 9c 2c be
       -0.3701164 0.124841586 0.24170516 -0.16856611
000090 f2 3d 26 3e 21 9e ae 3e 17 00 21 3e c6 b3 c0 3e
       0.16234568 0.34105018 0.1572269 0.37637156
0000a0 9c 44 3a 3e b5 24 fa bd db 86 67 3e da cf 14 3e
       0.18190235 -0.122140326 0.22610037 0.14532414
0000b0 2f 7b 40 3e e7 32 23 be be e4 91 be 3d db 3f be
       0.18796991 -0.15937386 -0.2849483 -0.18735977
0000c0 32 f2 22 be 49 38 cd 3e 76 14 63 3d 79 78 01 3e
       -0.15912703 0.40082005 0.055439435 0.12643613
0000d0 9a eb da bd 1b b7 74 be 7b 9e af be ae d6 07 3e
       -0.10689469 -0.23897974 -0.34300599 0.13265488
0000e0 d5 d1 a2 be 49 a4 95 be f6 a3 c3 be 65 7b 3e be
       -0.31800714 -0.29226902 -0.3821103 -0.18601759
0000f0 f8 d1 5a 3e 97 8e 90 be 65 7f b8 be d8 89 28 3d
       0.21369159 -0.28233787 -0.36034694 0.041147083
000100 27 1a a7 bd 60 1f c2 be a9 ac a3 be da cf 85 be
       -0.08159285 -0.37914562 -0.31967667 -0.2613514
000110 91 fa c1 bc ef 02 ae be b4 ae b3 3e fb 4d 21 be
       -0.02367905 -0.33986613 0.35094225 -0.15752403
000120 9c 4d 81 bd f4 7f b9 be 23 b4 9d be 7d 03 b9 be
       -0.06313631 -0.36230433 -0.30801496 -0.36135474
000130 35 4e 5e 3d 26 d7 b5 3e 98 f4 d6 3e a2 97 4f 3e
       0.054273803 0.35515708 0.41983485 0.20272687
000140 60 1f 3d 3e 53 49 dc 3d f6 e0 76 be 5b fc 3b 3e
       0.18469 0.10756173 -0.24109253 0.18357985
000150 bb d6 8e 3e b7 a8 c9 3e 91 d0 26 bd 3a 12 35 be
       0.278982 0.39386532 -0.04072625 -0.17682734
000160 95 30 c1 3e a0 1d 88 3e c1 6a 9f 3e d5 dc d3 3e
       0.37732378 0.26585102 0.31136134 0.4137942
000170 fe 0f c5 bd e2 09 a0 3e 6e b9 9a be 25 62 21 3e
       -0.09622191 0.3125754 -0.30219597 0.15760095
000180 3d 81 6f be 71 28 b3 3e f5 22 5b 3e f8 27 c0 bb
       -0.23389144 0.34991792 0.21400054 -0.0058641396
000190 30 08 85 3e 09 52 77 be 10 fb b1 3e 3b 48 ed 3d
       0.2598281 -0.24152388 0.34761858 0.115860425
0001a0 a4 39 89 3e 3c 99 d4 3e 65 5f 25 3e e5 48 ab 3e
       0.2680179 0.4152316 0.16149671 0.33454052
0001b0 7d 5b c0 bc 0d 63 81 3e 1e 2d 97 be 5b 74 51 3c
       -0.023481125 0.25270882 -0.2952661 0.012784089
0001c0 b6 07 c5 3e b9 c5 be 3e 76 6f d1 3e a7 d5 9f be
       0.38482445 0.37260225 0.4090535 -0.3121769
0001d0 a8 b9 79 3d 79 47 91 be 7b 44 80 be 46 ea 90 3e
       0.06096807 -0.28374842 -0.25052246 0.28303736
0001e0 9a c2 6d 3e bd 09 b2 be 6d c9 0a bd f2 8a 81 be
       0.23218766 -0.34773055 -0.0338835 -0.2530132
0001f0 5b b3 c7 be 28 73 2d 3e 3a a5 b3 be 42 87 89 be
       -0.39004025 0.1693846 -0.35086995 -0.26861006
000200 93 fd a3 be d1 c8 bf be 02 6f 0a be 0c 74 72 be
       -0.320294 -0.37457898 -0.13518909 -0.23677081
000210 0c 98 88 be 5d ae ae be d9 23 31 3e 6c 2f b3 be
       -0.26678503 -0.34117404 0.17298831 -0.34997118
000220 ba 01 6b 3e b9 c7 f1 bd 4c 63 60 bd 11 c1 43 3e
       0.22949877 -0.11805672 -0.054782197 0.19116618
000230 11 ca a5 3c a3 31 9b 3e 84 fb 1c be 16 ab 9c 3e
       0.020237954 0.30311307 -0.1533032 0.30599278
000240 0e 32 96 3e b5 47 a8 be b7 b9 c7 be d4 eb 5c 3e
       0.29335064 -0.32867208 -0.39008877 0.21574336
000250 e6 35 96 be e3 dd 8a be b0 7b 78 bb 6c 36 36 3d
       -0.29337996 -0.2712241 -0.003791552 0.044485494
000260 e5 59 03 3e c8 c3 60 3e 72 90 de 3b 11 86 b7 3e
       0.12827261 0.21949685 0.0067921216 0.35844472
000270 48 77 82 be 27 eb aa be c1 67 12 3c 35 33 b5 be
       -0.2548163 -0.33382532 0.00893587 -0.3539063
000280 e4 04 b9 3e 01 b7 49 3e a4 8d b6 3e 62 b3 b5 3e
       0.36136544 0.19698717 0.35654938 0.3548842
000290 3d a6 6c bd f6 3d ad 3e 75 52 8f be 6f ae b6 3d
       -0.057775725 0.33836335 -0.27992597 0.08919989
0002a0 06 f7 be bd 84 74 61 3e 12 0d 4c 3e ea 5c 96 3d
       -0.0932446 0.22017103 0.19926861 0.07341941
0002b0 4e ac ac 3e 37 c6 b1 3e 8c c8 f2 3e 75 62 c6 3e
       0.33725208 0.34721538 0.4741863 0.38746992
0002c0 96 4a da bb 61 98 d2 3e d5 2d 19 bd 58 15 89 3d
       -0.0066617234 0.4113188 -0.037397224 0.06693524
0002d0 79 62 80 be c9 ec a1 3e a2 8a 31 be 34 f4 93 be
       -0.2507513 0.31625965 -0.1733804 -0.2889725
0002e0 60 7d 21 3e 1e 11 1a be 39 0c a0 be 8c 8f 88 bd
       0.15770483 -0.15045592 -0.31259325 -0.066680044
0002f0 ea bd 48 3e 25 5d 1c bb 93 9c 40 3e 8d 34 43 3e
       0.19603696 -0.002385923 0.18809728 0.19063015
000300 90 12 8d be 90 e4 c8 3e cb 38 43 3e 02 09 96 be
       -0.27553225 0.3923688 0.19064634 -0.29303747
000310 11 c9 bc bd df 70 2e 3e a3 c1 b8 bd ef 28 ab 3e
       -0.09218038 0.17035244 -0.09021308 0.33429667
000320 13 a3 bd bc ab 06 15 bd b5 65 03 be ba f2 97 3e
       -0.023149049 -0.036383312 -0.12831767 0.29677373
000330 a8 2c fc 3d 41 1e 4c 3d 61 78 b2 3e 2c db 54 be
       0.12313205 0.04983354 0.34857467 -0.20786732
000340 00 35 14 3d 5c 3e 84 be b1 d2 a3 bd dc 60 19 3e
       0.036183357 -0.25828826 -0.079991706 0.14978355
000350 ab 07 03 be 71 0a 96 be aa 62 ec 3d a1 71 f3 bd
       -0.12795894 -0.2930484 0.11542256 -0.11886907
000360 22 5b 1e be 94 e0 e7 be 56 76 8f 3e 46 97 bc be
       -0.15464452 -0.45288527 0.2801997 -0.36834162
000370 e6 e6 5d 3e 18 4e 22 3e b9 20 3b 3e 65 82 cd bd
       0.21670112 0.15850103 0.18274201 -0.100346364

encoder.lnLst.1.0.bias f4 [32]
000000 cd 1c 39 3e 02 4f 94 3c e3 23 83 bb 35 6a a8 3e
       0.18077393 0.01810408 -0.0040020808 0.3289353
000010 c0 d3 a3 3e 25 4b b2 be fe a9 ab be 2f dc a8 3e
       0.3199749 -0.34822956 -0.3352813 0.32980487
000020 c5 b2 78 3e 4c c1 8a be b4 56 20 be 97 78 05 3d
       0.24286945 -0.271006 -0.15658075 0.032585707
000030 bd d4 9e 3d ab 4f bd 3d 8e 86 d9 3e 94 54 a9 3e
       0.0775542 0.09243711 0.4248547 0.3307234
000040 56 94 8d bd 5b 91 58 bd 34 ea 96 bc b7 43 60 bd
       -0.069130585 -0.052872997 -0.018422224 -0.054752078
000050 d3 c7 92 bc 23 f8 39 be 24 86 51 be 8c 12 d7 3d
       -0.01791755 -0.18161063 -0.20461327 0.105015844
000060 a4 eb 97 3e 04 65 7c 3e 54 63 a0 3e 97 53 b9 3e
       0.29671967 0.2464791 0.3132578 0.36196586
000070 58 14 1c 3d 26 44 8c 3d cb 78 23 3e 2f b1 3d be
       0.03810534 0.06848936 0.15964048 -0.18524621

encoder.lnLst.1.2.weight f4 [32, 32]
000000 cb a6 00 3e 0f cd a7 be d6 06 65 3e bc 15 9d 3e
       0.12563626 -0.32773635 0.22365889 0.30680645
000010 32 78 a4 3e cf be c2 3d 1b d5 90 3d 29 6d a0 3d
       0.32122952 0.0950905 0.07071897 0.07833321
000020 7b f2 a7 3e ec 7a 8f bd 2f 7d 9a 3e 81 ba 03 3e
       0.32802185 -0.07005867 0.30173633 0.12864114
000030 e0 91 92 bc c2 75 36 be c6 e0 1b 3e 6a 92 8c 3e
       -0.017891824 -0.17818359 0.15222463 0.27455455
000040 c1 35 e7 3d 6a cd 3f 3d 17 74 0a 3e 09 38 8c 3e
       0.112895496 0.046826757 0.13520847 0.273865
000050 10 2a 35 3e 97 e5 96 3d b3 d6 3b 3c 70 cb 48 3e
       0.17691827 0.073680095 0.0114647625 0.19608855
000060 75 a5 9b 3e 1a 85 51 be b1 63 8c 3e 0f 27 bf bd
       0.3039967 -0.2046093 0.27419809 -0.09333622
000070 de 09 4a be 7b 84 42 be 2f 5d f1 3d d2 c0 d9 bd
       -0.19730327 -0.1899585 0.117853515 -0.10632481
000080 3c 6c 39 bd 5e d4 43 bd d8 5f 58 3d 3c 42 85 3e
       -0.045269236 -0.04780995 0.05282578 0.26027095
000090 0d df 6b bd 29 97 ac 3e fb 1b fa 3d c6 15 41 be
       -0.057585765 0.33709076 0.12212368 -0.18855962
0000a0 a2 b6 6a 3e f9 72 47 be c5 71 97 be 1b 32 cd bd
       0.22921231 -0.19477452 -0.29578987 -0.100193225
0000b0 10 51 04 be 10 12 48 be bd af 86 3e 07 5c 97 bd
       -0.12921548 -0.1953814 0.26305953 -0.073906
0000c0 25 b2 89 be 6b f9 28 be d4 7e 45 be 2b 72 8e bd
       -0.26893726 -0.16501395 -0.19286662 -0.069553696
0000d0 f9 0a 07 3d 81 61 a4 be ba 5c f7 bd 83 69 cf bd
       0.03296945 -0.3210564 -0.12078233 -0.10127547
0000e0 62 22 c5 3d 1d 71 e5 3d 02 1a 41 3e 9c 3d 9c bd
       0.096256986 0.11203215 0.18857577 -0.076289386
0000f0 16 cd 78 be 9d 89 3d bd f4 98 65 3e 4e 76 26 3e
       -0.24296984 -0.046273816 0.22421628 0.16256067
000100 a2 f5 69 bd 66 0d 39 be c7 e2 25 be c5 dc 69 bd
       -0.05711902 -0.18071517 -0.1619979 -0.057095308
000110 42 75 6a 3d 65 86 f5 bd fc fd 4c bd 5b b5 79 bc
       0.057240732 -0.11988524 -0.050046906 -0.015240992
000120 3d 11 4c 3e b4 24 c4 3d f9 1d 94 3e f5 6a 1f 3e
       0.19928451 0.09577313 0.28929117 0.15568145
000130 47 1c 7a 3e fe 3e de bd fb e0 db 3d 16 8c b4 bd
       0.2442485 -0.108518586 0.10736271 -0.08815782
000140 86 39 84 3e 5a 12 74 3e d6 fb 0b be d1 18 98 3e
       0.25825137 0.23835126 -0.13670287 0.29706433
000150 a3 41 5f bd b1 76 94 3e 32 0c 91 3e 0c c0 a7 bc
       -0.054505955 0.28996804 0.28329617 -0.020477317
000160 36 6f a9 3e d7 d5 bf bc 0c a5 93 bd 8b e0 44 3e
       0.3309266 -0.023417396 -0.072092146 0.19226281
000170 56 9b a4 3e 52 f8 a4 3e 9d 50 a9 bc c4 6a b0 bd
       0.32149762 0.32220703 -0.020668322 -0.08614114
000180 d9 36 48 bd e8 04 bb bc 1f 6d 77 be 28 7c 84 be
       -0.04888043 -0.022829488 -0.2416272 -0.25875974
000190 81 4d 80 be 34 69 12 bc 81 91 3d 3e 72 8d b2 3d
       -0.2505913 -0.008936215 0.18512537 0.08718385
0001a0 11 58 7d be 4e 58 0e 3e e9 d4 3c bd e8 84 87 bd
       -0.24740626 0.13900873 -0.046101484 -0.06617147
0001b0 09 ae f3 3d df 49 e3 3d 77 1e 47 bc f5 5a 4c be
       0.11898429 0.11098074 -0.0121532595 -0.19956572
0001c0 8a c2 83 3e fb d6 97 bd ac ef 1a be 85 92 6f bd
       0.2573436 -0.07414051 -0.1513049 -0.05848934
0001d0 10 45 69 3e 0f 4d e4 bd 64 cc de 3d b2 ba 5f bd
       0.22780252 -0.1114751 0.10878828 -0.054621406
0001e0 d9 65 e4 bc d8 49 15 3d bc 5f e2 3d ec 65 12 be
       -0.027880596 0.036447376 0.11053416 -0.14296693
0001f0 a4 77 50 bd dc 6e 94 3d d9 d7 19 bd 08 35 61 be
       -0.05089535 0.07247707 -0.037559364 -0.21992886
000200 a0 08 d3 bd 0b e9 f6 bd 6a dd 8d 3e 95 99 f0 bd
       -0.103043795 -0.12056168 0.27707988 -0.117480434
000210 8f 45 97 3e 14 28 97 3e 1a 2a fa 3d 1f 82 6f 3d
       0.29545256 0.29522765 0.122150615 0.058473703
000220 35 09 e7 bc 18 27 38 be df 68 94 3e be 98 8d 3e
       -0.028202632 -0.17983663 0.2898626 0.27655596
000230 03 9f c8 bb 69 2f 2f be d6 45 92 bc b3 8a 42 be
       -0.0061224713 -0.1710793 -0.017855566 -0.18998222
000240 f4 dd 38 3e a0 32 43 bd cc 27 82 be 50 90 b7 bc
       0.18053418 -0.0476557 -0.25420988 -0.02240768
000250 c1 86 48 be 8e e5 bc bd 9b 23 95 bd c0 66 35 bd
       -0.19582655 -0.092234716 -0.07282182 -0.044287443
000260 74 bd d1 bd 59 8a 09 3e 79 49 48 3e 2c 37 09 bc
       -0.102412134 0.13431682 0.19559278 -0.00837497
000270 25 5d 3f bc 76 ec a1 3e 93 ec 07 be d0 ff 11 be
       -0.011679922 0.31625718 -0.1327384 -0.14257741
000280 de 78 8c bd 62 1b d9 3d 69 bf 33 3e 5d 2e 2e be
       -0.06858991 0.10600926 0.17553486 -0.17009874
000290 f3 01 66 be b6 d9 9c 3e bf e7 e1 3d be 79 23 be
       -0.22461681 0.3063485 0.1103053 -0.1596441
0002a0 e4 76 b5 3c a4 a1 7f bd 34 e5 07 3e c7 42 7e 3c
       0.022151418 -0.062410012 0.13271028 0.015518851
0002b0 22 eb 74 3e bc cf d8 bd e2 d3 25 3d ac 61 a0 3e
       0.23917821 -0.10586497 0.04048527 0.31324518
0002c0 6b 6e 26 3e d4 50 e6 3b 6a 08 64 be d9 4f 2d be
       0.16253059 0.0070286784 -0.22268835 -0.1692499
0002d0 8d de 18 be bd b4 b8 3e 3c 88 5f be 6f d6 5a be
       -0.14928646 0.36075392 -0.21829313 -0.21370862
0002e0 ff a7 4c 3e 30 19 9f 3e 4b 10 0a 3e 00 25 8f 3e
       0.1998596 0.31073904 0.13482778 0.27957916
0002f0 9e 43 a3 3e 78 68 45 be 6a b2 40 3e 8a 16 3f bd
       0.31887525 -0.19278133 0.1881806 -0.046652354
000300 9a aa 70 bd 6e f2 49 3e 7d d3 a9 3e 4f 4b 6b 3e
       -0.05875645 0.19721386 0.33169165 0.22977947
000310 34 61 29 3e aa 4c c7 3e 02 8c 49 be 20 2a ab 3e
       0.16540986 0.38925678 -0.19682315 0.33430576
000320 93 b2 41 be 5d d8 35 3e be 86 93 3e 79 0c a0 3e
       -0.18915777 0.17758317 0.28813738 0.31259516
000330 4a 9d bd 3e 49 cb 52 3e e7 3e a2 3e 12 cb db 3b
       0.37034065 0.2058536 0.31688616 0.0067075575
000340 46 a2 95 3e ce a5 b8 3e b7 a1 29 3e ee 01 08 be
       0.29225367 0.36064 0.16565596 -0.13281986
000350 0e 58 68 3e aa a2 2b be 2a 16 94 be cf b5 49 be
       0.2268984 -0.1676127 -0.2892316 -0.1969826
000360 16 cc 28 3e 5b a1 be 3e 4f e4 ac bd 03 91 d3 3d
       0.16484103 0.3723248 -0.08441984 0.10330393
000370 3f a4 b7 3e c0 9c 00 3d 7e 5d 10 bd fc b2 8a 3d
       0.35867497 0.03139949 -0.03524541 0.0677242
000380 93 71 20 be 0e 6a 50 3e 1b 96 5c 3e 16 c4 3b be
       -0.15668325 0.20352957 0.21541636 -0.1833652
000390 9c 1e 60 be e5 c1 84 bd 6c 77 8a be 95 77 64 be
       -0.21886677 -0.06482295 -0.27044237 -0.22311242
0003a0 4e 9d db 3c 79 4b 8d 3e d6 dd 52 be 6c 35 17 bd
       0.026808407 0.27596644 -0.20592436 -0.03691618
0003b0 14 4b 1d 3d 0b 8f 0b be 11 b0 51 be 04 f0 04 be
       0.03840168 -0.13628785 -0.2047732 -0.12982184
0003c0 f5 3f 0f be 4d 27 b4 be 98 c6 99 3e 06 41 6a 3b
       -0.13989241 -0.35186234 0.30034328 0.0035744323
0003d0 ae 4f e9 bd 89 08 95 be 82 6c ce 3d 58 1e 30 be
       -0.11392151 -0.29108074 0.1007929 -0.17199075
0003e0 cd 0f db bd 3c 04 67 be fa 3c 80 bc fc d5 53 3e
       -0.10696373 -0.22560209 -0.015654076 0.20687097
0003f0 fd 7d 9c 3e 75 7e 79 3e 98 33 78 3e b5 05 44 3e
       0.3056487 0.24364646 0.24238431 0.19142802

encoder.lnLst.1.2.bias f4 [32]
000000 a0 2c 7c bd a6 63 b8 bd 6d 78 c2 bd 12 87 68 bd
       -0.061565995 -0.090033814 -0.09495626 -0.056769438
000010 2a e5 c8 3d 96 e1 68 bd 3d a6 d5 bc 70 1c e6 bd
       0.098093346 -0.05685576 -0.026080245 -0.11235893
000020 2a 3b 51 3d e9 68 44 be 53 4e 35 3e ea a5 57 3e
       0.051081814 -0.19180645 0.1770566 0.21059385
000030 cb 7c 43 3d de 49 da bd 53 e2 ff 3c 8e 47 a7 bc
       0.047726434 -0.1065862 0.03123585 -0.020419862
000040 03 c5 c7 bd 8f f4 4f be 6b 3e 3a bd 49 06 33 3d
       -0.09754374 -0.20308135 -0.045469683 0.043707166
000050 3a c1 01 be be a0 b0 bd 9d 21 87 3d 56 1f 47 3e
       -0.12671366 -0.08624409 0.06598208 0.19445547
000060 d2 cb 8b bd bc 62 e0 bc ac 64 1e bd 5b f0 1e 3e
       -0.06825985 -0.02739083 -0.038670227 0.15521376
000070 42 b2 8a 3d 5b d7 ae 3d 51 eb a1 3d 9e ef 55 bc
       0.06772281 0.085371695 0.07906211 -0.0130576175

atten.W_k.weight f4 [32, 32]
000000 78 b1 bf 3c b6 00 99 be d6 4d 24 3e 22 09 f7 bd
       0.023400053 -0.29883355 0.16045317 -0.12062289
000010 ca e7 3a be 00 26 a7 3d 0f 9c bc be 17 f7 02 3c
       -0.18252483 0.08161545 -0.36837813 0.007993481
000020 f7 f8 48 3c 59 a5 36 3e 3f 9a e3 3d 38 81 1d bd
       0.012266389 0.17836513 0.111134045 -0.03845331
000030 28 a3 90 be f8 e2 db bd 78 cc 0a 3e 17 91 bb bd
       -0.28249478 -0.1073665 0.13554561 -0.09158533
000040 b2 7d 9c be 76 9c 58 3e 01 2a 6c 3d d7 ba b9 3c
       -0.30564648 0.21153435 0.057657246 0.0226721
000050 9e 21 9a 3e 33 cf bf 3e 1b 85 34 be 82 ad ab bd
       0.30103773 0.37462768 -0.176289 -0.08382703
000060 aa a8 0b be ff b4 8d 3b ac 98 41 3d 7c 21 de 3e
       -0.13638559 0.004324555 0.04726474 0.43384922
000070 45 87 0a 3e 9a a2 16 3e da 75 97 be 48 46 df 3e
       0.13528164 0.14710465 -0.295821 0.43608308
000080 47 2d 08 be f3 b7 ff 3c b7 94 4b 3e 76 61 aa bd
       -0.13298522 0.031215644 0.19880949 -0.083193704
000090 4d 80 63 3e 9c 86 6d 3d b8 e5 8a be c4 ae 3b 3e
       0.22216912 0.0579897 -0.27128386 0.18328387
0000a0 58 03 8f be c8 93 e9 bd f0 4f 88 be 78 da b6 bb
       -0.2793224 -0.1140514 -0.26623487 -0.0055802427
0000b0 ef be 65 be a4 31 21 3d 20 b2 1d be 26 65 0f 3e
       -0.22436117 0.03935398 -0.1539998 0.14003429
0000c0 0a 5a 3c bc 32 f9 56 3e 40 03 c4 bc 24 b1 a2 be
       -0.011496076 0.20993498 -0.023927331 -0.31775773
0000d0 a4 af 92 3e 9f 75 6e 3e ab fc 90 be fe 6b 75 3e
       0.28649628 0.23287056 -0.2831777 0.23966977
0000e0 35 38 85 be 22 61 a4 be 62 a7 91 3e 0a 0b a3 be
       -0.26019445 -0.32105356 0.28448015 -0.3184436
0000f0 7e e6 33 bd e6 27 e2 bc 9a f3 0e 3e 26 43 71 3e
       -0.043920986 -0.027606916 0.13960114 0.23560771
000100 05 63 90 bd 21 34 4f be c6 7e 89 bd 22 18 07 be
       -0.070501365 -0.2023473 -0.06713633 -0.131928
000110 59 a4 8f bd 3e e1 e1 3d c3 31 8e 3e d3 7e 65 be
       -0.07013769 0.1102929 0.2777234 -0.22411661
000120 28 aa 77 be a2 3e a9 3e a9 49 f9 bd 43 a6 a1 3c
       -0.24186003 0.33055598 -0.12172253 0.0197326
000130 a3 b3 3d 3e 35 43 b2 3e f6 11 83 3e ba d1 29 be
       0.18525557 0.348169 0.2559964 -0.1658391
000140 a6 6c 5e be 3d 4b f0 3d 8f ab 54 3e ec 7f 16 be
       -0.21721134 0.117331006 0.2076857 -0.14697236
000150 75 7f 80 bc 1c 3b 9c 3e 4f 9b 88 3e e9 a5 ea 3d
       -0.015685776 0.30513847 0.2668099 0.11457426
000160 aa d1 82 3b 21 97 22 3e 88 8f 9c be 36 2b 37 be
       0.003992279 0.15877964 -0.30578256 -0.17887577
000170 b4 cf 94 3e d7 b5 4a bc 98 cd 2e be a4 e5 45 3d
       0.29064715 -0.012372456 -0.17070615 0.048314705
000180 17 95 77 3e 8e 74 95 bd ca 48 24 3e 3a 5f 37 3e
       0.24177967 -0.07297622 0.16043392 0.1790742
000190 c5 ef 14 3c 46 eb 7a be a8 e3 21 be 91 f4 1c 3e
       0.009090369 -0.24503812 -0.158095 0.1532767
0001a0 7b 3f 9a 3d 26 af 49 3e eb 75 cf bd ed 39 12 be
       0.07531639 0.1969572 -0.10129913 -0.1427991
0001b0 82 dc e2 bd a9 64 8d 3d 46 f7 41 3e 0c b8 e8 bd
       -0.11077215 0.06903965 0.18941984 -0.11363229
0001c0 17 64 69 3e e3 21 44 3e ea 20 35 bd a2 19 ef bd
       0.22792087 0.19153552 -0.044220842 -0.11674811
0001d0 ea cf 64 3c ea 43 4d 3d 24 53 05 be d5 a7 3c 3e
       0.013965586 0.050113596 -0.13019997 0.18423398
0001e0 8a 13 3d 3e 19 6e 7f bd bb 4b 82 bd 0b 31 80 be
       0.18464485 -0.062360857 -0.06362101 -0.25037417
0001f0 8c 75 4d bd 8d 38 ca 3d 4f ff 88 3c 18 0d 53 bd
       -0.05016093 0.098740675 0.016723303 -0.05152616
000200 f0 c7 8f be e7 00 93 bd 53 2c 93 bd 3e 6d 4f be
       -0.28082228 -0.071779065 -0.071861885 -0.20256516
000210 fa cc a4 3d bc 71 b2 3e 6d f9 5c be 04 83 7f 3d
       0.08046909 0.34852397 -0.21579523 0.062380806
000220 df 58 c1 be 8d f7 3b 3e 82 b3 0d be 9f 48 a0 3e
       -0.37763116 0.18356152 -0.13838008 0.31305405
000230 2b ae 26 3e f8 50 5a be d7 28 0b 3e 24 f6 68 bd
       0.16277377 -0.2131995 0.13589798 -0.056875363
000240 42 69 75 3e ff d5 95 bd 90 80 7c be 0f 52 11 be
       0.23965934 -0.07316207 -0.24658418 -0.14191459
000250 d6 9b 41 bd 39 12 7c 3e 48 b6 45 be cd bc 06 be
       -0.047267757 0.24616326 -0.19307816 -0.1315796
000260 e0 0a 8a 3d d3 fa 30 3e c9 35 50 bc 65 06 99 3d
       0.067403555 0.17283182 -0.012708136 0.07471923
000270 92 31 1d be 74 fb 57 3e 0b e1 55 3e 9f 30 2e be
       -0.15350941 0.21092016 0.20886628 -0.17010735
000280 b3 51 f1 3d 3a 04 b0 3e 9b 58 2e 3c fe 2a cd 3d
       0.11783161 0.34378225 0.010641242 0.10017966
000290 32 3f a6 be d6 14 a8 3d 6e b7 93 3d 84 6d a5 be
       -0.3247009 0.08207099 0.07212721 -0.32310116
0002a0 26 3f 07 be 47 18 43 3e 7e d4 81 be b9 c7 29 3e
       -0.13207683 0.1905223 -0.2535743 0.16580094
0002b0 38 1a a5 bd 81 e4 83 be ad 31 92 be a3 85 f5 3d
       -0.080616415 -0.25760272 -0.28553525 0.1198838
0002c0 4e e4 bf bd 32 f1 58 3d 1b 3c ef bd 9e a8 b2 bd
       -0.093697175 0.052964397 -0.11681386 -0.087235674
0002d0 da 0f 60 3e 2f 47 54 3d 4d fd a3 3c 7e b3 96 be
       0.21881047 0.0518257 0.020018244 -0.29433817
0002e0 f0 69 af 3d 14 c5 33 be e8 5b c2 bd 52 3a b2 bd
       0.08565128 -0.17555648 -0.09490186 -0.0870253
0002f0 5a 2d 1a 3e 6f b4 18 bd ad f2 91 3d a8 a3 17 3e
       0.15056363 -0.03728145 0.07126365 0.14808524
000300 35 80 2a 3e 19 9c 28 be 0b fc 74 bd 24 5c 2b be
       0.1665047 -0.16465797 -0.05981068 -0.16734368
000310 0d f3 34 3e 5a 03 a2 bd 3e 8f b5 3d 7f fc e1 3d
       0.17670842 -0.079107955 0.08865212 0.11034488
000320 14 5a 79 be d2 bc 1e 3c 05 83 82 3e 3b 04 8d 3e
       -0.24350768 0.009688573 0.25490585 0.2754229
000330 e3 08 66 3e 1d 16 66 be 76 11 22 3e 2f 74 1c 3e
       0.22464328 -0.22469373 0.15826973 0.15278696
000340 2b 34 3f be f0 b9 77 be b0 6e 16 bd b4 78 dd 3d
       -0.18672244 -0.24192023 -0.036726654 0.10814038
000350 7b 53 6c be d8 71 a7 3e 06 da 29 ba 3e f9 0a 3d
       -0.2307872 0.32704043 -0.00064793264 0.033929102
000360 70 18 28 be be 73 58 be 89 77 60 3e d7 c4 7c be
       -0.16415572 -0.21137902 0.21920599 -0.24684463
000370 f3 14 9c 3e be ef f6 3d be e5 9d bd 35 4e 9e 3d
       0.30484733 0.12057446 -0.077098355 0.077297606
000380 d9 9f 7b 3e 69 a1 d4 3d 52 3d 46 3d 19 1f 68 be
       0.24572696 0.10382349 0.048398323 -0.22668113
000390 73 15 f9 3d 85 b5 a5 bd 70 97 59 be 43 83 14 3c
       0.12162294 -0.08091263 -0.21249175 0.009064498
0003a0 7d 05 8a 3e c7 16 91 be 9a 78 2a be 9e f4 bc 3d
       0.26957312 -0.2833769 -0.16647568 0.092263445
0003b0 15 a3 8f be 4d fc 21 be 47 e2 53 be a5 d7 b3 bc
       -0.2805411 -0.15818901 -0.20691787 -0.021953413
0003c0 04 6a 8f be 10 d7 1b 3d 8a 69 11 3a bd 5b 45 be
       -0.2801057 0.038046896 0.00055470376 -0.19273277
0003d0 b7 4f 97 be d8 8a 24 3e d7 e2 b5 3e 9a 9c 78 be
       -0.29553005 0.1606859 0.35524628 -0.24278489
0003e0 f9 f7 66 be 10 58 72 be 29 f8 01 3c 55 84 36 be
       -0.22555532 -0.23666406 0.007932701 -0.17823918
0003f0 73 a9 b0 bd fd 36 63 bb a8 d7 06 be d0 82 d4 3b
       -0.0862607 -0.0034670227 -0.13168204 0.0064853206
