app/vegetation/attention/andy/src/model_ep2.pth (torch, 55490 bytes, 27 tensors)

encoder.lnXc.0.weight f4 [32, 15]
0	0xbe6393cd	-0.2222435
1	0x3e95b74a	0.292414
2	0xbcadcebc	-0.021216743
3	0x3e8f6471	0.28006318
4	0x3e448379	0.19190778
5	0x3d91eb47	0.07124954
6	0xbd826281	-0.063664444
7	0x3da63eb9	0.08117432
8	0xbe151c0f	-0.14561485
9	0x3ca172ca	0.019708056
10	0xbe63c329	-0.22242416
11	0x3cf0bf63	0.029388135
12	0x3ea939c1	0.33051875
13	0xbc053409	-0.008130082
14	0x3e4d9cb1	0.20079304
15	0xbe84f6a6	-0.25969428
16	0xbeb39c4d	-0.35080186
17	0x3d611fc2	0.054961927
18	0xbe95cbae	-0.29256958
19	0xbd6b6736	-0.057471476
20	0x3ea204d2	0.31644303
21	0xbe92af59	-0.28649405
22	0xbe1fe772	-0.15615633
23	0x3e2ffd1f	0.17186402
24	0xbe461780	-0.19344902
25	0xbe94fa97	-0.29097435
26	0x3e1d8295	0.15381844
27	0x3ead9a48	0.3390677
28	0xbccc05cd	-0.02490511
29	0xbe071e39	-0.13195123
30	0x3e820958	0.25397754
31	0x3c92d79d	0.017925078
32	0x3e43d372	0.19123629
33	0x3e0032d6	0.12519392
34	0x3e88202d	0.26587048
35	0xbeadf0b0	-0.33972692
36	0x3cf5b340	0.0299927
37	0xbe9441f2	-0.28956562
38	0x3e9e3a81	0.3090401
39	0x3d71485e	0.058906905
40	0x3ceba83e	0.028766748
41	0xbd02d5fa	-0.031942345
42	0xbe8780b0	-0.26465368
43	0xbe97b980	-0.29633713
44	0x3dd7c9e2	0.10536553
45	0xbdf9977f	-0.12187099
46	0xbea0ac34	-0.3138138
47	0xbea5fb5d	-0.32418337
48	0xbea7b01e	-0.32751554
49	0xbd3478ac	-0.044060394
50	0xbc7b1804	-0.01532555
51	0x3e10628a	0.1410009
52	0x3dc9f012	0.09860243
53	0xbdeb2524	-0.114816934
54	0xbe45ea25	-0.193276
55	0xbeb23ead	-0.34813443
56	0x3d8ea0a0	0.069642305
57	0x3dc7911d	0.09744475
58	0xbd600ab4	-0.054697707
59	0xbea20fc7	-0.31652662
60	0xbe87533c	-0.2643069
61	0x3e500e19	0.20317878
62	0x3df20dc0	0.11819029
63	0x3ec6e031	0.3884292
64	0xbd458750	-0.048224747
65	0x3ec006bd	0.3750514
66	0xbe4da49f	-0.20082329
67	0xbe47b427	-0.19502316
68	0x3dfd0e9e	0.12356304
69	0x3ea55e0f	0.32298324
70	0xbe4826cf	-0.19546054
71	0x3eaf40b1	0.34229043
72	0x3c1020f1	0.008796916
73	0xbe9f6ccd	-0.31137696
74	0x3ea14609	0.31498745
75	0x3d70aeca	0.05876044
76	0x3d76a888	0.060219318
77	0xbe928223	-0.2861491
78	0x3e9162b8	0.2839563
79	0x3e3c476e	0.18386623
80	0x3bdc4669	0.0067222607
81	0xbb6cfd5f	-0.0036161763
82	0x3e974dce	0.29551548
83	0x3e513cef	0.204334
84	0xbe9f58e1	-0.31122497
85	0x3e80c134	0.25147402
86	0x3e25d730	0.16195369
87	0xbeae5861	-0.34051803
88	0xbe45f240	-0.19330692
89	0xbd698c76	-0.05701872
90	0x3ec155d4	0.37760794
91	0x3e6639c3	0.22482972
92	0x3e4e35b2	0.2013767
93	0x3e389fb9	0.1802968
94	0x3ec0784c	0.3759178
95	0x3d1d446d	0.038395334
96	0xbe1d841d	-0.15382428
97	0xbe9c48b0	-0.30524206
98	0x3d4a484c	0.049385354
99	0xbe939556	-0.28824872
100	0x3d84fefb	0.06493946
101	0xbe595ecd	-0.2122757
102	0x3e5da945	0.21646602
103	0xbde3b11e	-0.11117767
104	0x3dac8c8f	0.08425247
105	0x3d215fbe	0.039397947
106	0x3e6725e6	0.22573051
107	0x3df1c920	0.1180594
108	0x3aff23ac	0.0019465587
109	0xbe9c57ec	-0.3053583
110	0x3d2efff6	0.042724572
111	0x3db0400f	0.08605968
112	0xbe8bbf30	-0.27294302
113	0xbe6903f4	-0.22755414
114	0xbdbbfab8	-0.0917868
115	0x3d2e6553	0.0425771
116	0xbe577cc7	-0.21043693
117	0xbe99bbb4	-0.3002602
118	0xbdd22bd7	-0.10262268
119	0xbeaccf8a	-0.3375209
120	0xbe7796d7	-0.24178635
121	0xbe79fbd9	-0.24412479
122	0xbe4c5501	-0.19954301
123	0x3df4af41	0.119474895
124	0x3ea46c95	0.32114092
125	0xbe5c966b	-0.21541755
126	0x3e81bceb	0.25339445
127	0x3e60603e	0.21911713
128	0xbe939515	-0.28824678
129	0x3c97dce4	0.018537946
130	0xbe1dcc8e	-0.15410063
131	0x3ccb400a	0.02481081
132	0xbe75aed4	-0.23992473
133	0x3e7bc85a	0.24588147
134	0x3e8a022b	0.2695478
135	0xbdffdced	-0.1249331
136	0xbdea7c04	-0.11449435
137	0xbde5cacc	-0.11220321
138	0x3d45ed27	0.04832187
139	0xbe9677fa	-0.2938841
140	0x3dda5566	0.1066082
141	0x3cf3dc83	0.029768234
142	0x3dacd5fb	0.08439251
143	0x3b95770f	0.004561312
144	0xbe44f26b	-0.192331
145	0x3e8a4d27	0.27011988
146	0xbe7d05d1	-0.2470925
147	0xbe901073	-0.2813755
148	0xbe3d8e79	-0.1851138
149	0x3c8701a9	0.016480284
150	0x3e8afcb2	0.27145916
151	0x3e8cd6db	0.27507672
152	0x3e2f5dc4	0.17125612
153	0x3e880932	0.26569515
154	0xbd112a42	-0.03544069
155	0x3eaa5346	0.33266658
156	0x3d9df414	0.0771257
157	0x3e910bab	0.28329214
158	0xbe9c0f8c	-0.3048061
159	0x3c1318ba	0.008978063
160	0x3d30b984	0.04314567
161	0xbe590ac2	-0.2119551
162	0xbea091ae	-0.31361145
163	0xbeb0b00c	-0.34509313
164	0xbd13e485	-0.036106605
165	0x3b92e7bf	0.0044831927
166	0xbe85e1ec	-0.26148927
167	0x3e97b460	0.29629803
168	0xbdbb44e7	-0.091440015
169	0x3e154072	0.14575365
170	0x3e0bbe08	0.1364671
171	0x3e96ccec	0.29453218
172	0xbea4abb0	-0.32162237
173	0x3e224f0d	0.15850468
174	0x3dc94ddb	0.09829303
175	0x3def3a68	0.11681062
176	0x3d9f4ef8	0.07778734
177	0x3e80645e	0.25076574
178	0xbc8c4d6b	-0.01712676
179	0xbe13adf4	-0.14421827
180	0xbe1d8d7b	-0.15386002
181	0xbe8a9f71	-0.2707477
182	0x3cf33a8f	0.029691009
183	0xbeac629c	-0.33668983
184	0x3e3f1d3c	0.18663496
185	0xbd6374d2	-0.05553133
186	0x3cd675a7	0.026179148
187	0x3d133cae	0.03594654
188	0x3e760b22	0.24027684
189	0xbe967447	-0.29385588
190	0xbda7f2ef	-0.08200633
191	0xbe2e5a84	-0.17026716
192	0x3ea1e3fc	0.3161925
193	0xbd64bd50	-0.055844605
194	0x3eb02285	0.34401336
195	0x3e3ee09b	0.18640368
196	0xbe72ebc7	-0.23722754
197	0x3df80f69	0.12112314
198	0xbc7bdb9e	-0.015372185
199	0x3e5a7fe7	0.21337853
200	0x3e023640	0.12716007
201	0x3b020c04	0.0019843588
202	0x3d58d191	0.052934233
203	0x3e95688f	0.29181334
204	0xbd3b7cc0	-0.045773268
205	0x3e931342	0.2872563
206	0x3db9a654	0.09064928
207	0xbe1adf15	-0.15124162
208	0xbe9daa1c	-0.30793846
209	0xbe1f4da7	-0.15556966
210	0x3e08d274	0.13361531
211	0xbe2bb89c	-0.16769642
212	0xbca2ab37	-0.019857032
213	0x3e6c2d41	0.23064138
214	0x3ed0f48c	0.40811574
215	0x3cf77299	0.030206012
216	0x3d61c750	0.05512172
217	0x3dc3ed33	0.095667265
218	0xbde815ba	-0.11332269
219	0x3dade23e	0.08490418
220	0x3e325ebe	0.17418954
221	0x3d3b9550	0.045796692
222	0xbe477e50	-0.19481778
223	0xbe43e48c	-0.19130152
224	0xbdfb3500	-0.12265968
225	0xbe90a797	-0.2825286
226	0xbeb7c646	-0.35893458
227	0x3d327880	0.04357195
228	0xbbaf3501	-0.0053468947
229	0xbea980ce	-0.33106083
230	0xbeb2784c	-0.34857404
231	0xbd1cec88	-0.03831151
232	0xbdfd9a35	-0.12382928
233	0x3d75dc79	0.060024712
234	0x3e943871	0.2894931
235	0x3dae953a	0.085245565
236	0xbd50995f	-0.050927516
237	0x3e2f6986	0.17130098
238	0x3ea0981d	0.31366053
239	0xbe52d268	-0.20588076
240	0xbec0dbf6	-0.37667817
241	0x3e78d4f7	0.2429999
242	0x3e18c63e	0.14919373
243	0xbe3a18ee	-0.18173572
244	0xbe52b7a4	-0.20577866
245	0x3e85e620	0.26152134
246	0xbeb45d9d	-0.3522767
247	0xbe015fbe	-0.12634179
248	0xbeae5abb	-0.34053597
249	0xbea37a9c	-0.3192948
250	0xbda55339	-0.08072514
251	0x3e72fdac	0.2372958
252	0x3e3899c9	0.18027414
253	0xbe0100fe	-0.12598035
254	0xbea75163	-0.3267928
255	0x3e30df4a	0.17272678

encoder.lnXc.0.bias f4 [32]
0	0x3c640104	0.013916258
1	0x3e1e80a1	0.15478756
2	0x3e32e79e	0.17471167
3	0xbe68f650	-0.22750211
4	0x3e6d34ce	0.23164675
5	0x3e12614c	0.14294928
6	0x3dfd1115	0.12356774
7	0x3e47097f	0.19437216
8	0x3e93b97a	0.28852445
9	0xbd036476	-0.03207823
10	0x3e45ba5d	0.19309373
11	0xbda9fe8e	-0.083005056
12	0x3e28d58c	0.16487712
13	0xbe085aa2	-0.13315824
14	0x3e5b13bc	0.21394247
15	0x3d4a8ac4	0.049448743
16	0xbe38e8ed	-0.18057604
17	0xbe8180d9	-0.25293615
18	0x3e7a6548	0.24452698
19	0xbe6a2922	-0.22867253
20	0xbdbdac7c	-0.092614144
21	0x3e12f736	0.14352116
22	0xbe749047	-0.23883162
23	0xbd012208	-0.031526595
24	0xbe9c7913	-0.30561122
25	0xbe5dd42b	-0.21662967
26	0xbe43fe11	-0.19139887
27	0xbdc1b0b6	-0.09457533
28	0x3e11c417	0.14234959
29	0xbd14ff68	-0.036376387
30	0x3e34d90f	0.17660926
31	0x3c8a6a39	0.016896354

encoder.lnXc.2.weight f4 [32, 32]
0	0x3dd4946a	0.1037987
1	0x3e2cd127	0.1687666
2	0xbda566bb	-0.08076235
3	0xbe7570e1	-0.23968841
4	0x3e926eaf	0.2860007
5	0x3e773fec	0.24145478
6	0x3dd56277	0.10419171
7	0x3e5edf69	0.21764912
8	0x3db35856	0.08757083
9	0xbd3607bc	-0.04444097
10	0x3e8e0d33	0.27744445
11	0x3ccef6e4	0.025264211
12	0x3ddcb481	0.10776616
13	0x3eaf7e53	0.34276065
14	0x3e9fbb72	0.31197697
15	0xbe4de120	-0.2010541
16	0x3e4017c4	0.18759066
17	0xbe2bc8c1	-0.167758
18	0x3c634f7d	0.013873932
19	0x3ec683a0	0.38772297
20	0x3eb45330	0.35219717
21	0x3e01499b	0.12625735
22	0xbe94c302	-0.2905503
23	0x3e818343	0.25295457
24	0x3a7eb5f1	0.00097164424
25	0xbd0e1d14	-0.0346957
26	0x3e88cc94	0.2671858
27	0x3e406aea	0.18790784
28	0xbd254468	-0.04034844
29	0xbe0e6c12	-0.13908413
30	0x3e271cbb	0.16319554
31	0x3e817ae0	0.2528906
32	0x3cd714c7	0.026255025
33	0xbde482c8	-0.11157757
34	0xbe11317b	-0.14179032
35	0xbdb544a1	-0.088509806
36	0xbe80b114	-0.251351
37	0xbeab7edc	-0.33495224
38	0xbe95317f	-0.29139325
39	0x3e4965e0	0.19667768
40	0xbe878fbc	-0.26476848
41	0x3e6e81be	0.2329168
42	0xbe3ed0fd	-0.1863441
43	0x3e1f9824	0.15585381
44	0xbe0d036b	-0.13770835
45	0xbea0eca4	-0.31430542
46	0xbe3922c7	-0.18079673
47	0xbe79dbb4	-0.24400216
48	0xbd8da01f	-0.06915306
49	0x3c878038	0.016540632
50	0xbe84b7d9	-0.25921515
51	0xbe25c50f	-0.16188453
52	0xbe1b41df	-0.15161847
53	0x3cec1c1c	0.028821997
54	0xbdc97e47	-0.098385386
55	0x3db98481	0.09058476
56	0xbe4da1a4	-0.20081192
57	0xbe8b1c9a	-0.2717026
58	0xbd150f1a	-0.036391355
59	0x3e44fd84	0.19237334
60	0xbd691dce	-0.05691319
61	0xbeab9ca6	-0.3351795
62	0x3e8140f7	0.25244877
63	0x3e892aa7	0.26790354
64	0xbe076e56	-0.13225684
65	0xbe5add44	-0.21373469
66	0xbe819477	-0.25308582
67	0xbe717376	-0.23579201
68	0x3b909d47	0.00441328
69	0xbe1723d2	-0.14759758
70	0x3e08d5cb	0.13362806
71	0x3ba64b81	0.0050749187
72	0xbe8fa70a	-0.28057128
73	0xbe95be87	-0.29246923
74	0x3e0f1e5b	0.13976423
75	0x3df65ef6	0.12029831
76	0xbe9f73f2	-0.31143147
77	0x3dddde0f	0.1083337
78	0xbe973cfc	-0.29538715
79	0xbe734670	-0.23757339
80	0xbe004953	-0.12527971
81	0xbd944d3c	-0.07241294
82	0x3d890d43	0.066919826
83	0xbeb26c81	-0.34848407
84	0xbe941356	-0.28921002
85	0x3e4ebd7a	0.20189467
86	0xbe639d2a	-0.22227922
87	0xbc4b6abf	-0.012415587
88	0x3dcbffe5	0.099609174
89	0x3e3610f0	0.17779899
90	0x3d33342b	0.043750923
91	0xbe82afaf	-0.2552466
92	0xbe2081dc	-0.15674537
93	0xbe341fe8	-0.17590296
94	0xbd864e98	-0.06557959
95	0xbe5a777b	-0.2133464
96	0xbda73c3c	-0.08165786
97	0x3e2c7cd6	0.16844496
98	0x3e974430	0.2954421
99	0xbe899007	-0.26867697
100	0xbe083277	-0.13300501
101	0x3e2aa219	0.16663398
102	0x3ece0f54	0.4024607
103	0xbe25bb73	-0.16184787
104	0x3e7b44b5	0.24537928
105	0xbdc36811	-0.095413335
106	0x3e9749f7	0.29548618
107	0x3e75ac02	0.23991397
108	0x3eb7b90c	0.35883367
109	0x3eabb264	0.3353454
110	0xbdc76885	-0.097367324
111	0x3ead107d	0.33801642
112	0xbe4d2f31	-0.20037533
113	0xbdd3343d	-0.10312698
114	0x3e92d1df	0.28675744
115	0x3e2331f1	0.1593702
116	0xbe2fd3ad	-0.17170592
117	0x3c64618d	0.013939274
118	0x3e3914b4	0.18074304
119	0x3e05758e	0.13033125
120	0xbac12f0d	-0.0014738754
121	0xbe3e2406	-0.1856843
122	0xbd32de9f	-0.04366934
123	0x3d53057d	0.051518906
124	0xbdc50172	-0.09619416
125	0x3eae60be	0.34058183
126	0x3e122623	0.1427236
127	0xbe56a042	-0.20959571
128	0x3e0ff6d2	0.14058998
129	0x3e25cef2	0.16192225
130	0xbddfb6af	-0.10923516
131	0x3e2cd365	0.16877516
132	0xbdcf3d0f	-0.10119068
133	0x3e28ca5e	0.16483447
134	0x3d0a085a	0.03369937
135	0x3e5a5e98	0.21325147
136	0xbe198a2a	-0.14994112
137	0xbe07a3e3	-0.13246112
138	0x3e467d8f	0.19383834
139	0xbe3f157d	-0.18660541
140	0xbd9c3b13	-0.07628455
141	0xbdaf851e	-0.08570312
142	0x3e81d19e	0.25355238
143	0xbd975e61	-0.07391048
144	0x3e869ab6	0.2628991
145	0x3db18209	0.0866738
146	0x3e57395b	0.21017973
147	0x3d56d019	0.05244455
148	0xbd958e7f	-0.073025696
149	0xbd2104d8	-0.03931126
150	0xbe37ebaf	-0.17961
151	0x3e400e05	0.18755348
152	0xbe6b0508	-0.22951138
153	0x3d321407	0.04347613
154	0xbd3d7f00	-0.046263695
155	0x3e1942c0	0.1496687
156	0x3e850bda	0.25985605
157	0xbdbbebec	-0.09175858
158	0x3e2fe06f	0.17175458
159	0x3e376ea6	0.17913303
160	0x3d8a4cba	0.06752916
161	0x3dc7ca48	0.09755379
162	0xbe4f959a	-0.20271912
163	0x3e2a1b98	0.16612089
164	0xbe55fb5d	-0.20896669
165	0x3e086af6	0.13322052
166	0xbcc21811	-0.023693116
167	0x3dbb670d	0.09150515
168	0xbe0e1e78	-0.1387881
169	0x3d96d4e8	0.073648274
170	0x3d26ecb7	0.040753093
171	0xbdf03a20	-0.117298365
172	0xbcc840be	-0.024444934
173	0x3eb075c4	0.34464848
174	0x3dd9256c	0.10602841
175	0x3dd1f4b6	0.10251753
176	0x3e6cd9ff	0.23130034
177	0x3dec7032	0.11544837
178	0xbd81bdf9	-0.063350625
179	0x3e22ad1a	0.15886346
180	0xbe21d7db	-0.15804999
181	0x3e81ca76	0.25349778
182	0xbe9302e7	-0.28713152
183	0x3ebf4a37	0.3736131
184	0xbe14a728	-0.1451689
185	0x3dd0aafe	0.10188864
186	0x3cec7471	0.028864117
187	0x3db088fc	0.08619878
188	0xbe020461	-0.12696983
189	0x3e5ac0bc	0.21362585
190	0xbdb9ea1b	-0.09077855
191	0x3e0f1d55	0.13976033
192	0x3c45d677	0.012075058
193	0x3e80105c	0.2501248
194	0x3e265156	0.16241965
195	0xbe4b345c	-0.19844192
196	0x3c65f74b	0.01403601
197	0x3ec6b16a	0.3880723
198	0x3e70e9b4	0.2352665
199	0x3eb85741	0.3600407
200	0x3d931eb5	0.07183591
201	0xbe577ded	-0.2104413
202	0xbe419e08	-0.1890794
203	0x3d855e34	0.065121084
204	0xbdc65b00	-0.096853256
205	0x3e15ebd1	0.14640738
206	0x3ce6d07a	0.028175581
207	0x3e96ac2b	0.2942823
208	0x3e873ada	0.26412088
209	0xbe36632c	-0.17811269
210	0x3e3dd7e8	0.18539393
211	0xbacf4c7d	-0.0015815642
212	0xbdfbb718	-0.12290782
213	0x3eba2d53	0.36362705
214	0x3ddb8c41	0.10720111
215	0x3da92411	0.08258832
216	0x3db6d8a2	0.08928038
217	0xbd30c184	-0.0431533
218	0xbd9ba465	-0.07599715
219	0x3ea9a7f2	0.33135945
220	0xbe16c5c8	-0.14723885
221	0x3e031064	0.12799221
222	0x3de7df91	0.11321939
223	0x3e02c5f3	0.12770824
224	0x3d0977a9	0.033561382
225	0xbe4f5fcd	-0.20251389
226	0x3e615f38	0.2200898
227	0xbe916060	-0.2839384
228	0xbe85dea7	-0.26146433
229	0xbd8b30c5	-0.067964114
230	0xbdf3b76f	-0.119002216
231	0xbe275acb	-0.16343229
232	0x3e35a2ab	0.17737834
233	0xbcc58383	-0.024110561
234	0x3e79d32a	0.24396959
235	0x3e5d0b92	0.21586445
236	0x3e5aa680	0.21352577
237	0xbb5e54fd	-0.0033925169
238	0xbe364d1d	-0.17802854
239	0xbdf79092	-0.120881215
240	0xbda6741e	-0.08127616
241	0x3e1e8c13	0.15483122
242	0xbe2939cd	-0.16525955
243	0x3e893b83	0.26803216
244	0xbe28b006	-0.16473398
245	0xbe84b0d6	-0.25916165
246	0xbdaf9395	-0.08573071
247	0xbda5dac0	-0.08098364
248	0xbe554e89	-0.2083074
249	0xbdf05788	-0.11735445
250	0xbe018b94	-0.12650901
251	0xbba30a72	-0.0049756104
252	0xbe18d378	-0.14924419
253	0xbda7e408	-0.081977904
254	0xbd433000	-0.0476532
255	0xbe8ebaef	-0.27876994

encoder.lnXc.2.bias f4 [32]
0	0x3e51e4fd	0.20497508
1	0xbd9771b1	-0.07394732
2	0xbe203e39	-0.15648736
3	0x3e098c01	0.13432314
4	0x3d534547	0.05157974
5	0xbd90e9e7	-0.07075863
6	0x3e680215	0.22657044
7	0x3df6d47b	0.12052246
8	0x3d586698	0.052832216
9	0x3dcc8774	0.09986773
10	0x3e1e6bcf	0.15470813
11	0x3d056eb0	0.032576263
12	0x3ddc3443	0.10752156
13	0xbd96cf09	-0.073637076
14	0x3dd6e188	0.104922354
15	0xbe3bfb89	-0.18357672
16	0xbcbeb820	-0.023281157
17	0xbae2eb50	-0.001731256
18	0x3e0ba2cc	0.13636321
19	0xbe110a71	-0.1416414
20	0x3ea29ebd	0.31761733
21	0xbe7a78f1	-0.24460198
22	0xbe50ee83	-0.20403485
23	0x3db99715	0.0906202
24	0x3d5fac0c	0.054607436
25	0xbdead394	-0.114661366
26	0xbd875bb3	-0.06609287
27	0xbe401c84	-0.18760878
28	0xbd8b37ef	-0.06797778
29	0xbdb596de	-0.08866666
30	0x3d01d7be	0.03169989
31	0x3dcdf117	0.1005575

encoder.lnLst.0.0.weight f4 [32, 3]
0	0xbe007061	-0.12542869
1	0xbe069ffd	-0.13146968
2	0xbe327976	-0.17429146
3	0xbe6a3157	-0.22870384
4	0x3dfccf5c	0.12344238
5	0xbee18fa3	-0.440549
6	0xbe6a5edb	-0.22887747
7	0xbe1ec56d	-0.15505
8	0xbe56b06c	-0.20965737
9	0x3e8dee28	0.2772076
10	0x3e9adbd6	0.30245847
11	0xbd62b3ce	-0.055347256
12	0x3e97e619	0.29667738
13	0xbe570b6f	-0.21000455
14	0x3e58f20c	0.21186084
15	0xbe38aa32	-0.18033674
16	0xbde234bc	-0.110452145
17	0x3e102fc0	0.14080715
18	0x3ea4731a	0.32119066
19	0xbe62089d	-0.22073598
20	0x3ec4286a	0.38312083
21	0x3e324697	0.1740974
22	0x3eaea695	0.34111467
23	0x3e05638d	0.13026257
24	0xbef1800e	-0.4716801
25	0xbebb703d	-0.3660907
26	0xbd94813c	-0.07251212
27	0x3e9e6755	0.3093821
28	0x3e0c1a72	0.13681963
29	0x3e8484f8	0.25882697
30	0xbea0df69	-0.31420448
31	0x3e7fc9d0	0.24979329
32	0xbdbf8bbf	-0.09352826
33	0xbe0d7bf8	-0.13816822
34	0xbed319a3	-0.41230497
35	0x3ec1ebcc	0.3787521
36	0x3e8654de	0.26236624
37	0x3e71c869	0.23611607
38	0xbe1dd3b9	-0.15412797
39	0xbcdc4db9	-0.02689253
40	0x3eabb622	0.33537394
41	0x3e79b9c7	0.24387275
42	0x3ec0a47c	0.37625492
43	0xbe24401a	-0.16040078
44	0xbe9ff654	-0.3124262
45	0xbe6d128c	-0.23151606
46	0x3ea85b4f	0.32882163
47	0xbe6487da	-0.22317448
48	0x3e9d806f	0.3076205
49	0x3ec0e54a	0.37674934
50	0xbe85a35a	-0.2610119
51	0xbe62da86	-0.22153673
52	0xbeca6b74	-0.39535105
53	0x3cb447be	0.022006866
54	0x3ea156e5	0.31511608
55	0xbe5b8b2c	-0.21439809
56	0xbc264a56	-0.010149559
57	0xbe932fb4	-0.28747332
58	0x3e0e4572	0.13893679
59	0xbe4df15e	-0.20111606
60	0x3e910753	0.283259
61	0x3dc02d5f	0.09383654
62	0x3d0b6c97	0.034039106
63	0x3eecb1fa	0.46229535
64	0x3eaf56f2	0.34246022
65	0x3cdf6e13	0.027274167
66	0xbe8938f1	-0.26801255
67	0x3e0101b5	0.12598307
68	0x3e0aef78	0.13567913
69	0xbe857a41	-0.26069835
70	0x3ea23573	0.31681404
71	0xbe72550e	-0.23665258
72	0x3e7df878	0.24801815
73	0x3e1e220b	0.15442674
74	0xbe6db42e	-0.23213264
75	0xbd9703f1	-0.07373799
76	0x3e8cc4e9	0.2749398
77	0xbe9796a4	-0.29607117
78	0x3c1a1449	0.00940425
79	0xbea4a0dc	-0.32153976
80	0xbe40bb7d	-0.18821521
81	0x3ea1a024	0.3156749
82	0xbead1967	-0.33808443
83	0xbe2bf6b7	-0.16793333
84	0x3ed19a52	0.4093805
85	0x3e48ac9b	0.19597094
86	0x3e58ecab	0.21184032
87	0xbe9c66bb	-0.30547127
88	0x3dc1b33e	0.09458016
89	0xbecd966b	-0.40153822
90	0xbd2d5eb0	-0.04232663
91	0x3ec769b6	0.3894784
92	0xbe949029	-0.29016235
93	0xbe07003b	-0.13183682
94	0xbed911c0	-0.42396355
95	0xbdfcfa5b	-0.12352439

encoder.lnLst.0.0.bias f4 [32]
0	0xbd93d415	-0.07218186
1	0x3d3654b5	0.044514377
2	0xbebebf13	-0.37255153
3	0xbe0b9d33	-0.13634185
4	0xbedafa28	-0.4276898
5	0xbef2c750	-0.47417688
6	0xbee5c0cd	-0.44873658
7	0x3e2847b4	0.16433603
8	0x3ec62f48	0.38707948
9	0x3ee48b15	0.4463736
10	0x3d040f33	0.032241058
11	0xbe26d778	-0.16293132
12	0xbdc2e9cc	-0.095172495
13	0xbe651bf2	-0.22373942
14	0xbe3f1b2a	-0.18662706
15	0xbe1a613b	-0.15076153
16	0xbef94573	-0.48685798
17	0x3e454faa	0.1926867
18	0x3ed1f079	0.4100378
19	0x3cd6f66e	0.026240554
20	0xbde517db	-0.11186191
21	0x3df839dd	0.121204115
22	0xbdc96c29	-0.09835083
23	0xbf030604	-0.51181054
24	0x3e8c4be3	0.27401647
25	0xbe824f48	-0.25451112
26	0xbdd04dbb	-0.10171076
27	0x3de537aa	0.11192258
28	0xbe27bcd8	-0.16380632
29	0xbe28c57c	-0.16481584
30	0xbe9d3ea5	-0.30711856
31	0x3db4c0e3	0.08825853

encoder.lnLst.0.2.weight f4 [32, 32]
0	0xbe2ae949	-0.16690554
1	0x3e0a1f13	0.13488416
2	0x3d285c13	0.041103434
3	0xbe52aab6	-0.20572934
4	0x3db68238	0.08911556
5	0xbd14afc5	-0.03630044
6	0x3db43967	0.08800011
7	0x3bbf6250	0.005840577
8	0x3dafb351	0.08579124
9	0x3e833891	0.25629094
10	0xbd691ba8	-0.05691114
11	0xbe0335c5	-0.1281348
12	0xbdba30d2	-0.09091343
13	0x3d791ba3	0.060817372
14	0x3e90066b	0.28129897
15	0x3e9219e7	0.28535387
16	0xbe0251e4	-0.12726551
17	0xbd46aa98	-0.048502535
18	0xbe6d66cf	-0.2318375
19	0xbdb0ec0e	-0.08638774
20	0x3dacce8e	0.08437835
21	0xbe6a7c7a	-0.22899047
22	0xbe83668f	-0.25664183
23	0xbdffad90	-0.12484276
24	0xbda2246d	-0.07917104
25	0x3e4a9316	0.19782671
26	0xbc2c20f2	-0.010505902
27	0x3e8d6060	0.2761259
28	0x3d889453	0.066689156
29	0xbd6b1c23	-0.05739988
30	0x3e860a64	0.26179802
31	0xbe05391a	-0.13010064
32	0x3e2d0ad0	0.16898656
33	0x3eb1bea3	0.34715757
34	0xbd9a5efa	-0.075376466
35	0x3bb68dad	0.0055710883
36	0xbe379501	-0.17927934
37	0x3e93c0f7	0.28858158
38	0x3e9c8922	0.30573374
39	0xbe60d124	-0.21954781
40	0xbeae2d5a	-0.34018975
41	0xbe60c554	-0.21950275
42	0x3e8c603c	0.2741717
43	0xbe060ec7	-0.13091575
44	0xbdbf1421	-0.09330011
45	0xbd52116f	-0.051286157
46	0x3e16b27b	0.14716522
47	0xbe959a09	-0.29219082
48	0xbc60f1fa	-0.013729567
49	0xbe1c28d8	-0.15249956
50	0xbe2a5170	-0.16632628
51	0xbd7527e7	-0.059852507
52	0x3c762f64	0.015025947
53	0xbe61d39f	-0.22053383
54	0xbe19121e	-0.14948317
55	0xbe93607f	-0.28784558
56	0xbda9ca4f	-0.082905404
57	0x3dd11a59	0.102101035
58	0xbe9ac35c	-0.30227172
59	0x3de28d9a	0.110621646
60	0x3daff8ef	0.08592402
61	0x3e5954d2	0.21223763
62	0xbda192a4	-0.078892976
63	0xbdd79806	-0.10527043
64	0x3e88a6d8	0.26689792
65	0xbd82fe59	-0.06396169
66	0x3e38598c	0.1800291
67	0x3db18fa1	0.08669973
68	0x3e56474f	0.2092564
69	0x3df3f6e9	0.11912329
70	0x3e0c6d47	0.13713561
71	0x3ce90cf4	0.02844856
72	0xbe47340c	-0.19453448
73	0x3d75ad93	0.059979986
74	0xbe115235	-0.14191516
75	0xbcd17e0d	-0.025572801
76	0x3dca1291	0.098668225
77	0xbd2a80d6	-0.041626774
78	0xbd8927bc	-0.06697032
79	0xbcc7f3d5	-0.02440826
80	0x3e692cac	0.22770947
81	0xbdb09a69	-0.086232014
82	0xbe1bc039	-0.15210046
83	0x3e1fe4ad	0.15614577
84	0xbcb2f1c5	-0.0218438
85	0xbc849818	-0.016185805
86	0xbd132a26	-0.035928868
87	0x3e1b4604	0.15163428
88	0x3e06bb68	0.13157427
89	0x3e7fa4e8	0.2496525
90	0x3e94310a	0.28943664
91	0xbd08c01b	-0.03338633
92	0x3d581d97	0.052762594
93	0xbe904f15	-0.28185335
94	0xbdef6beb	-0.116905056
95	0x3e5f5c36	0.2181252
96	0x3df1a90b	0.117998205
97	0x3d075761	0.033042315
98	0x3da0810b	0.07837113
99	0xbeaedf51	-0.34154752
100	0xbe91acf9	-0.2845228
101	0x3b675caa	0.0035303035
102	0xbdcf1ca0	-0.10112882
103	0xbeabe412	-0.3357244
104	0xbea05477	-0.31314442
105	0xbe44f501	-0.19234087
106	0x3bac1dfb	0.0052525974
107	0x3e76ff29	0.24120773
108	0xbe336242	-0.17517951
109	0x3e7a368b	0.24434869
110	0xbe96e24e	-0.29469532
111	0xbe7bccfa	-0.24589911
112	0xbe941e7b	-0.28929505
113	0xbd94311e	-0.07235931
114	0xbea72cbf	-0.32651326
115	0xbe94d9da	-0.29072458
116	0xbe2a7fe4	-0.16650349
117	0xbeacebae	-0.3377356
118	0x3e783382	0.24238399
119	0xbde56ba1	-0.11202169
120	0x3db6d14a	0.089266375
121	0x3d83f1a9	0.064425774
122	0x3e9aa534	0.30204165
123	0xbe36ca51	-0.17850615
124	0xbe2bd9da	-0.16782323
125	0x3e1077b3	0.14108162
126	0xbe764c60	-0.24052572
127	0x3dc4e5b3	0.09614124
128	0x3c5f0ed0	0.013614371
129	0x3d86bdc0	0.06579161
130	0xbe89d017	-0.26916572
131	0x3e97a79d	0.29620066
132	0x3df3cf9a	0.11904831
133	0x3e307afc	0.17234415
134	0x3e955f61	0.2917433
135	0xbe5ff2ae	-0.21869919
136	0x3e45a169	0.19299854
137	0x3e39a0d2	0.18127754
138	0xbd80d487	-0.062905364
139	0x3e10e5c6	0.14150152
140	0xbdd37512	-0.10325064
141	0x3d9fb4ed	0.07798181
142	0x3e12d558	0.14339197
143	0x3e42a6b8	0.1900891
144	0xbe4517e5	-0.19247396
145	0x3e0540d2	0.13013008
146	0xbe345e5c	-0.1761412
147	0x3e6fd66a	0.23421636
148	0xbcd18aee	-0.025578942
149	0x3e382702	0.1798363
150	0xbe8315e7	-0.25602648
151	0xbe8671d8	-0.2625873
152	0xbd20539b	-0.039142232
153	0x3e88d9ce	0.26728672
154	0xbe139201	-0.14411165
155	0x3e4f2f68	0.20232928
156	0xbdad9e1b	-0.08477422
157	0xbda7f2e1	-0.08200622
158	0x3df37c70	0.11888969
159	0xbe1572f0	-0.14594626
160	0x3e31f1e9	0.17377438
161	0x3dbf8c45	0.09352926
162	0xbd952ddd	-0.07284138
163	0xbe8158c9	-0.2526305
164	0x3e9a6dbf	0.30161855
165	0x3d963389	0.07334048
166	0xbd8c46e1	-0.068494566
167	0x3c9d9760	0.01923722
168	0x3d8c27fe	0.068435654
169	0xbe80cb86	-0.25155276
170	0xbdaace77	-0.08340161
171	0xbe4f2b6b	-0.20231406
172	0x3dee6dde	0.11642049
173	0xbe404b79	-0.1877879
174	0x3dfe453e	0.12415551
175	0x3e689bf5	0.22715743
176	0xbdc51c77	-0.0962457
177	0xbde83ab1	-0.113393195
178	0x3decbffe	0.11560057
179	0xbe4b7c32	-0.19871596
180	0xbeb1f4a7	-0.34756967
181	0xbe808045	-0.25097862
182	0x3e0aa670	0.13540053
183	0x3e58f2cb	0.21186368
184	0x3e13a9cb	0.1442024
185	0xbcc38eac	-0.023871742
186	0x3d6eb1db	0.058275085
187	0x3e6222cc	0.22083586
188	0x3e422985	0.18961151
189	0x3e86b0a6	0.26306647
190	0xbe733ee7	-0.23754464
191	0xbe38d65d	-0.18050523
192	0x3e6f4ce4	0.23369175
193	0x3b22f546	0.0024865433
194	0x3e367e31	0.17821576
195	0xbdc01b59	-0.09380216
196	0xbe3f166d	-0.18660899
197	0xbd9f2034	-0.07769814
198	0x3e839360	0.25698376
199	0x3d3d5f17	0.046233263
200	0xbe486733	-0.19570617
201	0x3cf2a04e	0.029617455
202	0x3e501b04	0.20322806
203	0xbc66bf70	-0.014083728
204	0x3de7e77b	0.11323448
205	0xbe3656be	-0.17806527
206	0x3cf07f16	0.029357474
207	0x3e98cfa0	0.29845905
208	0xbe53a9ac	-0.20670193
209	0x3e913dfe	0.2836761
210	0xbdc3c770	-0.09559524
211	0x3e9b107f	0.30286023
212	0xbe5d158b	-0.21590249
213	0x3cc3b9fe	0.023892399
214	0x3e8c77dc	0.27435195
215	0xbe98d9f2	-0.2985378
216	0x3e18b62c	0.14913243
217	0x3dff8e7c	0.124783486
218	0x3dd50e5e	0.10403131
219	0xbe87d831	-0.26532128
220	0x3d61e185	0.055146713
221	0xbd1f81ea	-0.038942255
222	0x3e65ced0	0.22442174
223	0x3e9e00a4	0.30859864
224	0x3e72e03c	0.23718351
225	0xbcd74584	-0.026278265
226	0xbd7a9cd9	-0.061184738
227	0xbe508e86	-0.20366868
228	0x3dc2c03f	0.09509324
229	0xbe4d3996	-0.20041499
230	0x3e343325	0.17597635
231	0x3c848ddd	0.016180927
232	0x3df60943	0.12013485
233	0x3e2d1282	0.16901591
234	0x3d2b6515	0.041844446
235	0xbe027898	-0.12741315
236	0x3da2eead	0.0795568
237	0x3df7d4f6	0.12101166
238	0x3e0b801e	0.13623092
239	0x3e9022eb	0.2815164
240	0x3e6e6a04	0.23282629
241	0x3e1844a9	0.14869942
242	0x3e2acaef	0.16678976
243	0xbe4f7164	-0.20258099
244	0xbd8b9f6f	-0.06817519
245	0x3e829ff6	0.25512666
246	0x3dc518de	0.09623884
247	0x3da0d63d	0.07853363
248	0xbe4a80a1	-0.1977563
249	0x3e8ae9ab	0.271314
250	0x3dedbb6e	0.11608015
251	0xbd4bf5da	-0.04979501
252	0x3e09030d	0.1338007
253	0xbdc76a11	-0.097370274
254	0xbd88a2f7	-0.06671708
255	0x3deb0e67	0.114773564

encoder.lnLst.0.2.bias f4 [32]
0	0xbe35ead3	-0.1776536
1	0xbcdd800a	-0.027038593
2	0x3819d49c	3.667605e-05
3	0xbe535224	-0.20636803
4	0xbd8be6b1	-0.0683111
5	0xbdf63d95	-0.120234646
6	0xbd743a05	-0.059625644
7	0xb9fa2ce8	-0.00047717174
8	0xbe34d17a	-0.17658034
9	0x3ccf03c5	0.025270352
10	0x3e431e11	0.19054438
11	0x3dd30788	0.10304171
12	0xbe24808f	-0.16064666
13	0xbcf57388	-0.029962316
14	0x3d6ab8cd	0.057305146
15	0x3d0af0aa	0.03392092
16	0xbe22e0cb	-0.15906064
17	0x3e2aadaf	0.16667818
18	0x3e3ed633	0.18636398
19	0x3dbedbc1	0.093192585
20	0x3e07b30a	0.13251892
21	0x3c502786	0.012704736
22	0x3c47d0b5	0.012195756
23	0xbcaa48ee	-0.020786729
24	0x3e408cda	0.1880373
25	0x3d7fcc0f	0.062450465
26	0xbdf366dc	-0.11884853
27	0x3e55a2d0	0.2086289
28	0x3d8dd6e1	0.069257505
29	0xbe4d5734	-0.20052797
30	0xbe17bcd5	-0.14818127
31	0x3d65afb7	0.056075778

encoder.lnLst.1.0.weight f4 [32, 7]
0	0x3d9efce8	0.07763082
1	0x3e73f240	0.2382288
2	0xbda08069	-0.07836992
3	0x3da1f454	0.0790793
4	0x3c340afe	0.010988949
5	0xbe9d6bb6	-0.3074624
6	0xbdea5b03	-0.1144314
7	0x3df60eea	0.120145634
8	0xbee6a9a9	-0.45051315
9	0xbee7bf78	-0.45263267
10	0x3e819ebe	0.25316423
11	0xbec22ccd	-0.37924805
12	0xbedbc24f	-0.42921683
13	0x3d3f41e2	0.04669369
14	0x3e0b904c	0.13629264
15	0x3df7a981	0.12092877
16	0x3e9929ee	0.29914802
17	0x3ebe6b4e	0.37191242
18	0xbdd2b233	-0.10287895
19	0x3e8ebcca	0.2787841
20	0x3e8ec78c	0.27886617
21	0xbe03a597	-0.12856136
22	0x3c41f28a	0.011837611
23	0x3dd11e6d	0.102108814
24	0xbec832b0	-0.39101171
25	0xbeb8caf0	-0.3609233
26	0xbcbc7a36	-0.023007493
27	0x3c119e7f	0.008887886
28	0x3e7c3f69	0.24633564
29	0x3d52c49d	0.051457036
30	0x3c256212	0.010094183
31	0xbe8919e6	-0.2677757
32	0xbebd479a	-0.3696869
33	0x3df5ddd8	0.12005204
34	0x3e70074d	0.23440285
35	0xbe390eff	-0.18072127
36	0x3e18a53f	0.14906786
37	0x3ea854bf	0.32877156
38	0x3e14a380	0.14515495
39	0x3ebda69d	0.37041178
40	0x3e2afe4c	0.16698569
41	0xbe113d31	-0.14183499
42	0x3e6786db	0.22610037
43	0x3e14cfda	0.14532414
44	0x3e407b2f	0.18796991
45	0xbe2332e7	-0.15937386
46	0xbe91e4be	-0.2849483
47	0xbe3fdb3d	-0.18735977
48	0xbe22f232	-0.15912703
49	0x3ecc9d84	0.39963925
50	0x3d5e7bf1	0.05431742
51	0x3dfbe599	0.12299652
52	0xbde033ab	-0.10947355
53	0xbe73f34c	-0.23823279
54	0xbeae67a0	-0.34063435
55	0x3e0ad07e	0.13556096
56	0xbea3289f	-0.3186693
57	0xbe946398	-0.28982234
58	0xbec3bf2d	-0.38231793
59	0xbe3e37f2	-0.18576029
60	0x3e5c223f	0.21497439
61	0xbe9087ab	-0.28228506
62	0xbeb8d895	-0.3610274
63	0x3d2889d8	0.041147083
64	0xbda71a27	-0.08159285
65	0xbec21f60	-0.37914562
66	0xbea3aca9	-0.31967667
67	0xbe85cfda	-0.2613514
68	0xbcc1fa91	-0.02367905
69	0xbeae02ef	-0.33986613
70	0x3eb3aeb4	0.35094225
71	0xbe214dfb	-0.15752403
72	0xbd814d9c	-0.06313631
73	0xbeb97ff4	-0.36230433
74	0xbe9db423	-0.30801496
75	0xbeb9037d	-0.36135474
76	0x3d5e4e35	0.054273803
77	0x3eb46d7a	0.35239774
78	0x3ed763ec	0.42068422
79	0x3e4c908b	0.19977014
80	0x3e3a830b	0.18214051
81	0x3ddded66	0.10836296
82	0xbe77aac7	-0.2418624
83	0x3e3a3d20	0.1818738
84	0x3e8e93ad	0.27847043
85	0x3ecb3d77	0.3969533
86	0xbd21c143	-0.03949095
87	0xbe342c74	-0.17595083
88	0x3ec1da91	0.37862065
89	0x3e872ffd	0.264038
90	0x3e9db796	0.30804127
91	0x3ed4601b	0.41479573
92	0xbdc205fb	-0.09473797
93	0x3ea1456b	0.31498274
94	0xbe99c487	-0.3003275
95	0x3e21a6cf	0.15786289
96	0xbe70ce2c	-0.23516148
97	0x3eb23bc6	0.3481123
98	0x3e5a7658	0.21334207
99	0xbc273b65	-0.010207032
100	0x3e8202a7	0.2539265
101	0xbe7b90ba	-0.24566928
102	0x3eb1f690	0.34758425
103	0x3df92d1c	0.12166807
104	0x3e8d8a68	0.27644658
105	0x3ed4c173	0.4155384
106	0x3e246b79	0.16056623
107	0x3eaae938	0.33381057
108	0xbcc395c0	-0.023875117
109	0x3e814dc6	0.2525465
110	0xbe967bf8	-0.29391456
111	0x3c737236	0.014858773
112	0x3ebfc455	0.37454477
113	0x3eb91c6d	0.361545
114	0x3ecc3125	0.39881244
115	0xbea512fb	-0.32241043
116	0x3d48aa32	0.048990436
117	0xbe995edc	-0.29955184
118	0xbe894e55	-0.26817575
119	0x3e90f1ba	0.28309423
120	0x3e6dd372	0.23225191
121	0xbeb2025b	-0.34767422
122	0xbd0a8e55	-0.033827145
123	0xbe817ff8	-0.25292945
124	0xbec7a60d	-0.38993874
125	0x3e2d8e97	0.16948925
126	0xbeb3a53a	-0.35086995
127	0xbe898742	-0.26861006
128	0xbea3fd93	-0.320294
129	0xbebfc8d1	-0.37457898
130	0xbe0a6f02	-0.13518909
131	0xbe72740c	-0.23677081
132	0xbe88980c	-0.26678503
133	0xbeaeae5d	-0.34117404
134	0x3e3123d9	0.17298831
135	0xbeb32f6c	-0.34997118
136	0x3e6b01ba	0.22949877
137	0xbdf1c7b9	-0.11805672
138	0xbd60634c	-0.054782197
139	0x3e43c111	0.19116618
140	0x3c9d7f37	0.0192257
141	0x3e9979e7	0.29975817
142	0xbe1dfb87	-0.15427981
143	0x3e9c01f0	0.30470228
144	0x3e949553	0.29020175
145	0xbea9e04f	-0.33178946
146	0xbec91c5c	-0.3927945
147	0x3e5d1a5e	0.2159209
148	0xbe962022	-0.2932139
149	0xbe8ac5f4	-0.2710415
150	0xbb6ce56c	-0.0036147488
151	0x3d36e202	0.04464913
152	0x3e038328	0.12843001
153	0x3e60ec5e	0.21965167
154	0x3bde9072	0.0067921216
155	0x3eb78611	0.35844472
156	0xbe827748	-0.2548163
157	0xbeaaeb27	-0.33382532
158	0x3c1267c1	0.00893587
159	0xbeb53335	-0.3539063
160	0x3eb904e4	0.36136544
161	0x3e4a1346	0.19733915
162	0x3eb5f4d3	0.3553835
163	0x3eb566df	0.35430047
164	0xbd6defea	-0.058090128
165	0x3ead0b02	0.3379746
166	0xbe8eae6c	-0.27867448
167	0x3dbaf79b	0.09129258
168	0xbdbee776	-0.093214914
169	0x3e5fe985	0.21866424
170	0x3e4ab2c1	0.19794752
171	0x3d948201	0.07251359
172	0x3eac81e6	0.33692855
173	0x3eb28c6a	0.34872752
174	0x3ef3fac6	0.47652262
175	0x3ec5ddc3	0.38645753
176	0xbc15e7c7	-0.009149498
177	0x3ed0efa4	0.4080783
178	0xbd237001	-0.039901737
179	0x3d8847e5	0.06654338
180	0xbe7e7063	-0.2484756
181	0x3ea3b0b7	0.3197076
182	0xbe318d2d	-0.1733901
183	0xbe8e6138	-0.27808547
184	0x3e251e7e	0.16124913
185	0xbe16e157	-0.14734398
186	0xbe9cf9e2	-0.30659395
187	0xbd8d1e44	-0.06890538
188	0x3e4256f3	0.18978481
189	0xbb08ff9f	-0.0020904315
190	0x3e3fd8f4	0.18735105
191	0x3e42f355	0.19038136
192	0xbe8d25eb	-0.27567992
193	0x3ec8c9b4	0.39216387
194	0x3e43e69b	0.19130938
195	0xbe9578a0	-0.29193592
196	0xbdbb885c	-0.09156868
197	0x3e2b7a23	0.1674581
198	0xbdbdb361	-0.092627294
199	0x3eaa61b7	0.33277676
200	0xbcbe7e78	-0.023253664
201	0xbd0345e5	-0.03204908
202	0xbdf98038	-0.12182659
203	0x3e97ecc4	0.29672825
204	0x3df70771	0.12061966
205	0x3d41b892	0.04729516
206	0x3eb19014	0.34680235
207	0xbe54e447	-0.20790206
208	0x3d25c958	0.04047522
209	0xbe80f795	-0.2518889
210	0xbda0143c	-0.078163594
211	0x3e207f9e	0.15673682
212	0xbdf9a1e0	-0.12189078
213	0xbe93d493	-0.2887312
214	0x3df375bd	0.11887691
215	0xbdf60494	-0.12012592
216	0xbe21d9e8	-0.15805781
217	0xbee7c6ad	-0.45268765
218	0x3e8f9030	0.28039694
219	0xbebc7d6d	-0.36814442
220	0x3e5e1a94	0.21689826
221	0x3e2281ab	0.15869777
222	0x3e3b542f	0.18293832
223	0xbdcd1b2e	-0.1001495

encoder.lnLst.1.0.bias f4 [32]
0	0x3e3837c6	0.17990026
1	0x3c980cc3	0.018560773
2	0xbb67292c	-0.0035272343
3	0x3ea80e33	0.32823333
4	0x3ea38b0a	0.31942016
5	0xbeb27e00	-0.34861755
6	0xbeaba9fe	-0.3352813
7	0x3ea93bf3	0.3305355
8	0x3e790706	0.24319085
9	0xbe8ac14c	-0.271006
10	0xbe2056b4	-0.15658075
11	0x3d06f04b	0.032944005
12	0x3da00d4b	0.078150354
13	0x3dbd12f6	0.09232132
14	0x3eda0087	0.42578527
15	0x3ea977be	0.3309917
16	0xbda893c0	-0.08231306
17	0xbd583f69	-0.052794848
18	0xbc96ea34	-0.018422224
19	0xbd6043b7	-0.054752078
20	0xbcb5b47b	-0.022180786
21	0xbe39d08a	-0.18145958
22	0xbe518624	-0.20461327
23	0x3dd77660	0.10520625
24	0x3e97fe29	0.29686096
25	0x3e7c692f	0.246495
26	0x3ea1e198	0.31617427
27	0x3eb940e4	0.3618232
28	0x3d1ffd42	0.039059885
29	0x3d8e6e53	0.069546364
30	0x3e23d0b0	0.15997577
31	0xbe3d7cb2	-0.18504599

encoder.lnLst.1.2.weight f4 [32, 32]
0	0x3e00708a	0.1254293
1	0xbea7cc41	-0.3277302
2	0x3e65b2a9	0.22431435
3	0x3e9dae8e	0.30797237
4	0x3ea53681	0.32268146
5	0x3d95bc91	0.07311357
6	0x3d90d51b	0.07071897
7	0x3da2240a	0.0791703
8	0x3ea7aad9	0.32747534
9	0xbd8f7aec	-0.07005867
10	0x3e9a7d2f	0.30173633
11	0x3e031a40	0.12802982
12	0xbc85f7a5	-0.016353438
13	0xbe358021	-0.17724659
14	0x3e1d326e	0.15351269
15	0x3e8cc9bb	0.27497658
16	0x3ddcb9ed	0.1077765
17	0x3d402b63	0.046916377
18	0x3e0a7417	0.13520847
19	0x3e8c3809	0.273865
20	0x3e343cf0	0.17601371
21	0x3d96823f	0.07349061
22	0x3c3bd6b3	0.0114647625
23	0x3e48b70f	0.19601081
24	0x3e9c4fd5	0.30529657
25	0xbe504106	-0.20337304
26	0x3e8d228d	0.27565423
27	0xbdbd642c	-0.09247622
28	0xbe4d344d	-0.20039482
29	0xbe45d8e1	-0.19321014
30	0x3df466cb	0.11933669
31	0xbdda2dc6	-0.10653262
32	0xbd374d6d	-0.044751573
33	0xbd43ffe3	-0.047851454
34	0x3d521360	0.05128801
35	0x3e84b767	0.25921175
36	0xbd72764a	-0.05919484
37	0x3e9fe820	0.31231785
38	0x3dfa1bfb	0.12212368
39	0xbe423fc2	-0.18969634
40	0x3e6baeb7	0.23015867
41	0xbe4772f9	-0.19477452
42	0xbe9771c5	-0.29578987
43	0xbdcce365	-0.100043096
44	0xbe05ddb8	-0.1307286
45	0xbe49c38b	-0.197035
46	0x3e860066	0.2617218
47	0xbd984175	-0.0743436
48	0xbe882ac3	-0.26595125
49	0xbe290912	-0.16507366
50	0xbe457ed4	-0.19286662
51	0xbd8e722b	-0.069553696
52	0x3d0e8960	0.03479898
53	0xbea44aed	-0.32088414
54	0xbdf75cba	-0.12078233
55	0xbdcf204a	-0.101135805
56	0x3dc24a55	0.09486834
57	0x3de14b6c	0.11000714
58	0x3e3f4fba	0.18682757
59	0xbd9d398a	-0.0767699
60	0xbe73533c	-0.2376222
61	0xbd369f0f	-0.044585284
62	0x3e668cfe	0.22514722
63	0x3e26a387	0.16273318
64	0xbd6e5774	-0.05818887
65	0xbe393444	-0.18086344
66	0xbe24abe7	-0.160812
67	0xbd6969a1	-0.0569855
68	0x3d6cc959	0.057809208
69	0xbd970cea	-0.0737551
70	0xbd4cfdfc	-0.050046906
71	0xbc773886	-0.01508916
72	0x3e4b01b9	0.19824876
73	0x3dc424b4	0.09577313
74	0x3e941df9	0.28929117
75	0x3e1ed75f	0.15511845
76	0x3e7a1fa6	0.24426135
77	0xbddc8a18	-0.10768527
78	0x3ddc2231	0.10748709
79	0xbdb54cd2	-0.08852543
80	0x3e836234	0.2566086
81	0x3e73e8ca	0.2381927
82	0xbe0bfbd6	-0.13670287
83	0x3e9818d1	0.29706433
84	0xbd66ffe1	-0.05639637
85	0x3e945b0b	0.2897571
86	0x3e910c32	0.28329617
87	0xbcad9682	-0.021189932
88	0x3ea98b63	0.33114156
89	0xbcbac49f	-0.022798834
90	0xbd91cccc	-0.0711914
91	0x3e442b1e	0.19157073
92	0x3ea2b78f	0.3178067
93	0x3ea4bd17	0.32175514
94	0xbcc2048d	-0.02368381
95	0xbdb0f669	-0.08640749
96	0xbd488784	-0.048957363
97	0xbcbabc5c	-0.022794895
98	0xbe75309d	-0.23944326
99	0xbe840bce	-0.25790256
100	0xbe7f233a	-0.24915782
101	0x3d7cd847	0.061729696
102	0x3e3d9181	0.18512537
103	0x3db50381	0.08838559
104	0xbe7dbf12	-0.24779919
105	0x3e0e584e	0.13900873
106	0xbd3cd4e9	-0.046101484
107	0xbd84b700	-0.06480217
108	0x3df6d6f5	0.120527185
109	0x3de6c0d8	0.11267251
110	0xbc314d6d	-0.010821682
111	0xbe4b61db	-0.19861548
112	0x3e866103	0.2624589
113	0xbd9778f3	-0.07396116
114	0xbe1aefac	-0.1513049
115	0xbd6f9285	-0.05848934
116	0x3e68ad1b	0.22722284
117	0xbde4615e	-0.11151384
118	0x3ddecc64	0.10878828
119	0xbd5d5a1c	-0.054041013
120	0xbcd8d503	-0.02646876
121	0x3d1d844f	0.038456257
122	0x3de5403b	0.111938916
123	0xbe11a664	-0.14223629
124	0xbd531a11	-0.05153853
125	0x3d96bfb9	0.07360787
126	0xbd1be28f	-0.03805786
127	0xbe6159d9	-0.2200693
128	0xbdd0383f	-0.10166978
129	0xbdf78cec	-0.120874256
130	0x3e8d2750	0.27569056
131	0xbdeac49a	-0.1146328
132	0x3e986669	0.29765633
133	0x3e718d6c	0.23589104
134	0x3dfa2a1a	0.122150615
135	0x3d749274	0.05970998
136	0xbcea0096	-0.028564733
137	0xbe382718	-0.17983663
138	0x3e9468df	0.2898626
139	0x3e8d1003	0.27551278
140	0xbb6a69e9	-0.0035768694
141	0xbe2f033b	-0.17091076
142	0xbc7e62a9	-0.015526452
143	0xbe4162df	-0.18885373
144	0x3e2f00fd	0.17090221
145	0xbd43c434	-0.047794536
146	0xbe8227cc	-0.25420988
147	0xbcb79050	-0.02240768
148	0xbe473433	-0.19453506
149	0xbdbcae83	-0.09212973
150	0xbd95239b	-0.07282182
151	0xbd33079d	-0.043708432
152	0xbdcd6552	-0.10029091
153	0x3e0a27cb	0.13491742
154	0x3e4a8565	0.19777448
155	0xbbb2f949	-0.005461846
156	0xbc4068d4	-0.011743743
157	0x3e9f36d3	0.31096515
158	0xbe005aa9	-0.12534584
159	0xbe11f521	-0.14253666
160	0xbd8d9361	-0.06912876
161	0x3dd92425	0.10602597
162	0x3e348626	0.17629299
163	0xbe2db07a	-0.16961852
164	0xbe653416	-0.2238315
165	0x3ea961dc	0.33082473
166	0x3de1e7bf	0.1103053
167	0xbe230366	-0.15919265
168	0x3cb2b514	0.02181486
169	0xbd7fa1a4	-0.062410012
170	0x3e07e534	0.13271028
171	0x3c765205	0.015034203
172	0x3e757ce9	0.2397343
173	0xbdd764df	-0.105172865
174	0x3d27f593	0.041005682
175	0x3ea0608c	0.3132366
176	0x3e1ccc37	0.15312277
177	0x3be345e2	0.006935821
178	0xbe64086a	-0.22268835
179	0xbe2d4fd9	-0.1692499
180	0xbe1ad2f5	-0.15119536
181	0x3eb890b0	0.36047888
182	0xbe5f883c	-0.21829313
183	0xbe5b39e4	-0.21408802
184	0x3e4d3baa	0.20042291
185	0x3e9f8be3	0.31161413
186	0x3e0afc0f	0.13572715
187	0x3e8f2494	0.27957594
188	0x3ea18563	0.31547078
189	0xbe46d2cf	-0.19416355
190	0x3e3ff9f9	0.18747701
191	0xbd4013f6	-0.046894036
192	0xbd6ff7c1	-0.058585886
193	0x3e49a818	0.19693029
194	0x3ea9a121	0.33130744
195	0x3e6c3ef4	0.2307089
196	0x3e2a4470	0.1662767
197	0x3ea8fdc3	0.33006105
198	0xbe498c02	-0.19682315
199	0x3eab7fb3	0.33495864
200	0xbe41a0e3	-0.1890903
201	0x3e35d85d	0.17758317
202	0x3e9386be	0.28813738
203	0x3e9fd22d	0.3121504
204	0x3ebe32f4	0.3714825
205	0x3e52e4ac	0.20595044
206	0x3ea2b979	0.3178213
207	0x3be937f7	0.007117267
208	0x3e8ffe10	0.28123522
209	0x3eb888f3	0.36041984
210	0x3e29a1b7	0.16565596
211	0xbe0801ee	-0.13281986
212	0x3e680f36	0.22662053
213	0xbe2be84a	-0.1678783
214	0xbe94162a	-0.2892316
215	0xbe49a751	-0.19692732
216	0x3e29a8f7	0.16568361
217	0x3ebef1e3	0.3729392
218	0xbdab52ca	-0.083654
219	0x3dd5b5d4	0.104350716
220	0x3eb7d4ed	0.35904637
221	0x3cea1517	0.02857451
222	0xbcfd8cf9	-0.03095101
223	0x3d8a3028	0.06747466
224	0xbe225bab	-0.15855281
225	0x3e5056a6	0.20345554
226	0x3e5efab3	0.21775322
227	0xbe3b764e	-0.18306848
228	0xbe5eaac8	-0.21744835
229	0xbce3c106	-0.027802002
230	0xbe8a776c	-0.27044237
231	0xbe647adb	-0.2231249
232	0x3cb89d58	0.022535965
233	0x3e8d4b79	0.27596644
234	0xbe52ddd6	-0.20592436
235	0xbd1ccebc	-0.038283095
236	0x3d21fc3b	0.039547186
237	0xbe09bd29	-0.13451065
238	0xbe50ce14	-0.20391113
239	0xbe057abc	-0.130351
240	0xbe13e6ee	-0.14443561
241	0xbeb412d8	-0.35170627
242	0x3e99c698	0.30034328
243	0x3b6a4106	0.0035744323
244	0xbdf0fc46	-0.11766867
245	0xbe9505d2	-0.29106003
246	0x3dce6c82	0.1007929
247	0xbe313019	-0.17303504
248	0xbdd8b633	-0.10581627
249	0xbe65e5f7	-0.22451006
250	0xbc66a1b9	-0.014076644
251	0x3e533a7c	0.20627779
252	0x3e97a24e	0.29616016
253	0x3e7582db	0.23975699
254	0x3e7379ef	0.23776983
255	0x3e44207d	0.19153018

encoder.lnLst.1.2.bias f4 [32]
0	0xbd78bfca	-0.06072978
1	0xbdb9e89e	-0.09077571
2	0xbdc2c757	-0.09510677
3	0xbd651d61	-0.05593622
4	0x3dcd6e67	0.10030823
5	0xbd67fa40	-0.05663514
6	0xbcd01e77	-0.025405152
7	0xbde5d94e	-0.11223088
8	0x3d526b69	0.051371966
9	0xbe438733	-0.19094543
10	0x3e35e485	0.17762955
11	0x3e581859	0.21103038
12	0x3d4411ec	0.047868654
13	0xbdde411f	-0.108522646
14	0x3cfbd8c4	0.03074301
15	0xbca38966	-0.019962978
16	0xbdca1f6c	-0.098692745
17	0xbe4feb75	-0.20304663
18	0xbd3b11c6	-0.045671247
19	0x3d2eb2e6	0.04265108
20	0xbe01def9	-0.12682714
21	0xbdb34c14	-0.08754745
22	0x3d838d38	0.0642342
23	0x3e461736	0.19344792
24	0xbd90043e	-0.07032059
25	0xbcde776b	-0.027156552
26	0xbd1c5e09	-0.038175616
27	0x3e1e3a0a	0.15451828
28	0x3d8926d5	0.0669686
29	0x3dafbe77	0.0858125
30	0x3d9de09b	0.07708856
31	0xbc4c6ded	-0.01247738

atten.W_k.weight f4 [32, 32]
0	0x3cf13bc0	0.029447436
1	0xbe963b4b	-0.29342112
2	0x3e28187d	0.16415592
3	0xbde32276	-0.11090557
4	0xbe334a8d	-0.17508908
5	0x3d9b26a1	0.07575727
6	0xbeba0501	-0.36331943
7	0xbb20f800	-0.0024561882
8	0x3ca93e87	0.020659698
9	0x3e2ffd0b	0.17186372
10	0x3de6d24a	0.11270578
11	0xbd3c9358	-0.046038955
12	0xbe922beb	-0.28549132
13	0xbdeb810b	-0.11499222
14	0x3e0a683e	0.13516328
15	0xbdcd212c	-0.10016093
16	0xbe94121d	-0.2892007
17	0x3e508372	0.20362642
18	0x3d643592	0.05571515
19	0x3c936a97	0.017995162
20	0x3e940440	0.28909492
21	0x3ebbe508	0.36698174
22	0xbe27cfb0	-0.1638782
23	0xbdc34c8a	-0.09536083
24	0xbe1c2832	-0.15249708
25	0xbb27acd0	-0.0025585182
26	0x3d3df5d8	0.046377033
27	0x3ed8e5e7	0.42362902
28	0x3dfae7e3	0.1225126
29	0x3e1210b9	0.14264192
30	0xbe91ef7a	-0.2850302
31	0x3eda4809	0.42633083
32	0xbe094e01	-0.13408662
33	0x3d0b4143	0.033997785
34	0x3e4aefc8	0.19818032
35	0xbdab1725	-0.08354024
36	0x3e63234b	0.22181432
37	0x3d6aeb14	0.057353094
38	0xbe8be0f8	-0.27320075
39	0x3e3c3e95	0.18383248
40	0xbe8f5a4b	-0.27998576
41	0xbde8b82b	-0.11363252
42	0xbe89278b	-0.2678798
43	0xbbc5892d	-0.0060283155
44	0xbe65970d	-0.22420903
45	0x3d241b90	0.04006535
46	0xbe1e2b1a	-0.1544613
47	0x3e0fcc0b	0.1404268
48	0xbc46f447	-0.012143201
49	0x3e57a4d1	0.21058966
50	0xbce6b24c	-0.02816119
51	0xbea2c241	-0.3178883
52	0x3e92e766	0.28692168
53	0x3e6eafcf	0.23309253
54	0xbe902e3d	-0.28160277
55	0x3e74978c	0.23885936
56	0xbe852a3a	-0.2600878
57	0xbea454a3	-0.32095823
58	0x3e9273ea	0.2860406
59	0xbea342a1	-0.3188677
60	0xbd348ec7	-0.044081476
61	0xbce33551	-0.027735384
62	0x3e0c35df	0.13692425
63	0x3e71581c	0.23568767
64	0xbd91017a	-0.0708036
65	0xbe4943fc	-0.1965484
66	0xbd8983ef	-0.067146175
67	0xbe01862b	-0.12648837
68	0xbd8f423b	-0.06995054
69	0x3de028e8	0.10945302
70	0x3e8e36fd	0.27776328
71	0xbe66c08e	-0.22534391
72	0xbe76dbc3	-0.2410727
73	0x3ea8c999	0.32966307
74	0xbdf9a8bd	-0.121903874
75	0x3c983137	0.018578155
76	0x3e3ce94e	0.18448374
77	0x3eb1c1d6	0.34718198
78	0x3e82bb31	0.2553344
79	0xbe2afb31	-0.16697384
80	0xbe5dde33	-0.21666794
81	0x3dee37ff	0.11631774
82	0x3e541cf4	0.2071417
83	0xbe175543	-0.14778619
84	0xbc8d71e4	-0.017266221
85	0x3e9b9d53	0.30393466
86	0x3e8964c6	0.26834697
87	0x3de77ed6	0.11303489
88	0x3b058ef4	0.0020379396
89	0x3e217e61	0.15770866
90	0xbe9c5e85	-0.30540863
91	0xbe38aef8	-0.18035495
92	0x3e93f64c	0.28898847
93	0xbc57f620	-0.013181239
94	0xbe2e0670	-0.16994643
95	0x3d403d72	0.0469336
96	0x3e79016c	0.24316949
97	0xbd94dad6	-0.07268302
98	0x3e24b3d7	0.16084228
99	0x3e3ab82d	0.1823432
100	0x3c2249fa	0.009905333
101	0xbe7a23e8	-0.2442776
102	0xbe1edcfc	-0.15513986
103	0x3e1ce1f5	0.15320571
104	0x3d9b002d	0.07568393
105	0x3e49a090	0.19690156
106	0xbdca7951	-0.098864205
107	0xbe11a6ef	-0.14223836
108	0xbde2f0d4	-0.110810906
109	0x3d8ce425	0.068794526
110	0x3e42f45d	0.1903853
111	0xbde8d22b	-0.11368211
112	0x3e6a4be6	0.22880515
113	0x3e43ed1e	0.19133422
114	0xbd2bd4fa	-0.041951157
115	0xbdee95cf	-0.116496675
116	0x3c5fb389	0.013653644
117	0x3d4d4637	0.05011579
118	0xbe07bfbf	-0.13256739
119	0x3e3d9248	0.18512833
120	0x3e3d2b17	0.18473469
121	0xbd7ee7b6	-0.062232696
122	0xbd859444	-0.0652242
123	0xbe7fd30f	-0.24982856
124	0xbd4b687f	-0.049660202
125	0x3dcaddcf	0.09905588
126	0x3ca80031	0.020507904
127	0xbd52ba13	-0.051446985
128	0xbe8f8f0f	-0.28038833
129	0xbd934f1b	-0.071928225
130	0xbd928e46	-0.07156043
131	0xbe4ff39c	-0.20307773
132	0x3da62224	0.081119806
133	0x3eb1ca0d	0.34724465
134	0xbe5d207d	-0.21594425
135	0x3d7e9419	0.062152956
136	0xbec12d7b	-0.3773001
137	0x3e3bf6d7	0.1835588
138	0xbe0df7f5	-0.1386412
139	0x3e9fdb13	0.31221828
140	0x3e27422d	0.16333838
141	0xbe5a3a4b	-0.213113
142	0x3e0b5aa6	0.13608798
143	0xbd6973f1	-0.056995336
144	0x3e752776	0.23940834
145	0xbd95d62a	-0.07316239
146	0xbe7cebe6	-0.24699363
147	0xbe1208c4	-0.14261156
148	0xbd3f61e7	-0.046724226
149	0x3e7bdaad	0.24595137
150	0xbe445162	-0.1917167
151	0xbe090016	-0.13378939
152	0x3d8a1316	0.067419216
153	0x3e30c448	0.17262375
154	0xbc3b562b	-0.011434118
155	0x3d96f648	0.07371193
156	0xbe1dca02	-0.15409091
157	0x3e575b25	0.21030863
158	0x3e5515d8	0.20809114
159	0xbe2e4732	-0.17019346
160	0x3df17ac0	0.11790991
161	0x3eb03a2d	0.34419385
162	0x3c2bb9eb	0.010481338
163	0x3dcd9ce2	0.10039689
164	0xbea61b40	-0.32442665
165	0x3da8168f	0.08207428
166	0x3d929020	0.07156396
167	0xbea55c10	-0.322968
168	0xbe0731df	-0.13202618
169	0x3e434af6	0.19071564
170	0xbe821540	-0.25406837
171	0x3e29d1aa	0.16583887
172	0xbda4b71f	-0.0804274
173	0xbe83c7b2	-0.25738293
174	0xbe924874	-0.28570902
175	0x3df5dc51	0.12004913
176	0xbdbf9daa	-0.09356244
177	0x3d59be93	0.05316026
178	0xbdf067ac	-0.11738524
179	0xbdb26ba2	-0.087119356
180	0x3e60290c	0.21890658
181	0x3d54d8f3	0.05196471
182	0x3ca7ca13	0.020482099
183	0xbe96baf1	-0.294395
184	0x3daf6870	0.08564842
185	0xbe33a143	-0.17541985
186	0xbdc26e1b	-0.09493657
187	0xbdb237b5	-0.087020315
188	0x3e19fc99	0.15037765
189	0xbd181f19	-0.037139032
190	0x3d8fb205	0.070163764
191	0x3e17c10b	0.14819734
192	0x3e2a6b4c	0.16642493
193	0xbe27f648	-0.16402543
194	0xbd748c68	-0.059704214
195	0xbe2b09a4	-0.16702896
196	0x3e356759	0.17715205
197	0xbda13dfb	-0.0787315
198	0x3db6ae10	0.089199185
199	0x3de1cb3a	0.110250905
200	0xbe7941a6	-0.24341449
201	0x3c1cfa63	0.009581181
202	0x3e828c7f	0.25497815
203	0x3e8d295b	0.27570614
204	0x3e662c10	0.22477746
205	0xbe665c97	-0.22496258
206	0x3e224cf2	0.15849665
207	0x3e1c546a	0.15266576
208	0xbe3f32fb	-0.18671791
209	0xbe77d575	-0.24202521
210	0xbd150e3f	-0.03639054
211	0x3ddc7a29	0.10765488
212	0xbe6ad158	-0.22931421
213	0x3ea7268c	0.32646596
214	0xba6c2502	-0.00090082
215	0x3d0bd146	0.034135126
216	0xbe27ec0f	-0.16398643
217	0xbe588161	-0.21143104
218	0x3e607b0a	0.21921936
219	0xbe7c992b	-0.24667804
220	0x3e9cbf6f	0.30614802
221	0x3df6b9d3	0.12047162
222	0xbd9d6417	-0.07685106
223	0x3d9e28ca	0.07722624
224	0x3e7f636f	0.24940275
225	0x3dc21401	0.09476472
226	0x3d5363f0	0.05160898
227	0xbe637d5c	-0.2221579
228	0x3dfd8c9f	0.12380337
229	0xbd967dfb	-0.073482476
230	0xbe522a08	-0.20523846
231	0x3c0cdee7	0.008598066
232	0x3e8b47f9	0.27203348
233	0xbe919e50	-0.28441095
234	0xbe21e43d	-0.15809722
235	0x3dc93ff8	0.09826654
236	0xbe8e3d09	-0.2778094
237	0xbe252a99	-0.16129531
238	0xbe4f2438	-0.2022866
239	0xbcb55028	-0.022132948
240	0xbe8ba85b	-0.27276883
241	0x3d118318	0.03552541
242	0x3c18b3e7	0.009320236
243	0xbe414a13	-0.18875913
244	0xbe9af962	-0.3026839
245	0x3e265449	0.1624309
246	0x3eb0b17d	0.34510413
247	0xbe6f7e23	-0.23387961
248	0xbe6363ac	-0.2220599
249	0xbe70adca	-0.23503795
250	0x39c11ad1	0.00036831808
251	0xbe2f813c	-0.17139143
252	0xbda5fbe4	-0.08104685
253	0x393088a2	0.00016835568
254	0xbdf705c6	-0.12061648
255	0x3bf6e0ae	0.007534108
