app/vegetation/attention/andy/src/model_ep1.pth (torch, 55490 bytes, 27 tensors)

encoder.lnXc.0.weight f4 [32, 15]
0	0xbe5ea8d2	-0.21744087
1	0x3e938525	0.2881252
2	0xbc6943f8	-0.014237396
3	0x3e8eebd8	0.2791431
4	0x3e436c6d	0.1908433
5	0x3d8fd374	0.07022753
6	0xbd826281	-0.063664444
7	0x3da63eb9	0.08117432
8	0xbe151c0f	-0.14561485
9	0x3ca172ca	0.019708056
10	0xbe63c329	-0.22242416
11	0x3cf0bf63	0.029388135
12	0x3ea939c1	0.33051875
13	0xbc053409	-0.008130082
14	0x3e4d9cb1	0.20079304
15	0xbe857cd9	-0.26071814
16	0xbeb3729a	-0.35048372
17	0x3d5aba61	0.0534004
18	0xbe964348	-0.29348207
19	0xbd6f14ec	-0.058369562
20	0x3ea18d16	0.31552953
21	0xbe92af59	-0.28649405
22	0xbe1fe772	-0.15615633
23	0x3e2ffd1f	0.17186402
24	0xbe461780	-0.19344902
25	0xbe94fa97	-0.29097435
26	0x3e1d8295	0.15381844
27	0x3ead9a48	0.3390677
28	0xbccc05cd	-0.02490511
29	0xbe071e39	-0.13195123
30	0x3e815431	0.25259545
31	0x3c700552	0.014649706
32	0x3e42f19b	0.19037478
33	0x3dfa96f2	0.12235822
34	0x3e86a8d1	0.26300672
35	0xbeaf64af	-0.34256503
36	0x3cf5b340	0.0299927
37	0xbe9441f2	-0.28956562
38	0x3e9e3a81	0.3090401
39	0x3d71485e	0.058906905
40	0x3ceba83e	0.028766748
41	0xbd02d5fa	-0.031942345
42	0xbe8780b0	-0.26465368
43	0xbe97b980	-0.29633713
44	0x3dd7c9e2	0.10536553
45	0xbdf9977f	-0.12187099
46	0xbea0ac34	-0.3138138
47	0xbea5fb5d	-0.32418337
48	0xbea7b01e	-0.32751554
49	0xbd3478ac	-0.044060394
50	0xbc7b1804	-0.01532555
51	0x3e10628a	0.1410009
52	0x3dc9f012	0.09860243
53	0xbdeb2524	-0.114816934
54	0xbe45ea25	-0.193276
55	0xbeb23ead	-0.34813443
56	0x3d8ea0a0	0.069642305
57	0x3dc7911d	0.09744475
58	0xbd600ab4	-0.054697707
59	0xbea20fc7	-0.31652662
60	0xbe87e45f	-0.2654142
61	0x3e4e00cf	0.20117496
62	0x3df14589	0.11780841
63	0x3ec63241	0.38710216
64	0xbd4b0ef4	-0.049574807
65	0x3ebf55a1	0.37370017
66	0xbe4da49f	-0.20082329
67	0xbe47b427	-0.19502316
68	0x3dfd0e9e	0.12356304
69	0x3ea55e0f	0.32298324
70	0xbe4826cf	-0.19546054
71	0x3eaf40b1	0.34229043
72	0x3c1020f1	0.008796916
73	0xbe9f6ccd	-0.31137696
74	0x3ea14609	0.31498745
75	0x3d7f6164	0.06234874
76	0x3d65c93b	0.05610011
77	0xbe8f51fd	-0.2799224
78	0x3e90e7ab	0.2830175
79	0x3e3b2794	0.18276817
80	0x3bb9a4bf	0.005665391
81	0xbb6cfd5f	-0.0036161763
82	0x3e974dce	0.29551548
83	0x3e513cef	0.204334
84	0xbe9f58e1	-0.31122497
85	0x3e80c134	0.25147402
86	0x3e25d730	0.16195369
87	0xbeae5861	-0.34051803
88	0xbe45f240	-0.19330692
89	0xbd698c76	-0.05701872
90	0x3ec1ffce	0.37890476
91	0x3e59be18	0.21263921
92	0x3e5551b9	0.20831956
93	0x3e329de4	0.17443043
94	0x3ebd52a7	0.3697712
95	0x3d04786a	0.0323414
96	0xbe1d841d	-0.15382428
97	0xbe9c48b0	-0.30524206
98	0x3d4a484c	0.049385354
99	0xbe939556	-0.28824872
100	0x3d84fefb	0.06493946
101	0xbe595ecd	-0.2122757
102	0x3e5da945	0.21646602
103	0xbde3b11e	-0.11117767
104	0x3dac8c8f	0.08425247
105	0x3d35805b	0.044311862
106	0x3e656372	0.22401217
107	0x3e00fd86	0.12596712
108	0x3b750634	0.003738773
109	0xbe9b7e47	-0.3036978
110	0x3d35e426	0.044407032
111	0x3db0400f	0.08605968
112	0xbe8bbf30	-0.27294302
113	0xbe6903f4	-0.22755414
114	0xbdbbfab8	-0.0917868
115	0x3d2e6553	0.0425771
116	0xbe577cc7	-0.21043693
117	0xbe99bbb4	-0.3002602
118	0xbdd22bd7	-0.10262268
119	0xbeaccf8a	-0.3375209
120	0xbe7fbf0b	-0.24975221
121	0xbe8021e6	-0.25025862
122	0xbe53e627	-0.20693265
123	0x3de8bb56	0.113638565
124	0x3ea16da0	0.3152895
125	0xbe629288	-0.2212621
126	0x3e81bceb	0.25339445
127	0x3e60603e	0.21911713
128	0xbe939515	-0.28824678
129	0x3c97dce4	0.018537946
130	0xbe1dcc8e	-0.15410063
131	0x3ccb400a	0.02481081
132	0xbe75aed4	-0.23992473
133	0x3e7bc85a	0.24588147
134	0x3e8a022b	0.2695478
135	0xbdfd1cc2	-0.12359001
136	0xbde7bff3	-0.11315908
137	0xbde2d4c0	-0.11075735
138	0x3d4b6bdc	0.04966341
139	0xbe95c832	-0.292543
140	0x3ddd141d	0.10794852
141	0x3cf3dc83	0.029768234
142	0x3dacd5fb	0.08439251
143	0x3b95770f	0.004561312
144	0xbe44f26b	-0.192331
145	0x3e8a4d27	0.27011988
146	0xbe7d05d1	-0.2470925
147	0xbe901073	-0.2813755
148	0xbe3d8e79	-0.1851138
149	0x3c8701a9	0.016480284
150	0x3e8c94cf	0.27457282
151	0x3e8a9e0e	0.2707371
152	0x3e356413	0.17713957
153	0x3e876679	0.26445368
154	0xbd16ca56	-0.036814056
155	0x3ea9a53f	0.33133885
156	0x3d9df414	0.0771257
157	0x3e910bab	0.28329214
158	0xbe9c0f8c	-0.3048061
159	0x3c1318ba	0.008978063
160	0x3d30b984	0.04314567
161	0xbe590ac2	-0.2119551
162	0xbea091ae	-0.31361145
163	0xbeb0b00c	-0.34509313
164	0xbd13e485	-0.036106605
165	0x3bf78caf	0.0075546126
166	0xbe8723df	-0.26394555
167	0x3e98ca70	0.29841948
168	0xbdbaca71	-0.09120644
169	0x3e15699c	0.14591068
170	0x3e0bebb1	0.13664128
171	0x3e96ccec	0.29453218
172	0xbea4abb0	-0.32162237
173	0x3e224f0d	0.15850468
174	0x3dc94ddb	0.09829303
175	0x3def3a68	0.11681062
176	0x3d9f4ef8	0.07778734
177	0x3e80645e	0.25076574
178	0xbc8c4d6b	-0.01712676
179	0xbe13adf4	-0.14421827
180	0xbe210f61	-0.15728523
181	0xbe89ff6b	-0.2695268
182	0x3ce7f4c2	0.028314952
183	0xbeab8788	-0.3350184
184	0x3e40d2d0	0.18830419
185	0xbd5c9989	-0.05385736
186	0x3cd675a7	0.026179148
187	0x3d133cae	0.03594654
188	0x3e760b22	0.24027684
189	0xbe967447	-0.29385588
190	0xbda7f2ef	-0.08200633
191	0xbe2e5a84	-0.17026716
192	0x3ea1e3fc	0.3161925
193	0xbd64bd50	-0.055844605
194	0x3eb02285	0.34401336
195	0x3e467578	0.19380748
196	0xbe79cd32	-0.24394682
197	0x3e0952b1	0.1341045
198	0xbc745e3e	-0.014915047
199	0x3e5aa005	0.21350105
200	0x3e02724e	0.12738916
201	0x3b020c04	0.0019843588
202	0x3d58d191	0.052934233
203	0x3e95688f	0.29181334
204	0xbd3b7cc0	-0.045773268
205	0x3e931342	0.2872563
206	0x3db9a654	0.09064928
207	0xbe1adf15	-0.15124162
208	0xbe9daa1c	-0.30793846
209	0xbe1f4da7	-0.15556966
210	0x3e063fac	0.13110226
211	0xbe325e18	-0.17418706
212	0xbca7f0c2	-0.020500544
213	0x3e67d618	0.22640264
214	0x3ecebf20	0.40380192
215	0x3cd43bc4	0.025907405
216	0x3d61c750	0.05512172
217	0x3dc3ed33	0.095667265
218	0xbde815ba	-0.11332269
219	0x3dade23e	0.08490418
220	0x3e325ebe	0.17418954
221	0x3d3b9550	0.045796692
222	0xbe477e50	-0.19481778
223	0xbe43e48c	-0.19130152
224	0xbdfb3500	-0.12265968
225	0xbe905e6f	-0.28197047
226	0xbeb75592	-0.35807472
227	0x3d3301d1	0.043702904
228	0xbbaf3501	-0.0053468947
229	0xbea980ce	-0.33106083
230	0xbeb2784c	-0.34857404
231	0xbd1cec88	-0.03831151
232	0xbdfd9a35	-0.12382928
233	0x3d75dc79	0.060024712
234	0x3e943871	0.2894931
235	0x3dae953a	0.085245565
236	0xbd50995f	-0.050927516
237	0x3e2f6986	0.17130098
238	0x3ea0981d	0.31366053
239	0xbe52d268	-0.20588076
240	0xbebfd315	-0.3746573
241	0x3e7ab607	0.244835
242	0x3e1aa4b7	0.15101896
243	0xbe38330e	-0.17988226
244	0xbe50d181	-0.2039242
245	0x3e86d93d	0.26337615
246	0xbeb45d9d	-0.3522767
247	0xbe015fbe	-0.12634179
248	0xbeae5abb	-0.34053597
249	0xbea37a9c	-0.3192948
250	0xbda55339	-0.08072514
251	0x3e72fdac	0.2372958
252	0x3e3899c9	0.18027414
253	0xbe0100fe	-0.12598035
254	0xbea75163	-0.3267928
255	0x3e30df4a	0.17272678

encoder.lnXc.0.bias f4 [32]
0	0x3c534448	0.0128946975
1	0x3e1da527	0.15395032
2	0x3e2fce77	0.17168604
3	0xbe68f650	-0.22750211
4	0x3e6bca04	0.23026282
5	0x3e1167f8	0.14199817
6	0x3def92ed	0.11697946
7	0x3e489790	0.19589067
8	0x3e90c1da	0.28272897
9	0xbcfba6a3	-0.030719107
10	0x3e44213a	0.191533
11	0xbdaa2c14	-0.083091885
12	0x3e289c10	0.16465783
13	0xbe08ad00	-0.13347244
14	0x3e5692b6	0.20954403
15	0x3d4b16ac	0.04958217
16	0xbe36fc20	-0.17869616
17	0xbe8180d9	-0.25293615
18	0x3e794dbb	0.24346058
19	0xbe6852c1	-0.22687818
20	0xbdbe92a3	-0.093053125
21	0x3e1176ce	0.14205477
22	0xbe749047	-0.23883162
23	0xbd06bb35	-0.03289338
24	0xbe9bd4cf	-0.30435798
25	0xbe5c13a6	-0.2149187
26	0xbe426165	-0.18982466
27	0xbdbf8593	-0.09351649
28	0x3e16c4c4	0.14723498
29	0xbd69fd82	-0.05712653
30	0x3e34affa	0.17645255
31	0x3c690aed	0.014223796

encoder.lnXc.2.weight f4 [32, 32]
0	0x3dcda5dd	0.100414015
1	0x3e2c568d	0.16829892
2	0xbda5c143	-0.08093502
3	0xbe7570e1	-0.23968841
4	0x3e9115d4	0.28336966
5	0x3e743060	0.23846579
6	0x3dd29927	0.10283118
7	0x3e5cd6dd	0.21566339
8	0x3d9baf4f	0.07601797
9	0xbd3bd55d	-0.045857776
10	0x3e8d2508	0.27567315
11	0x3d2f9dc6	0.042875074
12	0x3dd9018f	0.105960004
13	0x3eafd29e	0.34340376
14	0x3e9eebb2	0.31039196
15	0xbe4cf60d	-0.20015736
16	0x3e3e5869	0.18588413
17	0xbe2bc8c1	-0.167758
18	0x3c27bb08	0.010237463
19	0x3ec5bc17	0.38620064
20	0x3eb11615	0.3458716
21	0x3e000cd9	0.12504901
22	0xbe94c302	-0.2905503
23	0x3e7bcbfb	0.24589531
24	0xb9dca20c	-0.00042082404
25	0xbd143850	-0.036186516
26	0x3e8811ef	0.26576182
27	0x3e3cb0f7	0.18426882
28	0xbd5cba23	-0.05388845
29	0xbe2a6e04	-0.1664353
30	0x3e22c477	0.15895258
31	0x3e8293e4	0.25503457
32	0x3ce6ce28	0.028174475
33	0xbde4d471	-0.111733325
34	0xbe12899f	-0.14310311
35	0xbdb544a1	-0.088509806
36	0xbe8023ca	-0.25027305
37	0xbeaa921f	-0.33314607
38	0xbe955480	-0.2916603
39	0x3e49b164	0.19696575
40	0xbe812634	-0.2522446
41	0x3e6ee2c6	0.23328695
42	0xbe3e9dae	-0.18614838
43	0x3e0e4453	0.13893251
44	0xbe0b7541	-0.13618948
45	0xbea1f520	-0.31632328
46	0xbe38fa94	-0.18064338
47	0xbe7b5d2a	-0.24547258
48	0xbd8bd590	-0.06827843
49	0x3c878038	0.016540632
50	0xbe83a57c	-0.25712192
51	0xbe24faeb	-0.16111343
52	0xbe168f7c	-0.14703172
53	0x3ce8db85	0.028424988
54	0xbdc97e47	-0.098385386
55	0x3dc6af6f	0.0970143
56	0xbe4e26b0	-0.20131946
57	0xbe8a7a46	-0.27046412
58	0xbd0f3fe1	-0.03497303
59	0x3e47b391	0.19502093
60	0xbd2358da	-0.039879657
61	0xbe9a2a2e	-0.30110306
62	0x3e82d550	0.2555337
63	0x3e86dd14	0.26340544
64	0xbe081523	-0.13289313
65	0xbe57adfb	-0.21062462
66	0xbe7ed6db	-0.24886648
67	0xbe717376	-0.23579201
68	0x3ba3f72e	0.0050038313
69	0xbe17d693	-0.14827947
70	0x3e0b54df	0.13606595
71	0x3bc12ec0	0.0058954656
72	0xbe963bb0	-0.29342413
73	0xbe9545b2	-0.29154736
74	0x3e10b3f8	0.14131153
75	0x3e0ed17a	0.13947096
76	0xbea1d138	-0.31604934
77	0x3de706af	0.11280572
78	0xbe962fdc	-0.2933339
79	0xbe714e62	-0.23565057
80	0xbdff33d1	-0.12461055
81	0xbd944d3c	-0.07241294
82	0x3d862f19	0.06551952
83	0xbeb1ee1c	-0.34751976
84	0xbe95b187	-0.29237005
85	0x3e514718	0.20437276
86	0xbe639d2a	-0.22227922
87	0xbc8eaac4	-0.017415412
88	0x3dcdc7ce	0.10047875
89	0x3e36c91b	0.17850153
90	0x3d35cafc	0.044383034
91	0xbe83e64d	-0.25761643
92	0xbe37ada5	-0.17937334
93	0xbe65f26c	-0.22455758
94	0xbd8bbf12	-0.06823553
95	0xbe553c0c	-0.20823687
96	0xbdbc4917	-0.09193628
97	0x3e2cb970	0.16867614
98	0x3e94fb04	0.2909776
99	0xbe899007	-0.26867697
100	0xbe136e04	-0.14397436
101	0x3e219f46	0.15783414
102	0x3eca01b5	0.39454427
103	0xbe29a34a	-0.16566196
104	0x3e5b8b73	0.21439914
105	0xbdc5ddc1	-0.09661437
106	0x3e939aa0	0.28828907
107	0x3e80f71d	0.25188532
108	0x3eb2d2c6	0.34926432
109	0x3eab92c1	0.33510402
110	0xbddb3137	-0.10702746
111	0x3eae4b2d	0.3404173
112	0xbe4ee541	-0.20204641
113	0xbdd3343d	-0.10312698
114	0x3e8c61fc	0.27418506
115	0x3e2169f4	0.15763074
116	0xbe3f9e38	-0.187127
117	0x3bf564d4	0.0074888263
118	0x3e3914b4	0.18074304
119	0x3def78e0	0.11692977
120	0xbb224b4b	-0.0024764116
121	0xbe3ef689	-0.18648733
122	0xbd3888ce	-0.045052342
123	0x3d305868	0.04305306
124	0xbdf20333	-0.118170165
125	0x3e9c1c0b	0.30490145
126	0x3e0649c1	0.13114072
127	0xbe5fadbc	-0.21843618
128	0x3e114a23	0.14188437
129	0x3e22f052	0.15911987
130	0xbde84583	-0.11341383
131	0x3e2cd365	0.16877516
132	0xbdcfae37	-0.10140651
133	0x3e29f844	0.16598612
134	0x3d009b96	0.03139838
135	0x3e59b5fb	0.21260826
136	0xbe08eee7	-0.13372384
137	0xbe0864bf	-0.13319682
138	0x3e450c23	0.19242911
139	0xbe53d3e3	-0.20686297
140	0xbd903c71	-0.07042778
141	0xbdb99991	-0.090624936
142	0x3e80cfc4	0.25158513
143	0xbd9ca4ea	-0.07648642
144	0x3e86557e	0.262371
145	0x3db18209	0.0866738
146	0x3e59676d	0.2123086
147	0x3d5427b1	0.051795665
148	0xbd8aee9a	-0.06783791
149	0xbd2afce4	-0.04174508
150	0xbe37ebaf	-0.17961
151	0x3e4778a4	0.19479614
152	0xbe6bd5d2	-0.23030785
153	0x3d33b33a	0.043872096
154	0xbd3ccac5	-0.046091814
155	0x3e1c5ccd	0.15269776
156	0x3e8efc42	0.27926832
157	0xbd4738d5	-0.048638184
158	0x3e33a298	0.17542493
159	0x3e31bb34	0.17356569
160	0x3d826e8b	0.06368741
161	0x3dc63147	0.09677368
162	0xbe512f07	-0.20428096
163	0x3e2a1b98	0.16612089
164	0xbe5a4386	-0.2131482
165	0x3e057c24	0.13035637
166	0xbcda49ad	-0.02664646
167	0x3db887eb	0.09010299
168	0xbe242f0d	-0.16033573
169	0x3d934f6d	0.07192884
170	0x3d1c8f3c	0.038222536
171	0xbde67bd8	-0.1125409
172	0xbcca5439	-0.024698364
173	0x3eb04afa	0.34432203
174	0x3dd18bbd	0.10231731
175	0x3dd05560	0.10172534
176	0x3e6b9af3	0.23008327
177	0x3dec7032	0.11544837
178	0xbd897271	-0.06711281
179	0x3e21a12e	0.15784141
180	0xbe29774c	-0.16549414
181	0x3e80ba5a	0.25142175
182	0xbe9302e7	-0.28713152
183	0x3ebc4612	0.3677221
184	0xbe16292b	-0.14664142
185	0x3dd177e2	0.10227944
186	0x3cdecb41	0.027196528
187	0x3dab8c62	0.08376385
188	0xbe079645	-0.13240917
189	0x3e506a9e	0.20353171
190	0xbdc162b6	-0.09442656
191	0x3e06cd40	0.13164234
192	0x3c1c0532	0.009522723
193	0x3e7ee393	0.248915
194	0x3e2435f4	0.16036206
195	0xbe4b345c	-0.19844192
196	0x3c34b851	0.011030273
197	0x3ec5a235	0.38600317
198	0x3e6e2de9	0.23259701
199	0x3eb78cb2	0.3584953
200	0x3d7b38a8	0.06133333
201	0xbe591908	-0.21200955
202	0xbe43ea91	-0.19132449
203	0x3d821289	0.063511916
204	0xbdc2992f	-0.09501874
205	0x3e14733a	0.1449708
206	0x3cce657b	0.025194874
207	0x3e96b876	0.29437608
208	0x3e8688d0	0.26276255
209	0xbe36632c	-0.17811269
210	0x3e3b39d8	0.18283784
211	0xbb3f0bbc	-0.0029151281
212	0xbe01bcfa	-0.12669745
213	0x3eb915a1	0.36149314
214	0x3ddb8c41	0.10720111
215	0x3da3de59	0.08001394
216	0x3db43df0	0.08800876
217	0xbd361ba3	-0.04445995
218	0xbd9ea670	-0.07746589
219	0x3ea8cc40	0.3296833
220	0xbe15c582	-0.14626125
221	0x3e050fe4	0.12994343
222	0x3de34157	0.11096447
223	0x3df7d632	0.121014014
224	0x3d07d6ac	0.03316371
225	0xbe4d9567	-0.20076524
226	0x3e62b25b	0.2213835
227	0xbe916060	-0.2839384
228	0xbe85f67c	-0.26164615
229	0xbd8b70dc	-0.068086356
230	0xbdf28620	-0.118419886
231	0xbe26a391	-0.16273333
232	0x3e2c88cd	0.1684906
233	0xbcc47afa	-0.023984421
234	0x3e7a6265	0.24451597
235	0x3e6652b9	0.22492494
236	0x3e59bc5d	0.21263261
237	0xbab8fc35	-0.001411325
238	0xbe361399	-0.17780913
239	0xbdf167bb	-0.11787363
240	0xbda4fdef	-0.080562465
241	0x3e1e8c13	0.15483122
242	0xbe29ad72	-0.1657007
243	0x3e899480	0.2687111
244	0xbe2ad0d1	-0.1668122
245	0xbe84416d	-0.25831166
246	0xbdaf9395	-0.08573071
247	0xbdab99f0	-0.083789706
248	0xbe55c107	-0.20874415
249	0xbdf2975e	-0.11845277
250	0xbe0148a2	-0.12625363
251	0xbbac5305	-0.00525892
252	0xbe245737	-0.16048895
253	0xbdd737cc	-0.10508689
254	0xbd466854	-0.04843934
255	0xbe8ed144	-0.27894032

encoder.lnXc.2.bias f4 [32]
0	0x3e4f8435	0.20265277
1	0xbd9578a0	-0.07298398
2	0xbe1fa77f	-0.15591238
3	0x3e00e6c9	0.12588038
4	0x3d51de8b	0.051237624
5	0xbd96f0ca	-0.073701456
6	0x3e65a8c6	0.22427663
7	0x3df6fbfd	0.12059782
8	0x3d644c7d	0.055737007
9	0x3dcdd358	0.10050076
10	0x3e1f1f7c	0.15539354
11	0x3d04ccb9	0.0324218
12	0x3dd3c35a	0.10339995
13	0xbd952b59	-0.072836585
14	0x3ddae974	0.10689059
15	0xbe3a5578	-0.18196666
16	0xbcc57f32	-0.024108503
17	0xbabe0281	-0.0014496596
18	0x3e09b1a1	0.13446666
19	0xbe11a1ea	-0.14221922
20	0x3ea07152	0.31336457
21	0xbe7775b4	-0.24165994
22	0xbe4e4624	-0.20143944
23	0x3db86480	0.09003544
24	0x3d6c2b3a	0.05765841
25	0xbde8b766	-0.113631055
26	0xbd8acb54	-0.06777063
27	0xbe3e42fd	-0.18580242
28	0xbd8f3c82	-0.06993963
29	0xbdb3f6d6	-0.087873146
30	0x3d051145	0.032487173
31	0x3dc616fd	0.096723534

encoder.lnLst.0.0.weight f4 [32, 3]
0	0xbe007061	-0.12542869
1	0xbe069ffd	-0.13146968
2	0xbe327976	-0.17429146
3	0xbe694411	-0.22779872
4	0x3dfea6c4	0.12434152
5	0xbee11b67	-0.4396622
6	0xbe6a5edb	-0.22887747
7	0xbe1ec56d	-0.15505
8	0xbe56b06c	-0.20965737
9	0x3e8e0b15	0.2774283
10	0x3e9aeb5c	0.3025769
11	0xbd629338	-0.05531618
12	0x3e97e619	0.29667738
13	0xbe570b6f	-0.21000455
14	0x3e58f20c	0.21186084
15	0xbe38aa32	-0.18033674
16	0xbde234bc	-0.110452145
17	0x3e102fc0	0.14080715
18	0x3ea4731a	0.32119066
19	0xbe62089d	-0.22073598
20	0x3ec4286a	0.38312083
21	0x3e33ca9f	0.17557763
22	0x3eaf757b	0.34269318
23	0x3e06ff40	0.13183308
24	0xbef0da14	-0.4704138
25	0xbebac401	-0.36477664
26	0xbd91b4ec	-0.07114586
27	0x3e9edd78	0.31028342
28	0x3e0ceca3	0.13762145
29	0x3e84c209	0.25929287
30	0xbea01727	-0.31267664
31	0x3e80acbd	0.2513179
32	0xbdbc7024	-0.092010766
33	0xbe0d7bf8	-0.13816822
34	0xbed319a3	-0.41230497
35	0x3ec1ebcc	0.3787521
36	0x3e8487f7	0.25884983
37	0x3e6e7428	0.23286498
38	0xbe206771	-0.1566446
39	0xbce07d57	-0.027403517
40	0x3eab7350	0.33486414
41	0x3e795e97	0.2435249
42	0x3ec0a47c	0.37625492
43	0xbe24401a	-0.16040078
44	0xbe9ff654	-0.3124262
45	0xbe6d128c	-0.23151606
46	0x3ea85b4f	0.32882163
47	0xbe6487da	-0.22317448
48	0x3e9d806f	0.3076205
49	0x3ec0e54a	0.37674934
50	0xbe85a35a	-0.2610119
51	0xbe627abd	-0.22117133
52	0xbeca1336	-0.39467782
53	0x3cb4367f	0.021998642
54	0x3ea092e4	0.3136207
55	0xbe5d1e16	-0.21593508
56	0xbc3ffde8	-0.011718251
57	0xbe925ad0	-0.2858491
58	0x3e0fef02	0.14056018
59	0xbe4c47c5	-0.19949253
60	0x3e905ed8	0.2819736
61	0x3dbd9c05	0.09258274
62	0x3d070daf	0.032972034
63	0x3eeae6d6	0.4587924
64	0x3ead910d	0.33899727
65	0x3cc6dce4	0.02427525
66	0xbe8938f1	-0.26801255
67	0x3e0101b5	0.12598307
68	0x3e0aef78	0.13567913
69	0xbe857a41	-0.26069835
70	0x3ea23573	0.31681404
71	0xbe72550e	-0.23665258
72	0x3e7f6b55	0.24943288
73	0x3e1f8812	0.1557925
74	0xbe6cb4aa	-0.23115793
75	0xbd9703f1	-0.07373799
76	0x3e8cc4e9	0.2749398
77	0xbe9796a4	-0.29607117
78	0x3c1a1449	0.00940425
79	0xbea4a0dc	-0.32153976
80	0xbe40bb7d	-0.18821521
81	0x3ea216c7	0.31658003
82	0xbeaca4d6	-0.3371951
83	0xbe2b0a59	-0.16703166
84	0x3ed18284	0.40919888
85	0x3e485272	0.195627
86	0x3e57ede9	0.2108685
87	0xbe9c66bb	-0.30547127
88	0x3dc1b33e	0.09458016
89	0xbecd966b	-0.40153822
90	0xbd2d5eb0	-0.04232663
91	0x3ec769b6	0.3894784
92	0xbe949029	-0.29016235
93	0xbe055a88	-0.13022816
94	0xbed83fee	-0.42236274
95	0xbdfb77a9	-0.12278683

encoder.lnLst.0.0.bias f4 [32]
0	0xbd93d415	-0.07218186
1	0x3d3a0b12	0.045420714
2	0xbebebf13	-0.37255153
3	0xbe0b6c1e	-0.13615462
4	0xbedafa28	-0.4276898
5	0xbef2c750	-0.47417688
6	0xbee5c0cd	-0.44873658
7	0x3e29badc	0.16575187
8	0x3ec6d984	0.38837826
9	0x3ee4da21	0.4469767
10	0x3d0a4b62	0.033763297
11	0xbe26d778	-0.16293132
12	0xbdc8d539	-0.09806294
13	0xbe657510	-0.22407937
14	0xbe3f1b2a	-0.18662706
15	0xbe1a613b	-0.15076153
16	0xbef94573	-0.48685798
17	0x3e44fb2c	0.1923644
18	0x3ed12b37	0.40853283
19	0x3ce44648	0.027865544
20	0xbde75bc4	-0.112968
21	0x3df2030a	0.11816986
22	0xbdc96c29	-0.09835083
23	0xbf030604	-0.51181054
24	0x3e8cd2d9	0.27504614
25	0xbe824f48	-0.25451112
26	0xbdd04dbb	-0.10171076
27	0x3de71dbd	0.11284969
28	0xbe28822f	-0.16455911
29	0xbe28c57c	-0.16481584
30	0xbe9d3ea5	-0.30711856
31	0x3db7e169	0.089785405

encoder.lnLst.0.2.weight f4 [32, 32]
0	0xbe2ae949	-0.16690554
1	0x3e0a9c61	0.13536216
2	0x3d285c13	0.041103434
3	0xbe52882b	-0.20559756
4	0x3db68238	0.08911556
5	0xbd14afc5	-0.03630044
6	0x3db43967	0.08800011
7	0x3be371d9	0.006941062
8	0x3dad92da	0.08475275
9	0x3e83f0d2	0.2576967
10	0xbd69f08c	-0.05711417
11	0xbe0335c5	-0.1281348
12	0xbdbac0c4	-0.091187984
13	0x3d80a147	0.06280761
14	0x3e90066b	0.28129897
15	0x3e9219e7	0.28535387
16	0xbe0251e4	-0.12726551
17	0xbd24bc9c	-0.040218934
18	0xbe6bb663	-0.23018794
19	0xbdafe4f6	-0.08588593
20	0x3dae25e0	0.08503318
21	0xbe69548c	-0.22786158
22	0xbe83668f	-0.25664183
23	0xbdffad90	-0.12484276
24	0xbda0f603	-0.07859423
25	0x3e4a9316	0.19782671
26	0xbc2c20f2	-0.010505902
27	0x3e8cdccb	0.27512202
28	0x3d8a8abd	0.067647435
29	0xbd6b1c23	-0.05739988
30	0x3e860a64	0.26179802
31	0xbe04b21b	-0.12958567
32	0x3e2d0ad0	0.16898656
33	0x3eb17217	0.34657356
34	0xbd9a5efa	-0.075376466
35	0x3bdd059e	0.0067450544
36	0xbe379501	-0.17927934
37	0x3e93c0f7	0.28858158
38	0x3e9c8922	0.30573374
39	0xbe5ee362	-0.21766427
40	0xbead7812	-0.3388067
41	0xbe5eb019	-0.21746863
42	0x3e8ca7c2	0.2747174
43	0xbe060ec7	-0.13091575
44	0xbdbb6fcb	-0.09152182
45	0xbd4693ca	-0.048480786
46	0x3e16b27b	0.14716522
47	0xbe959a09	-0.29219082
48	0xbc60f1fa	-0.013729567
49	0xbe0ff712	-0.14059094
50	0xbe27c717	-0.1638454
51	0xbd75a54a	-0.059972085
52	0x3c8960ad	0.016769731
53	0xbe5f875f	-0.21828984
54	0xbe19121e	-0.14948317
55	0xbe93607f	-0.28784558
56	0xbda6b443	-0.08139851
57	0x3dd11a59	0.102101035
58	0xbe9ac35c	-0.30227172
59	0x3de3a168	0.1111477
60	0x3db4086a	0.08790667
61	0x3e5954d2	0.21223763
62	0xbda192a4	-0.078892976
63	0xbdd867b6	-0.10566656
64	0x3e88a6d8	0.26689792
65	0xbd822a50	-0.06355727
66	0x3e38598c	0.1800291
67	0x3db26290	0.087102056
68	0x3e56474f	0.2092564
69	0x3df3f6e9	0.11912329
70	0x3e0c6d47	0.13713561
71	0x3ceef5f2	0.02917001
72	0xbe484540	-0.19557667
73	0x3d78fc64	0.060787573
74	0xbe129870	-0.14315963
75	0xbcd17e0d	-0.025572801
76	0x3dcc3043	0.09970143
77	0xbd220b8f	-0.039561804
78	0xbd8927bc	-0.06697032
79	0xbcc7f3d5	-0.02440826
80	0x3e692cac	0.22770947
81	0xbdb0ca1b	-0.086322986
82	0xbe1aa731	-0.15102841
83	0x3e1e17c6	0.15438756
84	0xbca8064b	-0.020510813
85	0xbc773fc3	-0.015090886
86	0xbd132a26	-0.035928868
87	0x3e1b4604	0.15163428
88	0x3e0744b1	0.13209797
89	0x3e7fa4e8	0.2496525
90	0x3e94310a	0.28943664
91	0xbd0dc89f	-0.034615155
92	0x3d5dcd7c	0.054151043
93	0xbe904f15	-0.28185335
94	0xbdef6beb	-0.116905056
95	0x3e5ed549	0.2176105
96	0x3df1a90b	0.117998205
97	0x3d097d73	0.033566903
98	0x3da0810b	0.07837113
99	0xbeae3878	-0.34027457
100	0xbe91acf9	-0.2845228
101	0x3b675caa	0.0035303035
102	0xbdcf1ca0	-0.10112882
103	0xbeaad3fe	-0.33364862
104	0xbea01a0e	-0.31269878
105	0xbe42a31b	-0.19007532
106	0x3bc29380	0.0059379935
107	0x3e76ff29	0.24120773
108	0xbe3225ca	-0.17397228
109	0x3e7d6d14	0.24748641
110	0xbe96e24e	-0.29469532
111	0xbe7bccfa	-0.24589911
112	0xbe941e7b	-0.28929505
113	0xbd8e3c0f	-0.06945049
114	0xbea5dfa6	-0.32397193
115	0xbe946ac4	-0.28987706
116	0xbe2896fd	-0.16463847
117	0xbeabcb73	-0.33553657
118	0x3e783382	0.24238399
119	0xbde56ba1	-0.11202169
120	0x3dba2825	0.09089688
121	0x3d83f1a9	0.064425774
122	0x3e9aa534	0.30204165
123	0xbe36b13b	-0.17841046
124	0xbe29a8ff	-0.16568373
125	0x3e1077b3	0.14108162
126	0xbe764c60	-0.24052572
127	0x3dc62dc6	0.09676699
128	0x3c5f0ed0	0.013614371
129	0x3d861e66	0.06548767
130	0xbe89d017	-0.26916572
131	0x3e976f18	0.29576945
132	0x3df3cf9a	0.11904831
133	0x3e307afc	0.17234415
134	0x3e955f61	0.2917433
135	0xbe60272f	-0.21889947
136	0x3e484fbf	0.1956167
137	0x3e398130	0.18115687
138	0xbd7f5407	-0.062335994
139	0x3e10e5c6	0.14150152
140	0xbdd51af9	-0.10405535
141	0x3d9e3d22	0.07726504
142	0x3e12d558	0.14339197
143	0x3e42a6b8	0.1900891
144	0xbe4517e5	-0.19247396
145	0x3e1bcc7b	0.15214722
146	0xbe3477fc	-0.17623895
147	0x3e6fac17	0.23405491
148	0xbcd7bb13	-0.026334321
149	0x3e37d447	0.17952071
150	0xbe8315e7	-0.25602648
151	0xbe8671d8	-0.2625873
152	0xbd217bc1	-0.03942466
153	0x3e88d9ce	0.26728672
154	0xbe139201	-0.14411165
155	0x3e4f81f9	0.20264424
156	0xbdaef7a9	-0.08543331
157	0xbda7f2e1	-0.08200622
158	0x3df37c70	0.11888969
159	0xbe159e01	-0.14611055
160	0x3e31f1e9	0.17377438
161	0x3dc08023	0.0939944
162	0xbd952ddd	-0.07284138
163	0xbe80669f	-0.25078294
164	0x3e9a6dbf	0.30161855
165	0x3d963389	0.07334048
166	0xbd8c46e1	-0.068494566
167	0x3cb69a30	0.02229032
168	0x3d8fb9be	0.070178494
169	0xbe7e2860	-0.2482009
170	0xbda8ad8f	-0.08236229
171	0xbe4f2b6b	-0.20231406
172	0x3df1d034	0.1180729
173	0xbe3c6774	-0.18398839
174	0x3dfe453e	0.12415551
175	0x3e689bf5	0.22715743
176	0xbdc51c77	-0.0962457
177	0xbdcf6bac	-0.10127959
178	0x3df43e08	0.11925894
179	0xbe4a24b6	-0.19740567
180	0xbeb0b72e	-0.34514755
181	0xbe7dcfa1	-0.24786235
182	0x3e0aa670	0.13540053
183	0x3e58f2cb	0.21186368
184	0x3e162233	0.14661483
185	0xbcc38eac	-0.023871742
186	0x3d6eb1db	0.058275085
187	0x3e62a4c6	0.22133169
188	0x3e4513ec	0.19245881
189	0x3e86b0a6	0.26306647
190	0xbe733ee7	-0.23754464
191	0xbe377c48	-0.17918503
192	0x3e6f4ce4	0.23369175
193	0x3b09785f	0.0020976288
194	0x3e367e31	0.17821576
195	0xbdbfe19f	-0.09369206
196	0xbe3f166d	-0.18660899
197	0xbd9f2034	-0.07769814
198	0x3e839360	0.25698376
199	0x3d3e95e7	0.046529677
200	0xbe494411	-0.19654872
201	0x3cf5a603	0.029986387
202	0x3e4ff511	0.20308329
203	0xbc66bf70	-0.014083728
204	0x3de812e2	0.113317266
205	0xbe35d235	-0.17755969
206	0x3cf07f16	0.029357474
207	0x3e98cfa0	0.29845905
208	0xbe53a9ac	-0.20670193
209	0x3e8683cf	0.26272437
210	0xbdc2c8a6	-0.09510927
211	0x3e9ae20a	0.3025058
212	0xbe5cdfdc	-0.2156977
213	0x3cc71a5d	0.024304563
214	0x3e8c77dc	0.27435195
215	0xbe98d9f2	-0.2985378
216	0x3e18ec23	0.14933829
217	0x3dff8e7c	0.124783486
218	0x3dd50e5e	0.10403131
219	0xbe87dd2c	-0.26535928
220	0x3d639bb9	0.05556843
221	0xbd1f81ea	-0.038942255
222	0x3e65ced0	0.22442174
223	0x3e9da983	0.3079339
224	0x3e72e03c	0.23718351
225	0xbcdac36f	-0.026704518
226	0xbd7a9cd9	-0.061184738
227	0xbe521a83	-0.20517926
228	0x3dc2c03f	0.09509324
229	0xbe4d3996	-0.20041499
230	0x3e343325	0.17597635
231	0x3c649b24	0.013953004
232	0x3df236a8	0.11826831
233	0x3e2a9352	0.1665776
234	0x3d26ee8b	0.040754836
235	0xbe027898	-0.12741315
236	0x3d9ffbc7	0.078116946
237	0x3df198d2	0.11796726
238	0x3e0b801e	0.13623092
239	0x3e9022eb	0.2815164
240	0x3e6e6a04	0.23282629
241	0x3e0bc0c5	0.13647754
242	0x3e280335	0.16407473
243	0xbe50af01	-0.20379259
244	0xbd8f8154	-0.07007089
245	0x3e816b77	0.25277302
246	0x3dc518de	0.09623884
247	0x3da0d63d	0.07853363
248	0xbe4c5e67	-0.19957887
249	0x3e8ae9ab	0.271314
250	0x3dedbb6e	0.11608015
251	0xbd4fe363	-0.050753962
252	0x3e06be8b	0.13158624
253	0xbdc76a11	-0.097370274
254	0xbd88a2f7	-0.06671708
255	0x3de7c7ca	0.113174036

encoder.lnLst.0.2.bias f4 [32]
0	0xbe345420	-0.17610216
1	0xbccc8467	-0.024965478
2	0x3a2621d2	0.0006337437
3	0xbe50edad	-0.20403166
4	0xbd8bbfae	-0.068236694
5	0xbdeef5fe	-0.11668013
6	0xbd72be66	-0.05926361
7	0xbb446e6d	-0.0029973045
8	0xbe354bc0	-0.17704678
9	0x3ccd46ea	0.025058229
10	0x3e42319f	0.18964241
11	0x3dd449f4	0.10365668
12	0xbe243a43	-0.1603785
13	0xbd06425e	-0.032778136
14	0x3d66eaf9	0.05637643
15	0x3d057114	0.032578543
16	0xbe230f23	-0.15923743
17	0x3e265f52	0.162473
18	0x3e3f4b2d	0.18681021
19	0x3dbfe6b7	0.09370177
20	0x3e04e827	0.12979184
21	0x3c70cb9d	0.014696983
22	0x3c47ef1f	0.012203007
23	0xbcc20f32	-0.023688886
24	0x3e410716	0.1885036
25	0x3d837141	0.06418086
26	0xbdf41efc	-0.11919972
27	0x3e544178	0.207281
28	0x3d939d76	0.07207768
29	0xbe4b5355	-0.19856007
30	0xbe1571d8	-0.14594209
31	0x3d6352fd	0.055499066

encoder.lnLst.1.0.weight f4 [32, 7]
0	0x3d9acf27	0.075590424
1	0x3e725f4f	0.2366917
2	0xbda711e1	-0.08157707
3	0x3d9c8b22	0.07643725
4	0x3c2a049c	0.0103770755
5	0xbe9d522f	-0.30726764
6	0xbde96751	-0.11396659
7	0x3df90fa9	0.1216119
8	0xbee5e874	-0.4490391
9	0xbee7084b	-0.45123515
10	0x3e825d1d	0.25461665
11	0xbec168cb	-0.37775263
12	0xbedafe66	-0.42772216
13	0x3d455187	0.048173454
14	0x3e0a22e2	0.13489869
15	0x3df3574e	0.118818864
16	0x3e981a24	0.29707444
17	0x3ebd70bd	0.37000075
18	0xbdd5895a	-0.10426588
19	0x3e8e65b8	0.2781198
20	0x3e8e918f	0.27845427
21	0xbe03beeb	-0.12865798
22	0x3c4e1633	0.012578535
23	0x3dd153b7	0.102210455
24	0xbec82c55	-0.39096323
25	0xbeb88c8a	-0.36044723
26	0xbcbdb2f2	-0.023156617
27	0x3c0cdfc5	0.008598273
28	0x3e7b7d65	0.24559553
29	0x3d5fa886	0.054604076
30	0x3c35d008	0.011096962
31	0xbe88b437	-0.26699993
32	0xbebc8947	-0.36823484
33	0x3df26ce8	0.118371785
34	0x3e6d4457	0.23170601
35	0xbe4b3efc	-0.19848245
36	0x3e053f1f	0.1301236
37	0x3e9f1e31	0.31077722
38	0x3e025f86	0.12731752
39	0x3eb50d71	0.35361817
40	0x3e186862	0.14883569
41	0xbe24c9ce	-0.16092607
42	0x3e6786db	0.22610037
43	0x3e14cfda	0.14532414
44	0x3e407b2f	0.18796991
45	0xbe2332e7	-0.15937386
46	0xbe91e4be	-0.2849483
47	0xbe3fdb3d	-0.18735977
48	0xbe22f232	-0.15912703
49	0x3ecaa9db	0.39582714
50	0x3d4fbf41	0.050719503
51	0x3defe615	0.117138065
52	0xbdea82b7	-0.11450713
53	0xbe75c0da	-0.23999348
54	0xbeae9d87	-0.3410456
55	0x3e0acd7a	0.13554946
56	0xbea376c3	-0.31926546
57	0xbe9434f4	-0.2894665
58	0xbec3f196	-0.38270253
59	0xbe3e7351	-0.18598677
60	0x3e5c02c7	0.21485434
61	0xbe90c12c	-0.28272378
62	0xbeb91bfc	-0.36154163
63	0x3d2889d8	0.041147083
64	0xbda71a27	-0.08159285
65	0xbec21f60	-0.37914562
66	0xbea3aca9	-0.31967667
67	0xbe85cfda	-0.2613514
68	0xbcc1fa91	-0.02367905
69	0xbeae02ef	-0.33986613
70	0x3eb3aeb4	0.35094225
71	0xbe214dfb	-0.15752403
72	0xbd814d9c	-0.06313631
73	0xbeb97ff4	-0.36230433
74	0xbe9db423	-0.30801496
75	0xbeb9037d	-0.36135474
76	0x3d5e4e35	0.054273803
77	0x3eb2d7c4	0.3493024
78	0x3ed70bae	0.42001098
79	0x3e490985	0.19632538
80	0x3e376c3b	0.1791238
81	0x3ddd3b7e	0.10802363
82	0xbe78e79a	-0.24307099
83	0x3e38ad6f	0.1803491
84	0x3e8e3228	0.2777264
85	0x3ecbd7a6	0.39812964
86	0xbd209b00	-0.03921032
87	0xbe3413e6	-0.17585716
88	0x3ec1f559	0.37882498
89	0x3e866a57	0.26253006
90	0x3e9c9c89	0.30588177
91	0x3ed59d09	0.4172137
92	0xbdbcaf6e	-0.09213148
93	0x3ea32dba	0.31870824
94	0xbe9820fb	-0.29712662
95	0x3e234140	0.1594286
96	0xbe707c86	-0.23485002
97	0x3eb23561	0.3480635
98	0x3e54c93f	0.20779894
99	0xbc90177d	-0.017589325
100	0x3e7a943f	0.24470614
101	0xbe81dac8	-0.2536223
102	0x3eafba1c	0.34321678
103	0x3df7adf5	0.120937265
104	0x3e8de165	0.27711025
105	0x3ed40746	0.414118
106	0x3e2212dd	0.15827508
107	0x3ea9e1d3	0.33180103
108	0xbcd2d647	-0.025736941
109	0x3e805953	0.2506815
110	0xbe96f675	-0.29484907
111	0x3c6a8fd8	0.014316522
112	0x3eba7766	0.3641922
113	0x3eb3a25d	0.3508481
114	0x3ec6e02c	0.38842905
115	0xbeaa6383	-0.33279046
116	0x3d1a2e35	0.037641723
117	0xbea014cf	-0.31265876
118	0xbe903b1c	-0.28170097
119	0x3e91252a	0.28348666
120	0x3e6e47a6	0.23269519
121	0xbeb1cf6d	-0.34728566
122	0xbd08f687	-0.03343823
123	0xbe813436	-0.25235146
124	0xbec74a2b	-0.38923773
125	0x3e2e4be6	0.1702114
126	0xbeb3a53a	-0.35086995
127	0xbe898742	-0.26861006
128	0xbea3fd93	-0.320294
129	0xbebfc8d1	-0.37457898
130	0xbe0a6f02	-0.13518909
131	0xbe72740c	-0.23677081
132	0xbe88980c	-0.26678503
133	0xbeaeae5d	-0.34117404
134	0x3e3123d9	0.17298831
135	0xbeb32f6c	-0.34997118
136	0x3e6b01ba	0.22949877
137	0xbdf1c7b9	-0.11805672
138	0xbd60634c	-0.054782197
139	0x3e43c111	0.19116618
140	0x3cb3ad8d	0.021933341
141	0x3e9a195b	0.3009747
142	0xbe1b0bd7	-0.15141235
143	0x3e9d5380	0.30727768
144	0x3e9577cf	0.2919297
145	0xbea93192	-0.33045632
146	0xbec857e1	-0.39129546
147	0x3e5e5b87	0.21714602
148	0xbe9589e1	-0.29206756
149	0xbe8a20c4	-0.26978123
150	0xbb1cef04	-0.0023946175
151	0x3d3b8225	0.045778412
152	0x3e049ff1	0.12951638
153	0x3e62047f	0.22072028
154	0x3bde9072	0.0067921216
155	0x3eb78611	0.35844472
156	0xbe827748	-0.2548163
157	0xbeaaeb27	-0.33382532
158	0x3c1267c1	0.00893587
159	0xbeb53335	-0.3539063
160	0x3eb904e4	0.36136544
161	0x3e49e3ad	0.19715758
162	0x3eb57a98	0.35445094
163	0x3eb50d71	0.35361817
164	0xbd702886	-0.058632396
165	0x3eacbece	0.33739322
166	0xbe8e83eb	-0.2783502
167	0x3dbc5a98	0.09196967
168	0xbdc4420c	-0.0958291
169	0x3e5c45cd	0.21511002
170	0x3e46f9aa	0.19431177
171	0x3d8db150	0.06918585
172	0x3eab21a7	0.33424112
173	0x3eb1d0ef	0.34729716
174	0x3ef37821	0.4755259
175	0x3ec3c0d7	0.38233063
176	0xbc657a8e	-0.01400627
177	0x3ece1c1b	0.40255818
178	0xbd382584	-0.044957653
179	0x3d8109e1	0.063007124
180	0xbe8046ab	-0.25053915
181	0x3ea2f136	0.31824654
182	0xbe2ff709	-0.1718408
183	0xbe8b2cfb	-0.27182755
184	0x3e28c996	0.16483149
185	0xbe138dae	-0.14409515
186	0xbe9b10ea	-0.30286342
187	0xbd8e2fc0	-0.06942701
188	0x3e404da5	0.18779619
189	0xbb4a3998	-0.0030857082
190	0x3e3dd1aa	0.18537012
191	0x3e41a209	0.18909468
192	0xbe8dd18a	-0.27698928
193	0x3ec7f044	0.39050496
194	0x3e42c030	0.19018626
195	0xbe95ed9f	-0.29282853
196	0xbdc07203	-0.09396746
197	0x3e272897	0.16324078
198	0xbdc6f4a9	-0.09714634
199	0x3ea864ea	0.3288949
200	0xbcd1a690	-0.025592119
201	0xbd01834a	-0.031619348
202	0xbdf688f0	-0.120378375
203	0x3e96b533	0.2943512
204	0x3dee8c91	0.11647905
205	0x3d312ce5	0.043255705
206	0x3eafba3b	0.3432177
207	0xbe576fdf	-0.21038769
208	0x3d2747d0	0.04083997
209	0xbe802c4c	-0.25033796
210	0xbd98d98e	-0.0746337
211	0x3e254238	0.16138542
212	0xbde8ea31	-0.113727935
213	0xbe90e4eb	-0.2829965
214	0x3df786cc	0.12086257
215	0xbdf8c546	-0.12147002
216	0xbe2432b3	-0.16034965
217	0xbee713fc	-0.45132434
218	0x3e9042a0	0.2817583
219	0xbebbcb13	-0.3667837
220	0x3e5f7f3e	0.21825883
221	0x3e23e592	0.16005543
222	0x3e3cb741	0.18429281
223	0xbdca52e7	-0.098790936

encoder.lnLst.1.0.bias f4 [32]
0	0x3e380360	0.17970037
1	0x3ca572d4	0.020196356
2	0xbba2ced8	-0.0049685054
3	0x3ea79a44	0.32734883
4	0x3ea36f5d	0.319209
5	0xbebb2e83	-0.36558923
6	0xbeaba9fe	-0.3352813
7	0x3ea8834c	0.32912672
8	0x3e7850fd	0.24249645
9	0xbe8ac14c	-0.271006
10	0xbe2056b4	-0.15658075
11	0x3d03455d	0.03204857
12	0x3d9f01dc	0.077640265
13	0x3dbee4c7	0.093209796
14	0x3ed859cb	0.42256007
15	0x3ea8aeae	0.3294577
16	0xbdc0bf08	-0.09411436
17	0xbd5609f8	-0.0522556
18	0xbc96ea34	-0.018422224
19	0xbd6043b7	-0.054752078
20	0xbcaffba1	-0.02148229
21	0xbe38bf46	-0.18041715
22	0xbe518624	-0.20461327
23	0x3dd78cb3	0.10524883
24	0x3e96f1d2	0.2948137
25	0x3e79077f	0.24319266
26	0x3ea1bf11	0.31591085
27	0x3eb86775	0.3601643
28	0x3d1be69e	0.03806173
29	0x3d8bc233	0.0682415
30	0x3e21f2cc	0.15815276
31	0xbe3c1282	-0.18366435

encoder.lnLst.1.2.weight f4 [32, 32]
0	0x3dfd6634	0.12373009
1	0xbea7a6f2	-0.32744557
2	0x3e635125	0.22198923
3	0x3e9d646e	0.30740684
4	0x3ea4ccc3	0.3218747
5	0x3d734ae7	0.059397604
6	0x3d90d51b	0.07071897
7	0x3d9ec58e	0.07752524
8	0x3ea7066e	0.32622093
9	0xbd8f7aec	-0.07005867
10	0x3e9a7d2f	0.30173633
11	0x3dfc458f	0.12317955
12	0xbc93e71f	-0.018054543
13	0xbe374d8c	-0.17900676
14	0x3e1bd503	0.15217976
15	0x3e8bb695	0.27287737
16	0x3dc99f3b	0.09844824
17	0x3d42b4a7	0.047535565
18	0x3e0a7417	0.13520847
19	0x3e8c3809	0.273865
20	0x3e319340	0.17341328
21	0x3d93d4aa	0.07218297
22	0x3c3bd6b3	0.0114647625
23	0x3e466c1c	0.19377178
24	0x3e9b9d38	0.30393386
25	0xbe52e431	-0.2059486
26	0x3e8cee26	0.27525443
27	0xbdc08714	-0.09400764
28	0xbe53c4a6	-0.20680484
29	0xbe4cbe83	-0.1999455
30	0x3df1ba80	0.1180315
31	0xbddd1daf	-0.10796677
32	0xbd342b0a	-0.043986358
33	0xbd45900d	-0.04823308
34	0x3d53e04e	0.051727585
35	0x3e845dc6	0.25852793
36	0xbd753ec3	-0.059874307
37	0x3e94acab	0.29037985
38	0x3dfa1bfb	0.12212368
39	0xbe42c0c7	-0.19018851
40	0x3e6b06f8	0.22951877
41	0xbe4772f9	-0.19477452
42	0xbe9771c5	-0.29578987
43	0xbdc8dbf2	-0.09807576
44	0xbe05cb24	-0.13065773
45	0xbe49ce46	-0.19707593
46	0x3e85dc06	0.26144427
47	0xbd978c8b	-0.07399853
48	0xbe851fa0	-0.2600069
49	0xbe29753b	-0.16548626
50	0xbe457ed4	-0.19286662
51	0xbd8e722b	-0.069553696
52	0x3d17dbbb	0.037074786
53	0xbea3af14	-0.31969512
54	0xbdf75cba	-0.12078233
55	0xbdcd55b7	-0.100261144
56	0x3dc1f639	0.09470791
57	0x3de0c534	0.109751135
58	0x3e3e4df3	0.18584423
59	0xbd9d076b	-0.076674305
60	0xbe6f9763	-0.23397593
61	0xbd2dadec	-0.042402193
62	0x3e66397b	0.22482865
63	0x3e27dba3	0.16392379
64	0xbd735f0e	-0.059416823
65	0xbe3a70fe	-0.18207166
66	0xbe259869	-0.16171421
67	0xbd6a1e3d	-0.057157744
68	0x3d6b04f8	0.057377785
69	0x3b35dcbc	0.0027749976
70	0xbd4cfdfc	-0.050046906
71	0xbc7a1797	-0.015264413
72	0x3e4c75ff	0.19966887
73	0x3dc424b4	0.09577313
74	0x3e941df9	0.28929117
75	0x3e1d2c0a	0.15348831
76	0x3e78e3c1	0.24305631
77	0xbddddd72	-0.10833253
78	0x3dda991c	0.106737345
79	0xbdb746f5	-0.08949081
80	0x3e823393	0.25429973
81	0x3e72c98b	0.23709695
82	0xbe0bfbd6	-0.13670287
83	0x3e9818d1	0.29706433
84	0xbd6f8c21	-0.058483247
85	0x3e939c40	0.28830147
86	0x3e910c32	0.28329617
87	0xbcb9bec5	-0.022673974
88	0x3ea9195b	0.33027157
89	0xbcbdb42b	-0.0231572
90	0xbd9196e6	-0.0710886
91	0x3e430eb1	0.19048573
92	0x3ea2386e	0.31683677
93	0x3ea4af35	0.32164922
94	0xbccbb273	-0.024865365
95	0xbdb4ba16	-0.088245556
96	0xbd48e1f9	-0.04904363
97	0xbcb90f07	-0.022590173
98	0xbe74de79	-0.23912992
99	0xbe83a696	-0.25713032
100	0xbe7e6870	-0.24844527
101	0x3e002079	0.12512387
102	0x3e3d9181	0.18512537
103	0x3db6513e	0.089022145
104	0xbe7c8dd3	-0.24663477
105	0x3e0e584e	0.13900873
106	0xbd3cd4e9	-0.046101484
107	0xbd85d8f3	-0.065355204
108	0x3df762c0	0.12079382
109	0x3de7a539	0.113108106
110	0xbc29411f	-0.0103304675
111	0xbe4b3320	-0.19843721
112	0x3e85d965	0.2614242
113	0xbd94eec8	-0.072721064
114	0xbe1aefac	-0.1513049
115	0xbd6f9285	-0.05848934
116	0x3e67a7b6	0.2262257
117	0xbde4ed89	-0.11178119
118	0x3ddecc64	0.10878828
119	0xbd5e09e9	-0.05420867
120	0xbcd521f5	-0.026017169
121	0x3d1fbb04	0.03899671
122	0x3de76bc3	0.11299851
123	0xbe116e86	-0.14202318
124	0xbd552df8	-0.052045792
125	0x3d968de1	0.0735128
126	0xbd1bc15d	-0.038026202
127	0xbe6257f9	-0.22103871
128	0xbdd3b86c	-0.1033791
129	0xbdf940ac	-0.12170538
130	0x3e8b3fda	0.27197152
131	0xbdebd1f6	-0.11514656
132	0x3e97e1fd	0.29664603
133	0x3e0d320f	0.13788627
134	0x3dfa2a1a	0.122150615
135	0x3d6897c0	0.056785345
136	0xbd0c887c	-0.03430985
137	0xbe382718	-0.17983663
138	0x3e9468df	0.2898626
139	0x3e8a6450	0.27029657
140	0xbba1e148	-0.0049401857
141	0xbe31a5f9	-0.1734847
142	0xbc8b0bd4	-0.016973414
143	0xbe4448f4	-0.19168454
144	0x3e23cd44	0.15996271
145	0xbd47b19a	-0.04875336
146	0xbe8227cc	-0.25420988
147	0xbcb79050	-0.02240768
148	0xbe48272b	-0.19546191
149	0xbdbb32ae	-0.09140526
150	0xbd95239b	-0.07282182
151	0xbd3e0ef2	-0.04640097
152	0xbdd05206	-0.10171895
153	0x3e06500e	0.13116476
154	0x3e49cd4c	0.19707221
155	0xbbde94af	-0.006792627
156	0xbca1ddf5	-0.019759158
157	0x3e99f341	0.300684
158	0xbdff9f44	-0.124815494
159	0xbe11ab51	-0.14225508
160	0xbd9229f4	-0.07136908
161	0x3dd9455a	0.10608931
162	0x3e31f8b4	0.17380029
163	0xbe2f4a23	-0.17118125
164	0xbe6713e8	-0.22566187
165	0x3ecaeaaa	0.3963216
166	0x3de1e7bf	0.1103053
167	0xbe254069	-0.16137852
168	0x3ca97a72	0.02068827
169	0xbd7fa1a4	-0.062410012
170	0x3e07e534	0.13271028
171	0x3c2f26bd	0.010690388
172	0x3e72af8b	0.23699777
173	0xbddc32f2	-0.107519045
174	0x3d1eac7f	0.038738724
175	0x3e9f0a5c	0.3106259
176	0x3e13583c	0.14389127
177	0x3bce2e41	0.006292135
178	0xbe64086a	-0.22268835
179	0xbe2d4fd9	-0.1692499
180	0xbe1e7e75	-0.15477927
181	0x3eb797ea	0.3585809
182	0xbe5f883c	-0.21829313
183	0xbe5dfb4c	-0.21677893
184	0x3e4ade5c	0.19811386
185	0x3e9e1cc9	0.30881336
186	0x3e0988ae	0.13431045
187	0x3e8de23b	0.27711663
188	0x3e9eea7c	0.31038272
189	0xbe4b375c	-0.19845337
190	0x3e3d1fd7	0.18469177
191	0xbd46e8d6	-0.048561893
192	0xbd770219	-0.060304735
193	0x3e47f6b5	0.19527705
194	0x3ea8a80d	0.32940713
195	0x3e6b5476	0.22981438
196	0x3e296549	0.16542543
197	0x3e8c38cf	0.27387092
198	0xbe498c02	-0.19682315
199	0x3eaae234	0.33375704
200	0xbe43e67d	-0.19130893
201	0x3e35d85d	0.17758317
202	0x3e9386be	0.28813738
203	0x3e9e9022	0.3096934
204	0x3ebdddb3	0.37083206
205	0x3e5168e6	0.20450172
206	0x3ea24984	0.31696713
207	0x3bb7f3e0	0.005613789
208	0x3e8a4b7f	0.27010724
209	0x3eb7c11d	0.3588952
210	0x3e29a1b7	0.16565596
211	0xbe0801ee	-0.13281986
212	0x3e65c1ad	0.22437163
213	0xbe2dc8cf	-0.16971134
214	0xbe94162a	-0.2892316
215	0xbe4b838e	-0.19874403
216	0x3e28bcf0	0.16478324
217	0x3ebe5b15	0.37178865
218	0xbdad1e81	-0.08453084
219	0x3dd3c7ee	0.10340868
220	0x3eb626a4	0.35576355
221	0x3cbfac3a	0.023397554
222	0xbcf37164	-0.029717155
223	0x3d86a95a	0.0657527
224	0xbe2463d3	-0.16053705
225	0x3e501089	0.20318808
226	0x3e5cf0d6	0.21576247
227	0xbe3c1525	-0.18367441
228	0xbe5fe777	-0.2186564
229	0x3d2bc24a	0.041933335
230	0xbe8a776c	-0.27044237
231	0xbe66c44d	-0.2253582
232	0x3cb942c5	0.022614846
233	0x3e8d4b79	0.27596644
234	0xbe52ddd6	-0.20592436
235	0xbd340b4e	-0.043956093
236	0x3d15ff0c	0.036620185
237	0xbe0ba270	-0.13636184
238	0xbe52e3fc	-0.20594782
239	0xbe085968	-0.13315356
240	0xbe178fc3	-0.14800934
241	0xbeb384a4	-0.35062134
242	0x3e99c698	0.30034328
243	0x3b6a4106	0.0035744323
244	0xbdf8e815	-0.12153641
245	0xbe94f305	-0.2909166
246	0x3dce6c82	0.1007929
247	0xbe3424c5	-0.17592151
248	0xbddd0b94	-0.10793224
249	0xbe69091d	-0.22757383
250	0xbc6a094a	-0.014284441
251	0x3e509713	0.2037013
252	0x3e92ff4e	0.28710407
253	0x3e6fb4ca	0.2340881
254	0x3e6f4769	0.23367085
255	0x3e44d94e	0.1922352

encoder.lnLst.1.2.bias f4 [32]
0	0xbd7d7893	-0.061882567
1	0xbdba237f	-0.090888016
2	0xbdc45b16	-0.09587686
3	0xbd63680e	-0.055519156
4	0x3dcb105b	0.09915229
5	0xbd705cf4	-0.058682397
6	0xbcd970d0	-0.026543051
7	0xbde91bf0	-0.11382282
8	0x3d546fc1	0.05186439
9	0xbe420c37	-0.18949972
10	0x3e33e6cf	0.17568515
11	0x3e566e11	0.20940425
12	0x3d3f5bfa	0.046718575
13	0xbddb9991	-0.1072265
14	0x3cfcc50c	0.030855678
15	0xbc8cca17	-0.017186208
16	0xbdc8e68e	-0.098096
17	0xbe4e9c21	-0.20176746
18	0xbd440054	-0.047851875
19	0x3d38dbd1	0.04513151
20	0xbe01c2fc	-0.12672037
21	0xbdb1a2aa	-0.08673604
22	0x3d893de1	0.067012556
23	0x3e43009f	0.19043206
24	0xbd8e8a79	-0.06960005
25	0xbcd5d991	-0.02610472
26	0xbd16c451	-0.036808316
27	0x3e1cdf3f	0.15319537
28	0x3d89c5c0	0.06727171
29	0x3db20b9d	0.08693621
30	0x3d9aa632	0.075512305
31	0xbc55c110	-0.013046518

atten.W_k.weight f4 [32, 32]
0	0x3d1e552b	0.03865544
1	0xbe900c0c	-0.2813419
2	0x3e2f2b83	0.17106442
3	0xbdbfee2d	-0.093716
4	0xbe2763d0	-0.16346669
5	0x3d8c4aed	0.068502285
6	0xbeb4eae6	-0.35335463
7	0xbc8e97aa	-0.017406303
8	0x3d0afcf4	0.03393264
9	0x3e257518	0.16157949
10	0x3df0ee02	0.117641464
11	0xbd674f1a	-0.05647192
12	0xbe93d6e1	-0.28874877
13	0xbe01e858	-0.12686288
14	0x3e0cd3a1	0.13752605
15	0xbde72b85	-0.112875976
16	0xbe88368b	-0.26604113
17	0x3e44475a	0.19167843
18	0x3d684d2f	0.056714233
19	0x3c307005	0.010768895
20	0x3e8af69e	0.2714128
21	0x3eb634f2	0.3558727
22	0xbe16d3a6	-0.14729175
23	0xbde055a7	-0.10953837
24	0xbe3262c3	-0.17420487
25	0xbc50d4c6	-0.012746042
26	0x3d36f133	0.04466362
27	0x3ed1d22f	0.4098067
28	0x3dd7c89c	0.1053631
29	0x3e0acf18	0.13555562
30	0xbe88af30	-0.26696157
31	0x3ed2e7d4	0.41192496
32	0xbe09007f	-0.13379095
33	0x3d185804	0.037193313
34	0x3e4be0ad	0.19909926
35	0xbda8954f	-0.08231603
36	0x3e6417d6	0.22274718
37	0x3d6b6b30	0.05747527
38	0xbe8c80cf	-0.27442023
39	0x3e3db6ef	0.18526815
40	0xbe8f4099	-0.27978972
41	0xbde5c516	-0.11219232
42	0xbe893c56	-0.26803845
43	0xbbbb2235	-0.005710865
44	0xbe63d460	-0.22248983
45	0x3d2a83ab	0.041629475
46	0xbe1d910d	-0.15387364
47	0x3e1129ee	0.14176151
48	0xbc3c4d8f	-0.011493101
49	0x3e59114f	0.21198009
50	0xbd064859	-0.03278384
51	0xbea24d41	-0.31699565
52	0x3e93094b	0.28718027
53	0x3e6fe225	0.23426111
54	0xbe8f4d98	-0.27988887
55	0x3e749bf7	0.23887621
56	0xbe84d2f0	-0.25942183
57	0xbea3dab9	-0.3200281
58	0x3e931594	0.287274
59	0xbea313f3	-0.31851158
60	0xbd3489dd	-0.04407679
61	0xbcdaf1dd	-0.026726658
62	0x3e09852c	0.13429707
63	0x3e723570	0.23653197
64	0xbd973621	-0.07383371
65	0xbe4293dc	-0.19001716
66	0xbd8d8a84	-0.069111854
67	0xbdff036b	-0.12451824
68	0xbd95415c	-0.07287857
69	0x3dd906cd	0.10597
70	0x3e8c3311	0.2738271
71	0xbe696e98	-0.22796094
72	0xbe77492e	-0.2414901
73	0x3ea7a2f9	0.32741526
74	0xbdff7256	-0.1247298
75	0x3c780644	0.015138213
76	0x3e396ad5	0.1810716
77	0x3eb0b40d	0.34512368
78	0x3e814efe	0.2525558
79	0xbe2d8b7b	-0.16947739
80	0xbe60d755	-0.21957143
81	0x3de9b093	0.11410632
82	0x3e50a89e	0.20376822
83	0xbe1a02cf	-0.15040134
84	0xbcb99d5e	-0.022658046
85	0x3e9a4b8d	0.30135766
86	0x3e8b1073	0.27160987
87	0x3ddeebe4	0.10884836
88	0xbb24e453	-0.0025160506
89	0x3e1ebaf5	0.15501006
90	0xbe9bf4e1	-0.30460265
91	0xbe3c6c1b	-0.18400614
92	0x3e91a280	0.2844429
93	0xbc82d25d	-0.01596945
94	0xbe316b7d	-0.1732616
95	0x3d337d2a	0.043820538
96	0x3e791411	0.24324061
97	0xbd94f8a8	-0.0727399
98	0x3e22fb7a	0.15916243
99	0x3e3f3462	0.18672326
100	0x3c1ce65e	0.009576408
101	0xbe787f8e	-0.24267408
102	0xbe1c8f93	-0.15289144
103	0x3e1d60eb	0.15369003
104	0x3d9948cb	0.07484587
105	0x3e4a25a0	0.19740915
106	0xbdc88118	-0.09790248
107	0xbe104433	-0.14088516
108	0xbde3e519	-0.11127681
109	0x3d8d71b1	0.069064505
110	0x3e431c17	0.19053684
111	0xbde7b91f	-0.11314606
112	0x3e6af3f7	0.22944628
113	0x3e443fa8	0.19164908
114	0xbd2684b1	-0.040653888
115	0xbdecbd8e	-0.11559592
116	0x3c5a0719	0.013307356
117	0x3d4f898b	0.05066828
118	0xbe0c2eb9	-0.13689698
119	0x3e3f5e48	0.18688309
120	0x3e3da01e	0.18518111
121	0xbd7bcee2	-0.061476596
122	0xbd8cb20d	-0.06869898
123	0xbe7e7ddb	-0.24852698
124	0xbd4780e5	-0.048706908
125	0x3dccf0a2	0.100068346
126	0x3ccd2ee6	0.025046777
127	0xbd4feb51	-0.050761525
128	0xbe8ec554	-0.27884924
129	0xbd926156	-0.071474716
130	0xbd8f6ab2	-0.070027724
131	0xbe4f9335	-0.20270999
132	0x3da99274	0.08279887
133	0x3eb06305	0.34450546
134	0xbe5c4216	-0.21509585
135	0x3d78d0ce	0.060746007
136	0xbec06a34	-0.37581027
137	0x3e3a9f9e	0.18224952
138	0xbe0cbea1	-0.13744594
139	0x3e9eb792	0.30999428
140	0x3e28ee32	0.16497114
141	0xbe5b6d1f	-0.21428345
142	0x3e0c95dc	0.13729042
143	0xbd6f6da7	-0.058454182
144	0x3e75e4e4	0.24013096
145	0xbd986bd0	-0.074424386
146	0xbe7c2b9a	-0.24626008
147	0xbe1418a4	-0.14462525
148	0xbd40e44a	-0.047092713
149	0x3e7a1e31	0.2442558
150	0xbe41e7dc	-0.18936104
151	0xbe0c6dac	-0.13713712
152	0x3d874694	0.066052586
153	0x3e2f1c3c	0.17100614
154	0xbc0a7d2e	-0.008452697
155	0x3d920947	0.07130676
156	0xbe1f97e1	-0.15585281
157	0x3e5553d0	0.20832753
158	0x3e55180c	0.20809954
159	0xbe2fab35	-0.17155154
160	0x3df25c23	0.1183398
161	0x3eb00fb3	0.34386978
162	0x3c134987	0.008989698
163	0x3dd0763d	0.10178802
164	0xbea5f051	-0.3240991
165	0x3daa3623	0.08311107
166	0x3d8e0cea	0.06936057
167	0xbea4a7ed	-0.32159367
168	0xbe084569	-0.13307728
169	0x3e44c7f4	0.19216901
170	0xbe82dbba	-0.25558263
171	0x3e2afd48	0.16698182
172	0xbda27b2d	-0.0793365
173	0xbe8302b9	-0.25588015
174	0xbe92826f	-0.28615138
175	0x3df8c8a2	0.12147643
176	0xbdbdc297	-0.09265631
177	0x3d5f8e1c	0.054578885
178	0xbdf540dc	-0.119752616
179	0xbdafb476	-0.08579342
180	0x3e5eefa7	0.21771108
181	0x3d5a6405	0.053318042
182	0x3ca50f9b	0.020149043
183	0xbe963659	-0.2933834
184	0x3db1338f	0.08652412
185	0xbe3247b4	-0.17410165
186	0xbdc4b79a	-0.09605332
187	0xbdafec9c	-0.085900515
188	0x3e1a4802	0.15066531
189	0xbd126d27	-0.035748627
190	0x3d8a6c31	0.06758917
191	0x3e1916b6	0.1495007
192	0x3e2a61a6	0.16638812
193	0xbe275318	-0.16340292
194	0xbd729f4a	-0.05923394
195	0xbe2afe68	-0.16698611
196	0x3e362572	0.17787722
197	0xbda14b4f	-0.07875692
198	0x3db85eb1	0.09002436
199	0x3de1be70	0.11022651
200	0xbe78ecfa	-0.2430915
201	0x3c18231b	0.009285714
202	0x3e82cb00	0.25545502
203	0x3e8d3c70	0.27585173
204	0x3e668b60	0.22514105
205	0xbe66d0d3	-0.22540598
206	0x3e22c602	0.15895846
207	0x3e1c0902	0.15237811
208	0xbe3ee950	-0.18643689
209	0xbe780a38	-0.24222648
210	0xbd12499f	-0.03571474
211	0x3ddad97a	0.106860116
212	0xbe680e74	-0.22661763
213	0x3ea6b43f	0.32559392
214	0xba9d274f	-0.0011989864
215	0x3d0c6cce	0.03428345
216	0xbe273efe	-0.16332623
217	0xbe58da31	-0.21176983
218	0x3e617f0c	0.22021121
219	0xbe7c8743	-0.24660973
220	0x3e9dfe06	0.30857867
221	0x3df5ab39	0.11995549
222	0xbd9d0354	-0.076666504
223	0x3d9decc6	0.077111766
224	0x3e8108d8	0.2520206
225	0x3db8c03c	0.09021041
226	0x3d5cd6dd	0.053915847
227	0xbe5fa593	-0.21840505
228	0x3e010aba	0.12601748
229	0xbd89f718	-0.067365825
230	0xbe4b3c97	-0.19847332
231	0x3bfa4d1b	0.007638586
232	0x3e8c63a0	0.27419758
233	0xbe922b8f	-0.28548858
234	0xbe1c926e	-0.15290233
235	0x3dd344bc	0.103158444
236	0xbe8dfc6d	-0.27731648
237	0xbe27eb35	-0.16398318
238	0xbe4b23c0	-0.19837856
239	0xbcb58b84	-0.022161253
240	0xbe88d710	-0.2672658
241	0x3d0a1eb2	0.03372068
242	0x3c893c1f	0.0167523
243	0xbe3e8606	-0.18605813
244	0xbe9d6418	-0.30740428
245	0x3e27b18b	0.16376321
246	0x3eacd346	0.3375494
247	0xbe6852ae	-0.2268779
248	0xbe5fce6d	-0.21856089
249	0xbe6f2efa	-0.23357764
250	0xbbea3467	-0.00714736
251	0xbe2a15ba	-0.1660985
252	0xbd9ae2b1	-0.07562769
253	0x3b39594f	0.0028281992
254	0xbde1d06c	-0.110260814
255	0x3c002ee0	0.007823676
